runs/run-20251102-183122/best_G.pt (torch, 339093 bytes, 18 tensors)

enc_x.weight_ih_l0 f4 [192, 18]
0.023631759 0.05015403 -0.023447769 0.03751808 0.07844555 0.019125542 0.051010992 0.065360084
0.075375535 0.12225851 0.09949674 0.12632571 0.008147921 -0.113969594 -0.047193445 -0.0837816
0.068553574 0.10870326 -0.049651723 -0.008915678 -0.06131778 0.074501395 -0.011246266 -0.0028056013
0.033340447 0.08538927 0.03786262 -0.105582625 -0.06898217 0.043022625 -0.034341794 0.00892146
-0.040436182 0.050454177 0.013250003 0.066702984 -0.11062204 -0.032246158 0.04150034 0.060755562
-0.08743537 -0.120136015 0.011430555 -0.08521912 0.057611242 -0.11144175 0.061288316 -0.081693485
0.017396796 0.041523233 -0.10996696 -0.019201692 -0.046417475 -0.005777245 -0.074032456 0.0323122
-0.030755425 -0.09782654 0.054991163 -0.09212615 0.0345134 -0.0595101 0.114079095 0.05896392
-0.06663889 0.083660506 -0.1047233 0.06521204 -0.12494636 -0.11049603 -0.04272804 0.032621074
-0.08390874 -0.053491503 0.021997718 0.056449916 0.08736783 0.064728506 -0.010082643 0.10457691
-0.09633606 -0.06606714 0.07468754 -0.078897886 0.03194774 0.034490857 0.07609786 -0.09791909
-0.08510747 0.024893988 0.10464002 0.098095894 0.022335716 -0.037129868 -0.11972149 -0.007543127
-0.11925383 0.03582386 -0.06604398 -0.102233544 -0.105169095 0.03912378 0.1005007 -0.094045006
-0.04048949 0.11345182 -0.072838314 -0.074459456 -0.07835534 -0.06652705 -0.11219803 0.013354066
-0.06730524 -0.024731731 0.075431444 -0.08038062 -0.06012005 -0.047820486 0.04397619 -0.07998141
-0.10309764 0.068274915 0.0030755375 -0.02106179 0.13842581 0.100466296 -0.040275946 0.045893326
-0.09536905 -0.08727556 0.039989967 0.11199898 -0.02505556 0.088641524 0.08707228 0.0055990103
0.0043807747 -0.061906386 0.019375857 0.1562268 -0.050249726 -0.049798362 -0.06863139 0.03943718
-0.062771775 0.101155 0.088165894 -0.019313749 0.08047085 0.084721446 -0.004090424 -0.09375417
0.066058256 -0.066271685 0.01315378 -0.039996352 0.10296286 0.028218424 0.03139603 0.01569878
0.06532863 -0.024615316 0.104806505 -0.07559267 0.049482796 -0.10742471 0.008397119 -0.009801749
0.06374538 -0.09552494 0.08938415 -0.034839753 -0.09044267 -0.10468413 -0.09002329 0.031176297
-0.010507974 -0.049151167 0.09880846 0.017294679 0.021168118 -0.06348872 0.06383013 0.043040443
-0.0020654125 0.011973319 0.022107951 -0.070088804 -0.075996995 -0.13105461 -0.02362425 0.105975285
0.12984113 -0.08700381 0.033198036 0.038908675 -0.055842295 -0.0319625 0.07183556 -0.086690634
0.115643136 -0.0987009 0.008314537 0.016508484 -0.020689128 0.05854114 0.053205475 0.09624129
-0.090340205 0.029202176 -0.101464085 0.12433655 -0.1078368 0.04771628 -0.10330507 0.05513961
-0.025495643 0.029340968 0.026372112 -0.02839135 0.0705742 0.10312465 -0.120109536 0.105483994
0.07094351 0.1142141 -0.0059968303 0.080436125 -0.076303855 -0.08713451 -0.0859133 -0.123028845
0.051773522 -0.012504656 0.07311715 0.072665736 0.05595196 0.012160267 0.12672064 0.033789147
0.057467848 0.08366497 -0.06502363 0.026485743 -0.06608765 -0.023885213 0.15236731 -0.104472116
-0.111859135 -0.02696932 -0.08380066 0.055899642 -0.0400755 -0.029144928 0.1065473 0.08309545
00000000: 6497 c13c 506e 4d3d 8915 c0bc 8fac 193d
00000010: 0fa8 a03d 2bad 9c3c e7f0 503d 82db 853d
00000020: 7d5e 9a3d ab62 fa3d f2c4 cb3d 875b 013e
00000030: dc7e 053c e468 e9bd ea4d 41bd b095 abbd
00000040: d165 8c3d d19f de3d 9b5f 4bbd 1013 12bc
00000050: 5a28 7bbd 3094 983d 4242 38bc 2ede 37bb
00000060: fe8f 083d 92e0 ae3d d615 1b3d b43b d8bd
00000070: 8646 8dbd 7e38 303d fba9 0cbd 512b 123c
00000080: 69a0 25bd 0aa9 4e3d 8a16 593c 939b 883d
00000090: cf8d e2bd 8c14 04bd 43fc 293d d3da 783d
000000a0: 5111 b3bd df09 f6bd 3947 3b3c 5d87 aebd
000000b0: c4f9 6b3d 923b e4bd 7509 7b3d ea4e a7bd
000000c0: ba83 8e3c 4414 2a3d 5c36 e1bd de4c 9dbc
000000d0: 4020 3ebd 0b4f bdbb 549e 97bd cc59 043d
000000e0: cdf2 fbbc 4859 c8bd 6a3e 613d a3ac bcbd
000000f0: ec5d 0d3d ddc0 73bd 4da2 e93d 2784 713d
00000100: f879 88bd 3356 ab3d 2b79 d6bd e48d 853d
00000110: e1e3 ffbd be4b e2bd 9903 2fbd ad9d 053d
00000120: 58d8 abbd e819 5bbd 8f34 b43c 0738 673d
00000130: e8ed b23d 6190 843d ab31 25bc 6b2c d63d
00000140: d74b c5bd 354e 87bd c8f5 983d 3795 a1bd
00000150: a2db 023d 4946 0d3d 32d9 9b3d ce89 c8bd
00000160: d34c aebd 7aee cb3c 824d d63d 80e6 c83d
00000170: 64f9 b63c 7d15 18bd 8a30 f5bd 562c f7bb
00000180: 5a3b f4bd 0abc 123d 1142 87bd d25f d1bd
00000190: e562 d7bd 4240 203d 50d3 cd3d ab9a c0bd
000001a0: 4fd8 25bd 6e59 e83d 412c 95bd 337e 98bd
000001b0: c478 a0bd 563f 88bd 15c8 e5bd 03cb 5a3c
000001c0: 54d7 89bd 339a cabc cd7b 9a3d 989e a4bd
000001d0: 7140 76bd 6adf 43bd 6120 343d 4bcd a3bd
000001e0: db24 d3bd b8d3 8b3d f58e 493b c689 acbc
000001f0: 7fbf 0d3e 46c1 cd3d 64f8 24bd a4fa 3b3d
00000200: d950 c3bd 87bd b2bd 85cc 233d b95f e53d
00000210: 5141 cdbc b089 b53d f452 b23d e777 b73b
00000220: 9a8c 8f3b 8d91 7dbd 1eba 9e3c ebf9 1f3e
00000230: a8d2 4dbd 5ef9 4bbd 9d8e 8cbd e188 213d
00000240: 7d8e 80bd 5a2a cf3d 5290 b43d de37 9ebc
00000250: e7cd a43d 7082 ad3d f708 86bb 3002 c0bd
00000260: 8d49 873d 73b9 87bd f482 573c 37d3 23bd
00000270: 31de d23d 532a e73c 2099 003d ba9a 803c
00000280: 04cb 853d 0fa6 c9bc cba4 d63d 54d0 9abd
00000290: 79ae 4a3d 7d01 dcbd 1294 093c 8497 20bc
000002a0: f08c 823d 94a2 c3bd 0a0f b73d 21b4 0ebd
000002b0: 023a b9bd a264 d6bd 215e b8bd 6f65 ff3c
000002c0: a329 2cbc bc52 49bd 175c ca3d 92ad 8d3c
000002d0: c368 ad3c 6006 82bd 5fb9 823d 2d4b 303d
000002e0: df5b 07bb bd2b 443c bc1b b53c b88a 8fbd
000002f0: 50a4 9bbd 2e33 06be a587 c1bc 9209 d93d
00000300: 13f5 043e 0e2f b2bd aafa 073d b45e 1f3d
00000310: e4ba 64bd 1ceb 02bd 861e 933d dc8a b1bd
00000320: 4fd6 ec3d b323 cabd b239 083c cd3c 873c
00000330: 3f7c a9bc d6c8 6f3d fced 593d 271a c53d
00000340: 4904 b9bd 6739 ef3c 67cc cfbd 29a4 fe3d
00000350: 8ad9 dcbd 2572 433d 9c91 d3bd 12da 613d
00000360: 3ddc d0bc 785c f03c 540a d83c fa94 e8bc
00000370: 3589 903d 0433 d33d fdfb f5bd fe07 d83d
00000380: d54a 913d 15e9 e93d 0f81 c4bb b2bb a43d
00000390: 3245 9cbd 9473 b2bd 50f3 afbd 8cf6 fbbd
000003a0: 7910 543d 54e0 4cbc 72be 953d c6d1 943d
000003b0: e22d 653d db3b 473c 0ec3 013e 7d66 0a3d
000003c0: 6863 6b3d 8a58 ab3d 1c2b 85bd a1f8 d83c
000003d0: f658 87bd ecaa c3bc 2d06 1c3e 7af5 d5bd
000003e0: 6716 e5bd c3ee dcbc ae9f abbd 06f7 643d
000003f0: 3526 24bd 58c1 eebc 7935 da3d f32d aa3d

enc_x.weight_hh_l0 f4 [192, 64]
0.06682922 0.1401879 0.0027051717 0.116595246 -0.049214583 -0.10408434 -0.088345855 -0.08235387
-0.014576056 -0.025247447 -0.06400196 0.050211202 -0.027212247 0.13469686 -0.023988916 -0.02097898
-0.09588239 -0.08398469 0.08696662 -0.07181054 0.09055943 -0.039736375 0.05169624 0.13690692
-0.033517867 0.047122385 -0.11794592 0.005977343 -0.07235069 -0.065385535 0.109011695 -0.05445303
-0.051078565 -0.051181473 -0.06761109 0.10923153 -0.05979695 -0.072388195 -0.036837205 -0.014836467
-0.0031788782 -0.05544149 -0.05911748 -0.0838376 -0.053630244 -0.026051395 -0.08775185 -0.059564747
-0.07022866 -0.06529862 -0.015294947 0.017680049 -0.058118634 0.09560413 0.0640788 -0.032447774
0.082321174 -0.063795 -0.055970956 0.05942042 0.06496089 -0.056550957 -0.06822212 -0.097948715
-0.10639293 -0.10046084 0.09701242 -0.058167405 -0.07367516 -0.061870407 -0.039201993 -0.08176512
0.109706715 0.057695836 -0.06719456 0.04707356 -0.05020343 0.04761742 -0.10371555 0.034348298
0.02803714 0.018208275 0.07207673 0.091290556 -0.018710783 0.07210603 -0.099952765 0.0047334344
-0.038937286 -0.0014247041 0.078904144 -0.052539553 0.111069754 0.01025668 0.06364846 0.09308776
0.07924823 0.0866173 -0.04532954 0.057733055 0.112321526 -0.07568449 -0.09993942 0.08863245
0.020428965 0.124364175 -0.027315516 -0.042344823 0.045161426 -0.09895187 -0.07750243 0.10834579
0.068381585 0.07806488 -0.03773919 -0.043394532 0.054867465 0.08003789 -0.040171474 -0.01074342
-0.05123399 -0.031158827 -0.009601202 -0.06985853 -0.08304441 -0.029944235 -0.10255314 -0.038102176
0.026375804 -0.13510364 0.0024031452 -0.09352073 -0.035769444 -0.10136537 0.12045387 0.00043356212
-0.05284504 -0.08081188 0.051200934 -0.023027796 0.03406011 -0.067389935 0.04868761 0.13569069
0.070970856 0.1002464 -0.12515536 0.075442635 0.13520999 -0.107284896 0.05044 0.0046411073
-0.09516843 0.08687416 -0.10378724 0.07347863 0.060914833 -0.008667743 0.015334354 -0.03471674
0.05632787 0.06648891 0.105300836 -0.097190864 -0.10117855 0.036391538 0.019034252 -0.047062106
-0.07270832 0.0034176772 -0.0027403866 -0.025919246 -0.038783766 0.0017797598 0.072888866 -0.030322405
-0.055525307 -0.021518283 0.0454075 0.057011783 -0.12636003 0.14466733 0.037872817 0.034992546
-0.050343577 0.08823949 0.12255854 0.07960146 -0.02854046 0.09955644 -0.12268685 0.077689625
0.08514187 -0.041640017 -0.020036407 0.018689243 -0.06750655 0.042754337 -0.058830738 0.055504017
-0.108828194 -0.017585669 -0.09664661 0.114087366 0.09403013 0.01563318 0.12336618 -0.062612906
-0.10033136 -0.08313449 0.05186893 0.09494129 0.05402954 -0.12029464 -0.109056145 -0.009521192
-0.05517143 0.05366185 0.045111693 0.015923176 -0.007532712 -0.06684315 -0.013329399 -0.08137857
0.03824703 -0.09053478 -0.02311893 -0.095690034 0.020806063 -0.10579809 -0.032004196 0.028416852
-0.12866661 -0.08704489 -0.013903769 -0.0981074 0.112355396 -0.036084834 0.07920577 0.116132095
-0.06536543 -0.13314448 0.017974151 -0.08654983 0.01912638 -0.030567545 0.047713123 -0.04025446
0.012264508 -0.11644594 0.1364729 -0.1148499 0.025392953 0.05514456 0.053926725 -0.010025887
00000000: c2dd 883d 6b8d 0f3e 4049 313b 7dc9 ee3d
00000010: 3b95 49bd 2c2a d5bd acee b4bd 25a9 a8bd
00000020: 69d0 6ebc bcd3 cebc 7613 83bd 43aa 4d3d
00000030: 38ec debc f9ed 093e 6784 c4bc 1cdc abbc
00000040: fd5d c4bd 2a00 acbd 8e1b b23d 6811 93bd
00000050: 3977 b93d 9cc2 22bd 70bf 533d 5431 0c3e
00000060: 084a 09bd 6703 413d a18d f1bd 96dd c33b
00000070: 992c 94bd dae8 85bd 8641 df3d 240a 5fbd
00000080: c237 51bd aaa3 51bd af77 8abd c8b4 df3d
00000090: a6ed 74bd 4340 94bd 9ce2 16bd a714 73bc
000000a0: ba54 50bb 9e16 63bd 2c25 72bd 0cb3 abbd
000000b0: 63ab 5bbd bc69 d5bc 3eb7 b3bd 2afa 73bd
000000c0: 0bd4 8fbd 48bb 85bd a897 7abc c0d5 903c
000000d0: ce0d 6ebd 19cc c33d bf3b 833d f5e7 04bd
000000e0: 0198 a83d f4a6 82bd cd41 65bd d462 733d
000000f0: 370a 853d faa1 67bd 0ab8 8bbd 5699 c8bd
00000100: 89e4 d9bd 6abe cdbd 73ae c63d f240 6ebd
00000110: 01e3 96bd d36b 7dbd 4592 20bd 7974 a7bd
00000120: eaad e03d 7852 6c3d 4d9d 89bd 35d0 403d
00000130: 1da2 4dbd 7c0a 433d d168 d4bd cdb0 0c3d
00000140: 25ae e53c 8529 953c f79c 933d 8bf6 ba3d
00000150: 5b47 99bc 54ac 933d 09b4 ccbd ed1a 9b3b
00000160: b47c 1fbd 23bd baba 7f98 a13d b733 57bd
00000170: 8a78 e33d a20b 283c 205a 823d cca4 be3d
00000180: e54c a23d 6964 b13d 78ab 39bd 7f79 6c3d
00000190: d408 e63d 7800 9bbd 0aad ccbd ee84 b53d
000001a0: a55a a73c a5b2 fe3d cac4 dfbc c471 2dbd
000001b0: 30fb 383d 47a7 cabd 98b9 9ebd 66e4 dd3d
000001c0: a50b 8c3d 7be0 9f3d 6994 1abd 77be 31bd
000001d0: b5bc 603d e8ea a33d d88a 24bd 2b05 30bc
000001e0: bbda 51bd cc40 ffbc 5c4e 1dbc fd11 8fbd
000001f0: 3013 aabd 9d4d f5bc 6107 d2bd 0711 1cbd
00000200: 1212 d83c 9c58 0abe 167e 1d3b cc87 bfbd
00000210: fb82 12bd a698 cfbd 85b0 f63d b94f e339
00000220: 0a74 58bd b380 a5bd 12b8 513d caa4 bcbc
00000230: 9d82 0b3d bc03 8abd a96c 473d 80f2 0a3e
00000240: 2b59 913d fc4d cd3d ba28 00be ab81 9a3d
00000250: 7d74 0a3e 2fb8 dbbd 2c9a 4e3d 6e14 983b
00000260: aae7 c2bd 14eb b13d 688e d4bd f77b 963d
00000270: d581 793d 2603 0ebc f13c 7b3c 2433 0ebd
00000280: 0db8 663d 562b 883d f7a7 d73d 010c c7bd
00000290: b336 cfbd 4b0f 153d b8ed 9b3c 32c4 40bd
000002a0: 1ae8 94bd 1cfb 5f3b 0f98 33bb 9954 d4bc
000002b0: badb 1ebd d446 e93a c246 953d b166 f8bc
000002c0: 816e 63bd 1c47 b0bc 37fd 393d 3085 693d
000002d0: 8664 01be ac23 143e 8720 1b3d 5854 0f3d
000002e0: 1135 4ebd e8b6 b43d f9ff fa3d 1706 a33d
000002f0: afcd e9bc 3fe4 cb3d 3e43 fbbd bd1b 9f3d
00000300: dc5e ae3d b98e 2abd 6423 a4bc 2f1a 993c
00000310: e040 8abd 2c1f 2f3d 80f8 70bd 2e58 633d
00000320: 51e1 debd d20f 90bc a8ee c5bd a3a6 e93d
00000330: de92 c03d 2811 803c 68a7 fc3d 323b 80bd
00000340: 877a cdbd 6a42 aabd 8474 543d 9470 c23d
00000350: 144e 5d3d 095d f6bd d458 dfbd c6fe 1bbc
00000360: 70fb 61bd 87cc 5b3d 0ac7 383d 5271 823c
00000370: f8d4 f6bb 10e5 88bd 8d63 5abc cfa9 a6bd
00000380: eba8 1c3d 4c6a b9bd e963 bdbc 23f9 c3bd
00000390: 7a71 aa3c abac d8bd d516 03bd 75ca e83c
000003a0: 2ec1 03be 9744 b2bd a2cc 63bc 88ec c8bd
000003b0: 961a e63d b1cd 13bd a236 a23d aad6 ed3d
000003c0: 50de 85bd 0757 08be 873e 933c 0a41 b1bd
000003d0: edae 9c3c ca68 fabc d66e 433d dce1 24bd
000003e0: 13f1 483c 367b eebd 8dbf 0b3e 6d36 ebbd
000003f0: e204 d03c 43df 613d 45e2 5c3d 9e43 24bc

enc_x.bias_ih_l0 f4 [192]
-0.06683223 0.008326962 -0.0155862495 -0.11734535 -0.045484625 0.050773233 0.043924633 -0.018157464
-0.09773792 0.106950685 -0.019897988 0.014089432 -0.0927695 0.13824055 -0.0587574 -0.016546085
0.10773333 -0.044905487 0.01642973 -0.10200271 0.04681416 0.07302426 -0.057712376 -0.11571739
0.012349178 0.018207304 -0.0139349615 -0.031013208 -0.058264703 -0.06751796 -0.031950735 0.038923968
0.017891265 -0.04678331 -0.058065094 -0.11141775 0.032914728 -0.016704995 0.069869354 -0.027470917
0.057013467 0.035023674 -0.010242166 -0.002496029 -0.0015947302 -0.04674438 0.07812714 0.06483691
0.028490582 -0.12312588 0.024447566 -0.1097766 0.08832516 0.08474609 -0.074929155 -0.105479605
-0.053384487 0.1332831 -0.09727008 0.08201288 -0.05940896 0.021571439 0.094602644 0.022103436
0.08495835 0.023711788 0.035698038 0.12310647 0.02901207 0.09971138 -0.10415667 0.062309965
-0.05330201 0.09986533 0.018558042 0.095344424 -0.092016704 0.05728328 -0.05936152 -0.099001125
-0.040591083 0.021484155 -0.06893648 0.02497909 0.10891674 0.012159546 -0.04929628 0.037518136
0.010586487 -0.06915328 0.08296855 -0.030480238 0.077135764 -0.04837107 0.06454482 -0.022483109
0.050426994 0.09335071 0.101177394 -0.05760361 -0.056395393 -0.077782966 0.041902456 -0.0946748
-0.041040715 0.078052826 0.086960524 -0.012798838 -0.020899408 0.0072540347 -0.016933894 -0.0897675
-0.014464493 -0.03822653 0.10634062 0.042483922 -0.06955428 0.022194026 0.10775508 0.111003615
0.050738014 -0.036798462 -0.08001169 -0.007963182 -0.09875651 0.13439602 -0.045111485 0.008476323
-0.06621618 0.0042377324 0.040386185 -0.10206447 -0.07599668 -0.0014531106 -0.06457146 -0.035263233
0.06305868 -0.020984346 -0.039243914 -0.054549906 0.010933739 0.045939647 -0.04868499 -0.07886757
-0.040687222 0.08744946 -0.14357752 0.091936976 0.1281829 -0.12970138 -0.105092846 0.01690706
0.06559119 -0.071061596 0.0012434501 0.019294515 -0.027688857 -0.14663778 -0.0448761 -0.13604504
0.07140649 0.06358251 0.05580742 0.10195479 -0.07050567 0.007877848 -0.14118199 -0.107493706
-0.059282545 0.014380696 0.06319253 -0.072702795 -0.007494938 0.06116764 -0.10878896 -0.13352446
0.12769262 -0.029340345 -0.03217221 -0.08652165 0.03521156 0.11770086 -0.11450838 0.0902547
0.012844138 -0.021968992 0.10663436 -0.014658095 0.09524668 0.003844958 0.097935766 0.009751706
00000000: 56df 88bd cf6d 083c 785d 7fbc c252 f0bd
00000010: 164e 3abd 98f7 4f3d 51ea 333d f6be 94bc
00000020: d22a c8bd f608 db3d 1b01 a3bc 5cd7 663c
00000030: f0fd bdbd ee8e 0d3e 99ab 70bd a88b 87bc
00000040: 4ba3 dc3d d1ee 37bd a497 863c cce6 d0bd
00000050: 34c0 3f3d be8d 953d d063 6cbd 3dfd ecbd
00000060: 3554 4a3c 7c27 953c 774f 64bc 690f febc
00000070: f8a6 6ebd db46 8abd c6de 02bd bd6e 1f3d
00000080: b490 923c db9f 3fbd aad5 6dbd fd2e e4bd
00000090: 98d1 063d ead8 88bc aa17 8f3d b00a e1bc
000000a0: f486 693d fc74 0f3d c2ce 27bc 6b94 23bb
000000b0: 4406 d1ba 0977 3fbd 1f01 a03d 37c9 843d
000000c0: 1565 e93c 6c29 fcbd 4346 c83c 8ed2 e0bd
000000d0: d2e3 b43d 5c8f ad3d 7574 99bd b105 d8bd
000000e0: b1a9 5abd 5d7b 083e 8935 c7bd 5ef6 a73d
000000f0: cf56 73bd 96b6 b03c 08bf c13d 4412 b53c
00000100: a5fe ad3d 393f c23c 1b38 123d 3f1f fc3d
00000110: b8aa ed3c 7b35 cc3d 1850 d5bd bc38 7f3d
00000120: 3553 5abd 3286 cc3d 0907 983c f043 c33d
00000130: 4173 bcbd dfa1 6a3d 1125 73bd 1ac1 cabd
00000140: d642 26bd 8aff af3c 922e 8dbd f3a0 cc3c
00000150: bd0f df3d d538 473c e5ea 49bd 9eac 193d
00000160: f272 2d3c 3ca0 8dbd 6aeb a93d b1b1 f9bc
00000170: 5bf9 9d3d be20 46bd 1330 843d 7f2e b8bc
00000180: 898c 4e3d a82e bf3d 1836 cf3d c3f1 6bbd
00000190: dbfe 66bd ad4c 9fbd e9a1 2b3d dde4 c1bd
000001a0: 4f1a 28bd 29da 9f3d 5c18 b23d 38b2 51bc
000001b0: 3c35 abbc 41b3 ed3b f3b8 8abc 06d8 b7bd
000001c0: 7bfc 6cbc 6c93 1cbd 1cc9 d93d 9f03 2e3d
000001d0: 7972 8ebd 3fd0 b53c b2ae dc3d dd55 e33d
000001e0: aad2 4f3d fcb9 16bd 2bdd a3bd 0278 02bc
000001f0: da40 cabd 1c9f 093e d2c6 38bd 47e0 0a3c
00000200: 599c 87bd addc 8a3b fc6b 253d 2d07 d1bd
00000210: 26a4 9bbd 4d76 beba 0b3e 84bd 2e70 10bd
00000220: e924 813d 5de7 abbc 3abe 20bd b96f 5fbd
00000230: 6d23 333c 362b 3c3d e969 47bd 5285 a1bd
00000240: a5a7 26bd b418 b33d fc05 13be 7449 bc3d
00000250: 6142 033e 70d0 04be eb3a d7bd ad80 8a3c
00000260: ac54 863d be88 91bd 43fb a23a 880f 9e3c
00000270: bed3 e2bc 3728 16be 00d0 37bd 644f 0bbe
00000280: 913d 923d 8c37 823d 5296 643d accd d03d
00000290: 4765 90bd 1712 013c 0392 10be a925 dcbd
000002a0: 41d2 72bd 039d 6b3c 166b 813d 34e5 94bd
000002b0: 1998 f5bb eb8a 7a3d bfcc debd a3ba 08be
000002c0: dbc1 023e 2a5b f0bc 02c7 03bd 4332 b1bd
000002d0: ff39 103d 260d f13d 5f83 eabd 75d7 b83d
000002e0: 3870 523c 51f8 b3bc 1e63 da3d 8228 70bc
000002f0: b110 c33d b1fb 7b3b 8c92 c83d 9fc5 1f3c

enc_x.bias_hh_l0 f4 [192]
-0.05678192 -0.09726509 0.082186006 -0.012619276 -0.064171046 0.08902439 -0.0802789 0.12075973
0.005288763 0.12649636 0.10139337 -0.05027343 -0.016916174 0.1486725 0.06042612 -0.0077644377
-0.0138019025 0.007199669 -0.12083958 0.09823956 -0.030005815 0.1157903 0.04502042 0.032590766
0.09946224 0.035591777 -0.08360675 -0.00358539 -0.019376205 -0.054367714 0.00216616 -0.07418857
-0.049870398 0.12021812 -0.0398871 0.021041479 -0.10402986 0.097381264 0.11072874 -0.06201058
0.12497021 0.053679623 -0.07797318 -0.0474448 -0.06888191 0.10184062 0.059200287 0.09343528
-0.08841651 -0.099712305 -0.07068947 -0.027464319 -0.11062307 0.010675877 -0.034232583 -0.07892961
-0.027689649 -0.04235441 0.052591912 -0.122054465 0.06523217 -0.11037807 0.03546388 0.054412127
-0.11366795 -0.010833945 -0.08079699 0.12020511 0.11893896 -0.004931172 -0.108648024 0.11564626
-0.12239201 -0.0658965 -0.12791 0.07218871 0.1060032 -0.036625225 -0.01731417 -0.024022806
-0.0041903183 -0.09814899 0.10657542 -0.1112688 0.011274348 -0.00015773758 0.11963101 0.13030238
0.09965893 0.053422913 -0.041891746 -0.07753594 -0.096168995 0.0024511926 0.14096169 0.040265087
0.14187342 0.12096563 0.088782385 -0.013112703 0.14668481 -0.046613235 0.069642246 -0.046529144
-0.09261295 -0.12138266 0.012888875 -0.101436995 -0.04797008 0.0868662 -0.070289925 0.015441403
-0.07558397 -0.0664531 0.028056988 -0.083484985 -0.015446439 -0.08326754 0.12569523 -0.1126625
-0.045060586 -0.036961906 0.047388017 -0.033749998 -0.10956526 0.14230298 0.08093826 0.0076765814
0.046745718 -0.018121373 -0.072256684 -0.0135915335 0.0052698557 -0.05427038 0.07274909 0.12131695
0.098843366 0.020841012 0.0043414915 0.09544445 0.098369084 0.09085504 0.07286455 -0.08634605
-0.049271286 0.1179047 0.078224674 0.051425844 0.045478694 -0.13321833 -0.006198095 -0.058638174
0.008029617 -0.03442636 -0.11224402 0.073499694 -0.11244176 0.022741769 -0.09494987 0.05189972
-0.07976645 0.037889253 -0.000905669 -0.097653024 -0.11395725 0.045255292 0.062678084 0.02138261
0.04428719 -0.033833556 0.029420916 0.014103704 0.07737457 -0.02239352 0.12525392 -0.13335094
-0.05664807 -0.07574475 0.051291272 0.109318666 0.13369825 -0.0023175154 -0.1254656 -0.010633216
-0.08878778 0.1012127 0.03032964 0.0274992 -0.10448085 0.004779524 -0.11546084 -0.084831424
00000000: 2994 68bd eb32 c7bd 2351 a83d 14c1 4ebc
00000010: 1c6c 83bd 6b52 b63d 4469 a4bd e150 f73d
00000020: 5c4d ad3b 4388 013e 54a7 cf3d 83eb 4dbd
00000030: ca93 8abc 9b3d 183e 6181 773d d36c febb
00000040: 6021 62bc 33eb eb3b be7a f7bd d331 c93d
00000050: c1ce f5bc 7723 ed3d 5567 383d e57d 053d
00000060: dcb2 cb3d afc8 113d 043a abbd ddf8 6abb
00000070: d9ba 9ebc aeb0 5ebd 22f6 0d3b 2df0 97bd
00000080: e744 4cbd eb34 f63d a860 23bd 2e5f ac3c
00000090: 9b0d d5bd d46f c73d c0c5 e23d cefe 7dbd
000000a0: 62f0 ff3d 2adf 5b3d 67b0 9fbd 7b55 42bd
000000b0: f511 8dbd d191 d03d 007c 723d ff5a bf3d
000000c0: b713 b5bd f735 ccbd a4c5 90bd dafc e0bc
000000d0: 598e e2bd e0e9 2e3c 7737 0cbd d9a5 a1bd
000000e0: 67d5 e2bc d17b 2dbd 9e6a 573d b1f7 f9bd
000000f0: 7298 853d e60d e2bd 9342 113d 40df 5e3d
00000100: beca e8bd dc80 31bc e478 a5bd 192e f63d
00000110: 4596 f33d ab95 a1bb db82 debd f2d7 ec3d
00000120: aaa8 fabd bff4 86bd d7fa 02be add7 933d
00000130: 3518 d93d 5504 16bd 72d6 8dbc 7acb c4bc
00000140: f04e 89bb 5602 c9bd 3744 da3d e6e0 e3bd
00000150: 0bb8 383c 5c66 25b9 1a01 f53d fd6d 053e
00000160: fb19 cc3d fcd1 5a3d ae96 2bbd 2acb 9ebd
00000170: 40f4 c4bd 30a4 203b 4358 103e 01ed 243d
00000180: 4447 113e d4bc f73d 8ad3 b53d aad6 56bc
00000190: 8b34 163e 85ed 3ebd 98a0 8e3d 5895 3ebd
000001a0: dcab bdbd 7997 f8bd dc2b 533c 33be cfbd
000001b0: 467c 44bd e8e6 b13d 2af4 8fbd f0fd 7c3c
000001c0: c5cb 9abd 9018 88bd c5d7 e53c 2dfa aabd
000001d0: 1013 7dbc 2c88 aabd 40b6 003e 99bb e6bd
000001e0: 7391 38bd 5e65 17bd f019 423d 703d 0abd
000001f0: c063 e0bd dfb7 113e f5c2 a53d d58b fb3b
00000200: 7078 3f3d 4673 94bc 50fb 93bd 06af 5ebc
00000210: c1ae ac3b 9e4a 5ebd 7afd 943d 0575 f83d
00000220: 646e ca3d c5ba aa3c 1243 8e3b 6178 c33d
00000230: bb75 c93d 3512 ba3d 023a 953d 33d6 b0bd
00000240: b0d0 49bd 0578 f13d 4234 a03d e8a3 523d
00000250: de47 3a3d 636a 08be 6419 cbbb 952e 70bd
00000260: a88e 033c a802 0dbd 31e0 e5bd 0287 963d
00000270: de47 e6bd f24c ba3c 1475 c2bd cd94 543d
00000280: 985c a3bd c331 1b3d 6b6a 6dba 4ffe c7bd
00000290: 6b62 e9bd 9d5d 393d 5e5d 803d 952a af3c
000002a0: 7c66 353d 0e95 0abd 2204 f13c 3913 673c
000002b0: 8f76 9e3d 9e72 b7bc 9042 003e 268d 08be
000002c0: cf07 68bd 1020 9bbd cc16 523d 77e2 df3d
000002d0: 32e8 083e 75e1 17bb 0e7a 00be f136 2ebc
000002e0: 5ed6 b5bd 9b48 cf3d dd75 f83c 0146 e13c
000002f0: 0efa d5bd 8e9d 9c3b bc76 ecbd 19bc adbd

enc_a.weight_ih_l0 f4 [192, 18]
-0.10427944 0.06152138 -0.022038797 -0.06660178 0.048693232 -0.027117735 -0.06995711 -0.0091373315
0.0518955 0.048600517 0.05221973 -0.078250624 0.009220198 -0.07147702 -0.0016181902 0.033961948
0.066096656 -0.07961634 0.05183122 0.038271174 0.01772377 -0.037914775 -0.01412051 0.018463816
-0.07757213 -0.11263885 0.04575542 -0.108681664 0.09235578 -0.014254214 -0.03576907 -0.11403272
0.0010610558 -0.07873533 0.01500966 0.050103463 0.0153298415 -0.12192097 -0.15317616 -0.11915522
0.10701677 0.045173984 -0.00044297485 -0.052456725 0.08386531 0.08594167 0.14443676 0.05505111
-0.12809521 0.1063566 0.07724278 -0.059470486 0.055296794 0.1292531 -0.05816742 -0.07521276
0.05097704 -0.006756444 -0.12197639 -0.05200479 -0.023659918 -0.09168114 0.04846035 0.09326432
0.0798493 0.12188596 -0.014849105 0.01509329 0.119252585 -0.07005609 -0.06951611 -0.044629358
-0.091840535 -0.10447101 -0.014303326 -0.023017488 -0.12870967 0.0042194934 0.023266938 0.03469634
0.0119026555 0.046343 -0.08219725 0.06817324 0.101244725 -0.0036834336 0.0021350142 0.01696208
0.06250484 0.029247459 0.045224167 0.07114175 -0.08064477 0.083732754 0.041167412 -0.11111497
0.06576305 -0.07344842 0.072955795 -0.046267238 -0.11765131 0.0010872979 0.0116442535 0.11616215
-0.0073220343 0.10675145 -0.015354102 0.016554764 -0.024770599 -0.07376735 0.111854404 0.109520756
-0.082146 -0.1100544 -0.11226226 0.10986726 0.07073603 0.031954113 -0.036643993 0.017846428
-0.003450913 0.11255693 0.05915 0.06670851 -0.060270842 0.11359841 -0.05678431 0.064084575
0.10988018 -0.051108953 -0.092797995 -0.10457635 0.028783608 0.05130445 -0.033401705 -0.055764157
-0.06508925 -0.026807906 0.028651925 -0.13195014 0.09063736 0.06721109 0.068845585 -0.05737865
-0.101456635 0.041799247 -0.08945025 -0.12221989 -0.038044333 -0.003937656 0.07184606 0.0021410044
-0.1295347 -0.11320905 0.024400644 0.0070267646 0.10075451 -0.0026550961 -0.074728124 0.124897115
0.068851806 -0.101462446 -0.0058169803 -0.11219674 0.05824541 -0.021844637 -0.037875254 0.040169314
0.035092294 0.07305709 -0.002238762 0.0525075 -0.10047952 -0.08036094 0.11158885 -0.081714936
0.04756294 -0.024089405 -0.019109115 0.11036748 0.04377382 0.10794465 0.047958475 -0.0730032
0.03740257 0.04410121 0.09291017 -0.033226606 0.017922975 0.06414255 0.05254531 -0.10937795
-0.004591637 0.13079292 0.08555719 -0.015704393 -0.12589337 -0.06667899 -0.080035605 -0.096692696
0.039006364 0.005628117 0.085695565 -0.090965636 0.09573895 -0.028209947 0.11967852 -0.059246782
-0.09786369 -0.06866552 -0.065270856 -0.10202145 -0.075658575 0.04969247 0.012327204 -0.0081372075
0.028070189 -0.023670614 0.0987663 0.111019984 -0.04460715 0.06535971 0.018752176 -0.1073639
0.13042797 0.03245896 0.11872857 0.02248774 0.0419462 0.10078496 0.017020147 0.015862804
0.03642503 0.084985726 0.0074153566 0.079646215 -0.06400259 0.09233959 0.057348512 -0.015726583
-0.11315059 0.1037264 -0.097485766 -0.003657257 0.11061633 -0.030188192 0.06688814 -0.050191186
0.10768908 -0.004840301 0.039782546 0.100451194 0.12188541 -0.11972737 -0.10825914 0.092997015
00000000: 7690 d5bd d8fd 7b3d b58a b4bc 8466 88bd
00000010: 8e72 473d 0326 debc ac45 8fbd bfb4 15bc
00000020: 6090 543d 5611 473d 5be4 553d dd41 a0bd
00000030: 5010 173c 8b62 92bd 7419 d4ba af1b 0b3d
00000040: af5d 873d e40d a3bd f94c 543d 3cc2 1c3d
00000050: 7131 913c 864c 1bbd b659 67bc 6e41 973c
00000060: 23de 9ebd 33af e6bd 096a 3b3d 7e94 debd
00000070: 0725 bd3d 828a 69bc 9782 12bd fd89 e9bd
00000080: 2013 8b3a fd3f a1bd 14eb 753c 4a39 4d3d
00000090: 042a 7b3c b4b1 f9bd 36da 1cbe a707 f4bd
000000a0: 9c2b db3d 5b08 393d 143f e8b9 dddc 56bd
000000b0: 93c1 ab3d 3002 b03d 3be7 133e 467d 613d
000000c0: 642b 03be 7dd1 d93d 7631 9e3d 5397 73bd
000000d0: e47e 623d ed5a 043e f640 6ebd 2609 9abd
000000e0: 4dcd 503d 2965 ddbb c2ce f9bd fa02 55bd
000000f0: 72d2 c1bc 52c3 bbbd 5c7e 463d 5d01 bf3d
00000100: 0888 a33d 599f f93d a949 73bc d949 773c
00000110: b33a f43d 9179 8fbd 765e 8ebd 46cd 36bd
00000120: e416 bcbd e6f4 d5bd 7f58 6abc 2c8f bcbc
00000130: 78cc 03be ad43 8a3b 4e9a be3c c01d 0e3d
00000140: 5b03 433c 28d2 3d3d 0857 a8bd 699e 8b3d
00000150: 6559 cf3d c365 71bb 98eb 0b3b 0ff4 8a3c
00000160: 8a02 803d 5e98 ef3c fa3c 393d c4b2 913d
00000170: 1629 a5bd 147c ab3d 299f 283d 3f90 e3bd
00000180: c7ae 863d 206c 96bd d969 953d b782 3dbd
00000190: 2cf3 f0bd aa83 8e3a 8ac7 3e3c 6ce6 ed3d
000001a0: aded efbb 81a0 da3d c58f 7bbc db9d 873c
000001b0: b6eb cabc 5613 97bd ec13 e53d 6b4c e03d
000001c0: 293c a8bd 3464 e1bd c1e9 e5bd 1602 e13d
000001d0: 0dde 903d 51e2 023d 0318 16bd ac32 923c
000001e0: b628 62bb 3f84 e63d 4547 723d 799e 883d
000001f0: 8fde 76bd 48a6 e83d aa96 68bd c63e 833d
00000200: dc08 e13d 9f57 51bd e00c bebd 202c d6bd
00000210: 9acb eb3c 9d24 523d 3ad0 08bd f568 64bd
00000220: 834d 85bd 419c dbbc 71b7 ea3c f01d 07be
00000230: 15a0 b93d f8a5 893d eafe 8c3d e005 6bbd
00000240: 7fc8 cfbd b035 2b3d b131 b7bd 6c4e fabd
00000250: 60d4 1bbd 7407 81bb 0724 933d 1850 0c3b
00000260: bfa4 04be 25da e7bd dce3 c73c c640 e63b
00000270: 6158 ce3d 1f01 2ebb 0f0b 99bd 0fca ff3d
00000280: 2d02 8d3d 8bcb cfbd 5e9c bebb 68c7 e5bd
00000290: bd92 6e3d 86f3 b2bc 1523 1bbd 9488 243d
000002a0: f0bc 0f3d f59e 953d 32b8 12bb 1b12 573d
000002b0: 35c8 cdbd 4794 a4bd b288 e43d 295a a7bd
000002c0: 5bd1 423d 2557 c5bc b88a 9cbc 5808 e23d
000002d0: 2d4c 333d 1612 dd3d 1b70 443d b482 95bd
000002e0: 7033 193d 78a3 343d b047 be3d 9f18 08bd
000002f0: 34d3 923c 2b5d 833d c039 573d 8c01 e0bd
00000300: 7175 96bb 94ee 053e 9c38 af3d 80a6 80bc
00000310: 31ea 00be ff8e 88bd b5e9 a3bd d206 c6bd
00000320: 23c5 1f3d 116c b83b 2881 af3d 314c babd
00000330: c812 c43d 8c18 e7bc 031a f53d c1ac 72bd
00000340: c26c c8bd 82a0 8cbd baac 85bd 9ff0 d0bd
00000350: e2f2 9abd 558a 4b3d 0bf8 493c ec51 05bc
00000360: 74f3 e53c e0e8 c1bc fc45 ca3d 725e e33d
00000370: fdb5 36bd 50db 853d 2a9e 993c 9be1 dbbd
00000380: e98e 053e b0f3 043d f727 f33d 3538 b83c
00000390: c7cf 2b3d 5868 ce3d d66d 8b3c b6f2 813c
000003a0: 6a32 153d ff0c ae3d 85fc f23b 8e1d a33d
000003b0: ca13 83bd 8a1c bd3d 46e6 6a3d 09d5 80bc
000003c0: 7fbb e7bd 826e d43d 9ea6 c7bd 97ae 6fbb
000003d0: d08a e23d 3a4d f7bc a6fc 883d 4695 4dbd
000003e0: 188c dc3d 639b 9ebb 06f3 223d 5bb9 cd3d
000003f0: 0f9f f93d a033 f5bd f8b6 ddbd 3875 be3d

enc_a.weight_hh_l0 f4 [192, 64]
0.11390504 0.019513315 0.07326595 -0.00039893555 -0.005370034 -0.054744676 0.030221999 -0.08869792
-0.013482588 -0.005995202 -0.060113583 -0.04884837 -0.08160644 0.101701684 0.06305512 0.07321834
0.0045175278 -0.033432253 -0.0038305947 0.003885055 0.024398275 0.08571356 -0.0041635265 -0.09826735
-0.13975438 -0.109978765 -0.0958302 -0.029251669 0.04560771 0.034743898 -0.0030469794 0.0044135354
0.1086058 -0.11942185 0.060231782 0.10931204 -0.026701063 -0.045473397 0.025560236 0.106990926
-0.08314976 -0.12557344 -0.11242186 -0.06901745 -0.0028574122 0.0038602077 0.020294847 0.08424271
-0.09846056 0.01983376 0.008557614 0.045325775 0.03351152 -0.04262309 -0.018533183 -0.044583797
-0.093014546 -0.025913157 -0.10164414 0.037206117 -0.012925087 0.018735597 0.042587925 0.11312286
-0.119737 0.10009114 -0.09267576 -0.11484789 0.027583927 0.061364897 0.11509049 0.11496114
0.10982281 0.016340373 -0.033041816 -0.05644625 -0.063903235 0.12212388 -0.024713656 0.007925312
-0.10287921 -0.006345894 0.11990306 -0.025421117 0.07305909 -0.0051462883 -0.030461637 -0.051436383
0.057981625 0.092344336 0.07287568 0.11117266 -0.09000902 -0.042019807 -0.068532705 0.039009333
-0.09220543 0.11261362 -0.09604554 -0.11445488 0.014277333 0.049233768 -0.12775539 -0.103413194
0.011501841 -0.017440991 0.023127936 -0.08341219 -0.011111553 -0.016919572 0.03479275 0.004065572
0.10511315 0.046446487 -0.094029866 0.042974073 0.08721248 -0.0126138525 -0.08528178 0.017756896
-0.10413607 0.08480657 -0.11703881 -0.060578093 -0.006532056 -0.040345155 0.024956007 0.12686983
0.104784004 -0.025443412 0.045534942 -0.14225824 0.108912505 -0.07148827 0.05156652 -0.047404584
0.065930225 0.0932144 -0.011563234 -0.041144747 -0.0964731 0.104328364 -0.1044751 0.101551145
0.08379603 0.026366929 -0.09517255 -0.010106628 0.008901171 0.04172276 -0.13094579 0.055499513
-0.0068377783 -0.04233081 0.021739041 0.10207767 0.068456836 -0.12989953 0.07872794 0.09325483
-0.069431186 -0.028327074 0.114274606 -0.027472515 -0.085572496 0.13658553 -0.019906541 0.009975398
0.09226859 -0.11180966 0.15466031 0.031391997 0.1595346 0.050048567 -0.067375824 -0.08812034
-0.10202278 -0.09918771 0.08291641 0.05547707 -0.07330765 0.110082634 -0.031449832 -0.029412827
-0.06838563 -0.028810052 -0.04431707 -0.094920106 0.102468036 0.0821936 -0.06055461 0.015573299
0.061055254 -0.030348385 -0.06572512 0.019214418 0.006472575 -0.07674487 0.06834321 -0.04246642
0.00088598544 -0.057839155 0.10271556 0.0805887 -0.049304403 0.080710776 0.10960852 -0.079641245
-0.05203653 -0.009883829 -0.08706431 -0.1160447 -0.06741554 -0.0035087762 0.019111317 -0.11243368
-0.10089071 0.07409304 -0.01438718 0.0884897 0.047923155 -0.0021101371 -0.04866592 0.014833299
0.043702852 -0.091643594 0.095244564 0.029885486 0.0048018843 -0.0012163068 -0.13415918 0.11322085
0.0064277835 0.0055322507 0.08241513 0.13107009 -0.09078909 0.091819935 -0.06997782 -0.10674356
0.105342545 0.10934261 -0.079117954 -0.04283804 0.08214814 0.045162447 -0.024787156 -0.039274205
0.09188594 -0.030854521 -0.07008955 0.046243113 0.011141243 0.05086541 -0.103215635 -0.11860635
00000000: 0c47 e93d 63da 9f3c 750c 963d 3928 d1b9
00000010: 1cf7 afbb f43b 60bd 2094 f73c 41a7 b5bd
00000020: 13e6 5cbc 6673 c4bb a939 76bd 3a15 48bd
00000030: 4721 a7bd f948 d03d 0b23 813d 7ff3 953d
00000040: c507 943b 42f0 08bd b70a 7bbb 689c 7e3b
00000050: e4de c73c 978a af3d 316e 88bb 6440 c9bd
00000060: c61b 0fbe 8c3c e1bd a042 c4bd 32a1 efbc
00000070: 26cf 3a3d 9e4f 0e3d d5af 47bb 6b9f 903b
00000080: b86c de3d 7193 f4bd 9ab5 763d fede df3d
00000090: 30bc dabc 5042 3abd b363 d13c 0f1e db3d
000000a0: 6c4a aabd 5396 00be 6f3d e6bd 0559 8dbd
000000b0: 6c43 3bbb 8afb 7c3b 6141 a63c 7187 ac3d
000000c0: b1a5 c9bd 697a a23c 3c35 0c3c 85a7 393d
000000d0: 6043 093d 8d95 2ebd e7d2 97bc 809d 36bd
000000e0: 697e bebd d447 d4bc ce2a d0bd 7165 183d
000000f0: bec3 53bc 657b 993c ad70 2e3d f5ac e73d
00000100: ac38 f5bd 95fc cc3d cacc bdbd 5f35 ebbd
00000110: b0f7 e13c c259 7b3d 90b4 eb3d bf70 eb3d
00000120: c8ea e03d 3fdc 853c db56 07bd 2f34 67bd
00000130: b3df 82bd 161c fa3d 4b74 cabc 2bd9 013c
00000140: 56b2 d2bd 38f1 cfbb bc8f f53d f23f d0bc
00000150: 01a0 953d 32a2 a8bb af8a f9bc f5ae 52bd
00000160: 247e 6d3d 071f bd3d d83f 953d 7eae e33d
00000170: a656 b8bd f61c 2cbd e05a 8cbd 40c8 1f3d
00000180: 33d6 bcbd f8a1 e63d 86b3 c4bd 5267 eabd
00000190: 7aeb 693c 59a9 493d 4fd2 02be 4cca d3bd
000001a0: 3872 3c3c 69e0 8ebc cc76 bd3c 03d4 aabd
000001b0: 3b0d 36bc ea9a 8abc d882 0e3d 7d38 853b
000001c0: 9045 d73d ac3e 3e3d bb92 c0bd 9505 303d
000001d0: 759c b23d 55aa 4ebc 37a8 aebd e976 913c
000001e0: 4b45 d5bd 11af ad3d 0bb2 efbd bc20 78bd
000001f0: db0a d6bb f640 25bd 8a70 cc3c 2aea 013e
00000200: ff98 d63d b46e d0bc d982 3a3d 25ac 11be
00000210: 850d df3d 7168 92bd 6a37 533d 4f2b 42bd
00000220: 6d06 873d 31e7 be3d b873 3dbc 6587 28bd
00000230: b093 c5bd 1caa d53d 0bf7 d5bd 0cfa cf3d
00000240: 419d ab3d 75ff d73c d3e9 c2bd 4596 25bc
00000250: 38d6 113c 7ce5 2a3d a716 06be 7553 633d
00000260: 710f e0bb 1263 2dbd 1316 b23c 190e d13d
00000270: 1933 8c3d 6204 05be 1d3c a13d 63fc be3d
00000280: f031 8ebd 2e0e e8bc ce08 ea3d 0a0e e1bc
00000290: a240 afbd 14dd 0b3e 0b13 a3bc da6f 233c
000002a0: 51f7 bc3d 77fc e4bd 465f 1e3e e594 003d
000002b0: 0a5d 233e baff 4c3d 56fc 89bd 7078 b4bd
000002c0: 52f1 d0bd ed22 cbbd 14d0 a93d ed3b 633d
000002d0: 5222 96bd 0173 e13d 8ad1 00bd 2bf3 f0bc
000002e0: c40d 8cbd 0f03 ecbc d185 35bd 7965 c2bd
000002f0: c3da d13d 1e55 a83d 1c08 78bd 2627 7f3c
00000300: 1315 7a3d 2d9d f8bc e49a 86bd 8e67 9d3c
00000310: e517 d43b 6a2c 9dbd 86f7 8b3d 45f1 2dbd
00000320: 7a41 683a c0e8 6cbd 895c d23d b00b a53d
00000330: 6af3 49bd b14b a53d 6f7a e03d f31a a3bd
00000340: 4224 55bd c9ef 21bc c64e b2bd d8a8 edbd
00000350: 2911 8abd 7ff3 65bb 568f 9c3c a143 e6bd
00000360: ca9f cebd 17be 973d 35b8 6bbc 163a b53d
00000370: 124b 443d 3a4a 0abb ea55 47bd 5e07 733c
00000380: c301 333d a3af bbbd 950f c33d 68d2 f43c
00000390: 2059 9d3b 7c6c 9fba 0661 09be 55e0 e73d
000003a0: 28a0 d23b e247 b53b 44c9 a83d 3d37 063e
000003b0: a1ef b9bd 170c bc3d 8850 8fbd 5e9c dabd
000003c0: d5bd d73d 05ef df3d 9808 a2bd f176 2fbd
000003d0: 493d a83d 42fc 383d 6f0e cbbc fddd 20bd
000003e0: b22e bc3d 9fc2 fcbc 1c8b 8fbd 6b69 3d3d
000003f0: c389 363c 4058 503d b862 d3bd e3e7 f2bd

enc_a.bias_ih_l0 f4 [192]
0.041324582 -0.10195543 0.10130108 0.028874926 -0.12907355 -0.0794791 -0.12101313 0.025353808
-0.07571067 -0.08814421 -0.021433908 -0.12765294 0.030935526 0.10632861 0.017569404 0.09734798
-0.14926718 0.0084815435 -0.03210703 -0.016977333 0.051653914 0.058173195 0.11690938 -0.055645883
-0.08920939 0.062445533 -0.08933486 0.049137004 -0.072564 0.10178391 -0.09633602 -0.11020593
0.084496364 0.0012446931 0.08980126 -0.044142902 -0.13650227 0.037620027 -0.015526295 0.080390684
0.08328993 -0.06400284 -0.15863807 0.010452361 -0.0102527505 -0.040081557 -0.06432476 0.11390119
0.016109014 0.045356385 -0.09424619 -0.012346691 0.053564936 -0.10519773 0.12819672 -0.09743931
-0.041893456 0.110456884 -0.0022039847 -0.06658926 0.108913876 -0.012037553 -0.01402543 0.061428744
-0.11609808 0.0979539 0.11731361 -0.07009223 0.017505797 -0.054767948 0.086968146 0.12965263
0.04214147 -0.06947156 0.07941421 -0.10250401 0.12963219 -0.049406692 0.119745806 -0.05446078
0.07544582 0.061863348 -0.13153102 -0.052910984 -0.11876404 0.012003048 0.11331435 -0.031417727
0.021370603 -0.008375228 -0.10537406 -0.0048835035 0.038611885 0.010803114 0.08529133 0.035320196
0.03636818 -0.045023758 -0.100870706 -0.08762213 -0.05898605 0.088498056 -0.064091265 0.13048482
0.091801666 0.023820395 0.06853323 -0.02528419 0.10805623 0.08511143 0.08409233 0.015313091
0.12520342 0.03743205 -0.095021665 0.07803206 0.114658035 -0.09251521 -0.004002591 -0.1030372
-0.111058034 -0.056788977 0.0882724 0.10152387 -0.0721587 -0.02738898 0.09080167 0.07153231
-0.009902431 -0.030813636 0.03196551 -0.10208182 0.0048212768 0.0056674085 -0.12306761 0.13826728
0.027900413 -0.0030729526 -0.06811707 -0.037180312 0.0646512 0.10716833 0.07567451 -0.0019461452
0.08044905 -0.018216453 0.05804384 -0.05002292 -0.07556334 0.113591686 0.07204051 0.07788455
0.04291743 0.033078954 0.11590198 0.07828357 0.11103117 -0.05181047 0.11336074 0.092278354
-0.03417353 -0.019960657 0.11311147 0.025692914 0.086849384 -0.061623912 -0.0015916956 -0.0078091724
-0.019322744 0.102158874 0.03410846 -0.026085015 0.12480869 0.08135084 -0.0996981 0.008081991
-0.081114866 0.06294423 -0.058811 -0.115935095 -0.058403086 -0.007826292 0.025256725 -0.039276093
-0.051651765 -0.030344376 0.028674038 -0.0069518336 -0.027691124 0.12798055 0.08235971 -0.10811344
00000000: f743 293d 02ce d0bd f176 cf3d 1c8b ec3c
00000010: db2b 04be f0c5 a2bd bbd5 f7bd cab2 cf3c
00000020: 320e 9bbd f484 b4bd 2a96 afbc 74b7 02be
00000030: 806c fd3c d0c2 d93d b6ed 8f3c 615e c73d
00000040: 7fd9 18be 2cf6 0a3c a982 03bd 0c14 8bbc
00000050: 0e93 533d 0447 6e3d 2f6e ef3d f0ec 63bd
00000060: 6ab3 b6bd e3c6 7f3d 32f5 b6bd e243 493d
00000070: 6f9c 94bd 1574 d03d d24b c5bd a6b3 e1bd
00000080: 6e0c ad3d f824 a33a b9e9 b73d 30cf 34bd
00000090: 40c7 0bbe 7517 1a3d 0062 7ebc dfa3 a43d
000000a0: e993 aa3d ec13 83bd 0572 22be 6140 2b3c
000000b0: 27fb 27bc 8f2c 24bd b3bc 83bd 0745 e93d
000000c0: 0df7 833c 9ec7 393d 2504 c1bd c749 4abc
000000d0: e866 5b3d e871 d7bd 0046 033e 438e c7bd
000000e0: 7998 2bbd 3837 e23d ba70 10bb f35f 88bd
000000f0: 3d0e df3d 2839 45bc ebca 65bc b59c 7b3d
00000100: d5c4 edbd 0e9c c83d 1e42 f03d 848c 8fbd
00000110: 5168 8f3c 5b54 60bd 5b1c b23d a9c3 043e
00000120: 899c 2c3d 1b47 8ebd eba3 a23d 9fed d1bd
00000130: 4dbe 043e ac5e 4abd 4a3d f53d 4412 5fbd
00000140: 5783 9a3d 6c64 7d3d 11b0 06be 30b9 58bd
00000150: 903a f3bd 6fa8 443c 5b11 e83d e0af 00bd
00000160: 6711 af3c 4138 09bc 5bce d7bd cc05 a0bb
00000170: 7f27 1e3d 8bff 303c 39ad ae3d e9ab 103d
00000180: cdf6 143d d56a 38bd 4d95 cebd 3b73 b3bd
00000190: 5b9b 71bd 783e b53d 4842 83bd d09d 053e
000001a0: 8302 bc3d fd22 c33c 265b 8c3d ca20 cfbc
000001b0: 964c dd3d e74e ae3d 9938 ac3d c2e3 7a3c
000001c0: 5335 003e 5952 193d b89a c2bd 46cf 9f3d
000001d0: d5d1 ea3d 9d78 bdbd 2b28 83bb 2b05 d3bd
000001e0: 6572 e3bd 8f9b 68bd 29c8 b43d bfeb cf3d
000001f0: f1c7 93bd db5e e0bc 3af6 b93d 887f 923d
00000200: ce3d 22bc e16c fcbc 44ee 023d 4610 d1bd
00000210: cdfb 9d3b abb5 b93b df0a fcbd f095 0d3e
00000220: 688f e43c 9763 49bb f680 8bbd 624a 18bd
00000230: d967 843d 127b db3d 3dfb 9a3d cc15 ffba
00000240: 79c2 a43d ac3a 95bc 61bf 6d3d d5e4 4cbd
00000250: f4c0 9abd c2a2 e83d fa89 933d ef81 9f3d
00000260: 30ca 2f3d cc7d 073d 045e ed3d 2353 a03d
00000270: 4f64 e33d 3737 54bd ad29 e83d 6ffc bc3d
00000280: 8bf9 0bbd 8884 a3bc fda6 e73d f279 d23c
00000290: 17de b13d 5b69 7cbd 71a0 d0ba 16e4 ffbb
000002a0: bb4a 9ebc ac38 d13d 50b5 0b3d 3eb0 d5bc
000002b0: b39b ff3d 459b a63d 842e ccbd 546a 043c
000002c0: 8d1f a6bd e8e8 803d cee3 70bd 616f edbd
000002d0: 1338 6fbd d939 00bc 31e7 ce3c f8df 20bd
000002e0: cd90 53bd c594 f8bc d1e5 ea3c 35cc e3bb
000002f0: 7fd8 e2bc 550d 033e 35ac a83d 946a ddbd

enc_a.bias_hh_l0 f4 [192]
-0.013496037 -0.1117132 -0.040524013 0.035218727 -0.11075886 -0.023079779 -0.09862759 0.033595093
-0.007710348 0.094952315 -0.03335437 -0.11829017 0.007150388 0.10104698 -0.083401754 0.11887845
-0.14986421 0.027315415 0.098572664 -0.064073816 0.054083835 -0.09916036 0.116092674 -0.02524675
-0.042333435 0.08081869 -0.08043191 0.03165972 -0.056338876 -0.05877964 0.04330185 -0.047870774
0.0013093248 -0.06455495 0.022899544 -0.07658287 0.005605081 0.0930193 -0.105089866 0.10034374
-0.07224677 -0.08211299 -0.0010559871 -0.034607507 0.07346035 0.08868844 -0.051728666 0.03390312
0.08583519 -0.1322031 0.024757713 -0.12416859 -0.097372934 0.08185258 -0.06421698 0.05596326
-0.0733917 0.00803365 0.1088748 0.04297752 0.09882219 0.13009962 -0.031870805 0.13295642
-0.01084131 -0.09052467 -0.0230651 0.0593522 0.04932717 0.10127933 0.02631714 -0.08080878
0.09146396 0.053904932 -0.059091173 -0.11580137 0.09059503 0.019640014 0.07932748 0.014440947
0.096567966 -0.109760694 -0.11671466 0.041861486 -0.03332315 0.11167103 0.13964792 0.07816125
-0.07734096 -0.04461532 0.06426215 -0.052650355 0.028936895 0.13395186 0.124981105 -0.089425154
-0.013149851 0.07486274 -0.09949721 -0.07678145 -0.020606706 0.05376199 0.09850542 -0.049824037
0.09907318 -0.066855244 0.042595834 0.13857725 0.10915221 0.056204353 0.10427946 -0.10469042
0.078206405 0.015858386 0.12457165 0.13313682 0.07221983 0.10211731 0.0002055355 0.1234725
0.05487834 -0.10582216 -0.025335964 0.06478521 0.03226148 -0.108403295 -0.031642586 0.062506326
-0.04054673 -0.0852355 -0.11557048 0.046407495 0.0503257 0.072404966 0.084226266 -0.08682453
-0.04412429 -0.005568541 -0.085209265 0.113239974 -0.009071823 0.0047998205 -0.05937299 -0.07424841
-0.033966474 -0.04706885 0.07307048 -0.0760801 -0.03544773 0.020241823 -0.05099883 -0.065451846
0.12125317 -0.016094971 -0.0947873 -0.050442137 0.074442804 -0.10510303 -0.007768138 0.06116396
-0.04981418 0.06879623 0.12910795 0.07732792 0.0071698674 -0.0947894 -0.0129157975 -0.10697717
-0.095029585 0.061152887 0.0050596753 0.08521176 -0.08566863 0.05641473 0.03680434 -0.06873183
0.00027528434 0.008606704 0.083691 0.07278664 -0.09273478 -0.05541066 -0.08954861 0.05119206
0.08691504 0.10230814 0.049807172 0.08134578 -0.008616428 0.16134733 -0.011020585 0.04447276
00000000: 7b1e 5dbc e4c9 e4bd 82fc 25bd 8341 103d
00000010: 8bd5 e2bd ce11 bdbc 43fd c9bd 029b 093d
00000020: 16a7 fcbb 5c76 c23d 989e 08bd 1e42 f2bd
00000030: cd4d ea3b b8f1 ce3d 8ace aabd 8b76 f33d
00000040: 0176 19be 94c4 df3c 77e0 c93d 2239 83bd
00000050: 0387 5d3d 9614 cbbd ffc1 ed3d 46d2 cebc
00000060: d365 2dbd 4584 a53d 7cb9 a4bd 9fad 013d
00000070: 98c3 66bd ebc2 70bd 485d 313d 2514 44bd
00000080: a69d ab3a 6335 84bd d397 bb3c 7bd7 9cbd
00000090: d4aa b73b e780 be3d 5b39 d7bd 0581 cd3d
000000a0: 1df6 93bd db2a a8bd 0c69 8aba 9ac0 0dbd
000000b0: 6172 963d 49a2 b53d 70e1 53bd ffdd 0a3d
000000c0: 5cca af3d 4060 07be b0d0 ca3c 1a4c febd
000000d0: 766b c7bd 53a2 a73d 3184 83bd bb39 653d
000000e0: 634e 96bd 929f 033c c0f9 de3d 3209 303d
000000f0: 4a63 ca3d d638 053e f68a 02bd ba25 083e
00000100: c09f 31bc 0065 b9bd 05f3 bcbc 4b1b 733d
00000110: 490b 4a3d 8a6b cf3d 0b97 d73c 137f a5bd
00000120: 7551 bb3d 6bcb 5c3d 9609 72bd 4529 edbd
00000130: e389 b93d 18e4 a03c 7276 a23d b999 6c3c
00000140: 6dc5 c53d 37ca e0bd 1808 efbd f376 2b3d
00000150: db7d 08bd c8b3 e43d ddff 0e3e 0113 a03d
00000160: f064 9ebd 8ebe 36bd e09b 833d e6a7 57bd
00000170: 110d ed3c ad2a 093e 18f6 ff3d 8924 b7bd
00000180: 7972 57bc a351 993d 31c5 cbbd 983f 9dbd
00000190: 65cf a8bc 8835 5c3d 36bd c93d 4a14 4cbd
000001a0: e1e6 ca3d 67eb 88bd f878 2e3d 32e7 0d3e
000001b0: 328b df3d 8936 663d 7890 d53d ee67 d6bd
000001c0: ae2a a03d 72e9 813c 6c1f ff3d 0555 083e
000001d0: fde7 933d e122 d13d 0485 5739 26df fc3d
000001e0: 1cc8 603d 4ab9 d8bd 5e8d cfbc 1cae 843d
000001f0: 9d24 043d 8c02 debd a89b 01bd 5103 803d
00000200: 5414 26bd f38f aebd 37b0 ecbd c915 3e3d
00000210: 5222 4e3d 0e49 943d d27e ac3d 0fd1 b1bd
00000220: acbb 34bd 4f78 b6bb 3282 aebd 5cea e73d
00000230: fca1 14bc d047 9d3b 1831 73bd 8d0f 98bd
00000240: 6e20 0bbd 44cb 40bd faa5 953d e2cf 9bbd
00000250: a431 11bd 2ed2 a53c 26e4 50bd 9e0b 86bd
00000260: 9553 f83d 9ad9 83bc d81f c2bd 6a9c 4ebd
00000270: 7875 983d 4240 d7bd dd8b febb 0f87 7a3d
00000280: f409 4cbd 0ae5 8c3d e034 043e 1a5e 9e3d
00000290: 35f1 ea3b f220 c2bd c89c 53bc d916 dbbd
000002a0: df9e c2bd 737b 7a3d a2cb a53b 8183 ae3d
000002b0: 0973 afbd 2213 673d 26c0 163d 46c3 8cbd
000002c0: 0a54 9039 2203 0d3c 3066 ab3d 2911 953d
000002d0: bbeb bdbd 4af6 62bd 4365 b7bd c4ae 513d
000002e0: 8300 b23d ee86 d13d 9b02 4c3d 9e98 a63d
000002f0: eb2b 0dbc 3c38 253e af8f 34bc 1229 363d
