runs/run-20251102-190913/best_D.pt (torch, 84543 bytes, 7 tensors)

rnn.weight_ih_l0 f4 [192, 18]
000000 44 f9 f2 bd 5b d5 8c ba 08 22 2b 3d 05 e3 af bc
       -0.1186395 -0.0010744737 0.0417805 -0.021470556
000010 3d 8c 9b bd 3a cf f6 bd 1e 2c a2 3c 29 60 56 3d
       -0.07595108 -0.12051244 0.019796427 0.0523378
000020 df dd b3 bd d5 c7 6f bd ca e3 59 3d e7 19 b8 3c
       -0.08782553 -0.058540184 0.053195752 0.022473289
000030 ed e7 f7 bd ed 8a 8c 3d 30 15 9f 3d ee 64 63 bd
       -0.12104783 0.068624355 0.07767713 -0.055516176
000040 20 5b 8a 3c 38 58 64 3d 9d 0f 97 ba 7a 53 80 bc
       0.016889155 0.055748194 -0.0011525039 -0.015664805
000050 94 fe f2 3d c0 28 09 bd 00 10 df 3d 49 1d 03 3e
       0.11864963 -0.033486128 0.10891724 0.1280414
000060 16 61 fb bd 85 38 6a 3d 1f f2 93 3d 52 ed f4 3d
       -0.12274377 0.057182807 0.07223915 0.11959328
000070 d8 87 72 bc f0 dc a0 3d 9d e9 e9 bd 4f 76 92 bd
       -0.0148028955 0.078546405 -0.11421511 -0.07151472
000080 96 71 2c bd ee 12 f7 bc b6 8c 25 bb 5c c5 31 3d
       -0.04210051 -0.030160394 -0.0025260872 0.043401107
000090 56 4c b0 bc 24 03 05 3d 60 a8 01 3d b0 14 88 bd
       -0.021520775 0.0324737 0.031654716 -0.06644571
0000a0 66 a6 e6 3c 4a 1f 89 3d 26 4c ed bd 59 65 6a 3d
       0.028155517 0.06695421 -0.1158679 0.05722556
0000b0 1a ff 82 3d 2d ac ca bd 02 c1 47 3c 91 bb 27 3d
       0.06396313 -0.09896121 0.012192013 0.04095036
0000c0 f3 5d a4 3d 57 f2 5e 3d 9a e5 43 3d 40 47 fa bd
       0.08025732 0.054430332 0.047826387 -0.12220621
0000d0 b7 f9 80 3d 57 56 00 3e ed bf 11 3e 63 f6 96 3d
       0.06297629 0.12532936 0.1423337 0.07371213
0000e0 e6 a8 e2 bd 74 55 29 3d ee ce ca bd 41 86 e9 3c
       -0.11067371 0.04134126 -0.0990275 0.0285064
0000f0 e6 26 86 bc de c0 d5 bd a9 cf dd bd ae c0 37 3c
       -0.01637597 -0.10437177 -0.10830624 0.011215372
000100 21 10 bf 3d e8 b0 85 bd ca 33 e1 bd 9a eb 54 bd
       0.09329248 -0.06527883 -0.10996206 -0.0519825
000110 92 7e 8b 3d 02 3e ad bc cd 4a cb bd a0 7e 1b 3b
       0.06811251 -0.021147732 -0.099263765 0.0023726597
000120 74 43 e4 bc 49 1f 9e 3d d8 d0 7e bd 3a 2d 83 bd
       -0.027864195 0.07720811 -0.062210888 -0.06405111
000130 81 26 25 3d 70 3d c2 bd b2 65 63 bc 0a 6a 79 3a
       0.040319923 -0.094843745 -0.0138792265 0.0009514397
000140 f5 3e ec 3d b4 b6 d8 3a ba dc 27 3b 1a a5 c8 bc
       0.115354456 0.0016533942 0.002561374 -0.024492789
000150 7d 2a b6 3d b2 f0 fc 3c 02 6c f0 3a 48 19 b7 bd
       0.08894823 0.030876491 0.0018342736 -0.08940369
000160 be 08 fc bd d9 72 03 bb e2 dc da bd 43 eb b7 3d
       -0.12306355 -0.0020057468 -0.10686661 0.089804195
000170 01 f2 29 bc 3a a0 9f 3c c8 dd c4 3d fc 00 6a 3d
       -0.01037264 0.019485582 0.09612614 0.057129845
000180 10 f4 84 3d 82 5a ef 3c 72 9b de bd 5d f1 9f 3d
       0.06491864 0.029217962 -0.108694926 0.07809708
000190 6d 26 fb bd 34 36 f6 3d 65 0a 67 bd 91 cc b7 3d
       -0.122631885 0.12022057 -0.056406397 0.08974565
0001a0 7f df b0 3c b0 e5 33 bc 41 0b bc bc ff 49 8f bd
       0.021590946 -0.010980055 -0.022954585 -0.069965355
0001b0 c1 df a3 bd d1 55 3c bd 98 2b 38 3d e4 27 85 3d
       -0.08001662 -0.04598028 0.04496345 0.06501749
0001c0 2e 6a a4 3d 16 d9 d6 bd 81 f2 15 bd 45 c2 a7 3d
       0.08028065 -0.104906246 -0.036608223 0.08191351
0001d0 c0 99 94 bd 99 d1 a6 bd 33 13 8e 3d a8 05 2e 3d
       -0.07255888 -0.08145446 0.06937256 0.042485863
0001e0 fb 08 7d bd f1 d0 89 bd 7f 5f c4 bd 95 96 8e 3a
       -0.061776143 -0.067293055 -0.09588527 0.0010878617
0001f0 d5 15 a6 3d dc bc b6 bd bd 29 e0 3c 3d be 7f 3d
       0.08109633 -0.08922741 0.027363652 0.062437285
000200 bd 6a db 3d b0 eb 8c 3d 73 22 60 3d b7 18 89 bd
       0.10713718 0.06880891 0.054720353 -0.06694167
000210 8d ec f1 3c 49 b0 a2 3d b7 58 88 bd f3 eb 92 3d
       0.029531742 0.0794378 -0.06657546 0.0717391
000220 65 8b 5f 3b 14 4b ff bd e7 c0 cd bd 46 5b cb bc
       0.0034110185 -0.12465492 -0.10046559 -0.024823796
000230 8c 5f 02 be 30 34 01 3e 15 af 96 bd 59 fa fc bc
       -0.1273176 0.12617564 -0.07357613 -0.030881094
000240 5a 75 1c 3e 34 4d 32 bd b7 fe aa 3d c3 5f eb bd
       0.15279141 -0.043530658 0.08349364 -0.114928745
000250 9c d5 cd bc d2 02 af bd b5 63 96 3d 0a 31 cd 3c
       -0.025126271 -0.0854546 0.07343236 0.025047798
000260 79 3d e5 3d a4 cf 0b be c0 8d c7 bc c1 94 ba 3c
       0.111933656 -0.13653427 -0.024359584 0.02277601
000270 40 5d 84 3d 4c 1f 89 3d 4b 7a 4c bd 50 d4 fd 3d
       0.064630985 0.066954225 -0.049921315 0.12394011
000280 ae d7 5b bd cf d0 9d 3d 5f 75 20 be d3 e0 e6 3d
       -0.053672485 0.07705843 -0.15669774 0.112733506
000290 3a df 16 3e a5 d8 d9 bd 26 fe a9 3d bc 19 da 3c
       0.14733592 -0.10637025 0.08300428 0.0266236
0002a0 47 65 c9 bc d7 16 ad bd 4e 1f e7 3c 5d d5 f3 3d
       -0.024584426 -0.08451622 0.02821317 0.1190593
0002b0 4c a9 2b bb e6 41 d5 3d fe 8c e9 3c 63 a3 0b 3d
       -0.0026193438 0.1041296 0.028509613 0.034091365
0002c0 72 cf 39 bd 4e 5a 15 3d ef a1 b9 bd e7 e2 1c 3d
       -0.04536385 0.036463074 -0.090640895 0.03830233
0002d0 4c 4a 32 3b 6e f8 bf 3d 28 1b 92 3d 8e 7b 85 3d
       0.002720493 0.09373556 0.07134086 0.06517707
0002e0 c5 a6 71 bd 4d 6c 36 bd 1d d7 8d bd f6 c5 8d 3d
       -0.058996934 -0.044536877 -0.06925795 0.06922524
0002f0 11 74 c5 3d 5c 40 c0 bd ac 45 13 bc 33 0e c6 bd
       0.096412785 -0.093872756 -0.008988779 -0.09670677
000300 e5 98 de bd 34 2a 9f 3d 4f 6d c3 3d 35 21 57 3d
       -0.10869006 0.077717215 0.09542333 0.052521903
000310 8c bd 47 3d 41 22 7e bc cb 33 8f bd ca b3 95 bd
       0.04876475 -0.015511096 -0.069923006 -0.07309683
000320 69 55 1a be ca 0a 99 3d 64 a3 a6 bd f6 f6 b9 bd
       -0.15071644 0.07472761 -0.08136633 -0.09080307
000330 bd 31 dc 3d 51 53 58 3d 5d 37 e3 3c ed 2b cc bd
       0.10751674 0.05281383 0.02773636 -0.09969316
000340 5d be a2 bd ff af 4b 3b ac 07 b2 bd 4c dc 45 bd
       -0.07946465 0.0031080244 -0.086928695 -0.048305795
000350 cc 87 9f bb 47 fa 9f bd 06 ed 6a 3d 5e 2b 57 bd
       -0.004868483 -0.078114085 0.05735495 -0.052531593
000360 3d f1 67 bd b3 9c 52 bd 7c fc ea 3b b9 1b bf 3c
       -0.056626547 -0.05141897 0.0071712118 0.023328649
000370 45 6a a1 3d 72 a1 fc bd 21 32 de 3d 3c c3 d7 3d
       0.078815974 -0.12335481 0.10849405 0.10535285
000380 05 38 0d bd 03 b6 c6 3c ad e6 ab bd 75 72 a5 3d
       -0.034477253 0.024256712 -0.08393607 0.080784716
000390 27 df c1 bb 94 b8 f9 bc d8 4b ca bd 35 f8 96 bd
       -0.0059164944 -0.030483522 -0.09877747 -0.073715605
0003a0 99 18 2d bd ef a9 78 3d 2c 25 10 bd 7a 63 1f 3d
       -0.042259786 0.060708936 -0.0351917 0.038913228
0003b0 5a 2f 54 3d e1 82 08 be 57 21 4f 3d 5f 82 52 3c
       0.05180297 -0.13331176 0.050568905 0.012848466
0003c0 e2 f7 40 3d ae 07 00 be 84 71 55 3a bd 84 47 3d
       0.0471114 -0.1250293 0.00081422203 0.048710573
0003d0 70 23 57 bb db 3a a0 3d 8e 6f a5 bd 4e f3 38 3d
       -0.003282752 0.07823726 -0.08077918 0.04515391
0003e0 aa 39 f2 3d df 3c 40 bd 93 4b c5 3c c2 29 09 3d
       0.11827405 -0.04693305 0.024083888 0.03348709
0003f0 1f f0 90 bd 11 11 35 3d 06 50 90 3d 51 4c 0d bd
       -0.070770495 0.04420573 0.07046513 -0.03449661

rnn.weight_hh_l0 f4 [192, 64]
000000 dc 57 03 be 88 fa d2 3c e1 df 11 bd 09 8c 5e 3d
       -0.12826484 0.025754228 -0.0356139 0.054332767
000010 a5 9b d1 3d 12 ab c5 bd 93 30 97 bd b3 0b b6 3d
       0.10234765 -0.0965177 -0.07382312 0.0888895
000020 f0 c8 a4 3d 2f 45 cb 3d fd 5e 28 3d 40 c9 a4 3d
       0.08046138 0.09925305 0.041106213 0.08046198
000030 b6 d7 e7 3d 78 63 ce 3c 8d d5 16 3d a9 e2 80 3c
       0.113204405 0.025193915 0.03682475 0.01573308
000040 a8 94 e7 3d 81 30 39 3c 51 c7 7f bd d3 3e b4 3c
       0.11307651 0.011303068 -0.062445942 0.022002613
000050 a9 c0 f0 bd d5 bc a2 3d db 22 65 3d f2 ff b1 bd
       -0.11755497 0.07946173 0.055941444 -0.08691396
000060 03 4b e9 3c 24 74 7d bd 53 0b a2 3d b8 e6 fe bd
       0.028478151 -0.06187834 0.07912316 -0.1244635
000070 f9 4e 01 be ca 8d d8 3d 64 8c b4 bd d6 43 65 3d
       -0.12627782 0.10573919 -0.0881584 0.055972897
000080 c2 b5 c1 3d 84 db 8c bd 4d cd b5 bc a8 3c 70 bc
       0.09458496 -0.06877807 -0.022192622 -0.014662899
000090 17 16 fa 3d 9e 03 50 3d 0b 8e e3 3d 95 61 a9 3d
       0.122112446 0.0507847 0.11111077 0.082705654
0000a0 77 e8 a7 3c 12 0b 5c bd 1a 67 02 be d9 ee da 3d
       0.02049659 -0.053721495 -0.12734643 0.10690088
0000b0 7c 73 ca 3d 3b ed 38 3c 2a 96 86 ba ec d9 b6 bd
       0.09885308 0.011287029 -0.0010268141 -0.08928284
0000c0 a4 60 f2 3d 6f a8 f1 3d d8 ab e4 bd 98 fb 1b bd
       0.11834839 0.11799704 -0.11165589 -0.038081735
0000d0 35 76 ae 3d 84 2b a9 bc 12 ff be bc 85 2f 28 bd
       0.0851864 -0.020650633 -0.023314986 -0.041060943
0000e0 90 90 0a 3d 6b 4b be bc 29 e3 36 3d 47 83 0c 3c
       0.03382927 -0.023229321 0.04465023 0.008576221
0000f0 72 41 02 bd 5a 56 f0 3c 2e 42 a5 bc a7 c4 f4 bd
       -0.031800695 0.02933805 -0.020173158 -0.11951571
000100 ba cc 0c 3d 8c b5 6e bc 27 71 58 bd 5c 2b 71 bd
       0.03437493 -0.014569651 -0.052842285 -0.05887924
000110 07 45 93 3d ff 8d 15 bd 31 aa 1d bd 9c 42 f7 bc
       0.071909 -0.03651237 -0.038492385 -0.030183129
000120 8c 3e 6d 3c 7e 47 da bc 31 e2 0a bd 0c 99 01 be
       0.014480244 -0.026645418 -0.03390712 -0.12656039
000130 8a be 79 bd 47 92 a5 3d c4 46 d2 3d 87 d0 d0 bd
       -0.060972728 0.08084541 0.10267404 -0.101960234
000140 f8 dc b1 bd 28 a0 9d bd 61 14 a2 bc 8e 9f 15 3d
       -0.086847246 -0.07696563 -0.019785108 0.036529116
000150 fd bd d0 bd 82 f9 ce bd 60 7a 5e bd a0 31 5c bd
       -0.101924874 -0.101061836 -0.054315925 -0.053758264
000160 a9 51 c3 3d 30 9c 10 bd e3 52 ba bb d1 3a 99 bd
       0.0953706 -0.035305202 -0.0056861504 -0.074819215
000170 f6 8e af bd 0d c9 d4 bd b2 74 94 bd ba 71 c1 bd
       -0.085721895 -0.1038991 -0.0724882 -0.0944552
000180 c4 51 b2 bc b3 81 57 3d 1f 9a c0 bc b6 db db ba
       -0.021767505 0.052613925 -0.02351099 -0.0016773853
000190 d0 3d be 3d 39 a0 81 3d 12 c5 83 bd 3e 58 0a 3d
       0.092891335 0.06329388 -0.064340726 0.03377556
0001a0 d6 17 9d 3d 97 8b 44 bd d7 1c e4 3c 2b 55 cc 3d
       0.07670562 -0.047984686 0.027845783 0.09977182
0001b0 24 31 ed bd b7 16 24 3d 49 67 ec bc f9 12 66 3d
       -0.115816385 0.040060725 -0.028857844 0.056170437
0001c0 df 76 84 bb 19 e7 5a 3d e2 1a 41 bd 01 d6 01 3e
       -0.004042491 0.05344305 -0.047144778 0.12679292
0001d0 bc ab e7 3d be 04 c3 3d 90 82 f0 3d d3 a7 01 3d
       0.113120526 0.09522389 0.11743653 0.03165419
0001e0 d4 bb 01 be bf d0 a9 3d 98 da 05 bd 47 98 8e 3d
       -0.12669307 0.08291768 -0.03267917 0.06962638
0001f0 27 97 e6 3d 69 dc 5b bd 72 cf 80 bd 8e 0b a9 bc
       0.11259299 -0.053676996 -0.06289567 -0.020635393
000200 b3 1b b8 3d 69 ec 32 3d 76 aa e0 bd d9 48 a2 3d
       0.08989658 0.04368249 -0.10970013 0.07924051
000210 c0 31 82 bd a4 bb a0 3d ce e1 da 3b 1a 7a bb 3d
       -0.06357145 0.078482896 0.00667975 0.091541484
000220 ac a5 a8 3c f5 7b eb 3c bc 94 91 3b 0c 9c 7f bd
       0.020586811 0.02874563 0.0044427793 -0.062404677
000230 34 23 db 3d ab 1a fd 3c 2b b8 38 bd 3d 6a ce 3c
       0.10700074 0.030896505 -0.04509751 0.025197143
000240 3e 16 a7 bd 7e e8 5e 3d aa 2a e9 3d ab 2e c8 bd
       -0.08158539 0.05442094 0.11385091 -0.09774526
000250 b7 a9 e6 bd c5 8e 9b bd 23 06 7e bd 44 53 9f bd
       -0.11262839 -0.075955905 -0.06201757 -0.077795535
000260 f6 eb f7 bd 5b 18 a8 bc 7b 80 b8 3c 91 e7 84 3c
       -0.12105553 -0.020519426 0.022522202 0.0162237
000270 df 3a a4 bd 9a 27 e1 bd 70 f6 c6 3d 6a 30 d9 bc
       -0.08019041 -0.109938815 0.09714973 -0.026512343
000280 61 05 e6 ba be e7 ce bd 5b c5 3d bc 37 89 c0 3d
       -0.001754921 -0.10102795 -0.011582698 0.09401172
000290 a7 52 da bc 3d 21 0a bd 8b 6a 00 be 4f e3 0c 3e
       -0.02665074 -0.033723105 -0.12540643 0.13758586
0002a0 d6 0f 2c 3d af 42 a9 3d bf c2 d1 bd d1 bf a6 3d
       0.04200729 0.08264672 -0.10242223 0.08142055
0002b0 6a c9 ca bb ae 84 ca bd 99 c5 29 3d 95 3d d8 3c
       -0.006188561 -0.09888588 0.04144821 0.026396552
0002c0 57 dc ad 3b 9e ad ae bd 80 ad 21 bd 21 c1 9c 3d
       0.0053058076 -0.085292086 -0.039472103 0.07654024
0002d0 df 0f ba 3d cb 8e 89 3c a0 26 64 3d b5 82 da bd
       0.090850584 0.016791722 0.0557009 -0.10669462
0002e0 09 82 ae 3b 60 5a c4 bd 80 3f 80 3c ab f6 0f bd
       0.00532556 -0.0958755 0.01565528 -0.03514735
0002f0 89 3c e0 bc f5 a4 68 bd 47 7c 73 bc d3 30 3f 3d
       -0.027372615 -0.05679794 -0.014861173 0.04667742
000300 97 41 5f 3d 2a 65 95 bd b6 2e fb bc 2a db 84 bc
       0.05450591 -0.07294686 -0.030661922 -0.016217787
000310 05 89 6b 3d c8 f1 91 3c 71 6b 24 3c 76 d9 b0 bc
       0.05750372 0.017815486 0.010035382 -0.021588068
000320 7b 68 b3 bd 79 4c 60 3d 51 bc 92 bd 6f a1 5d 3d
       -0.087601624 0.05476043 -0.07164825 0.054109033
000330 c3 f4 4c 3d 23 04 6d bd c5 b1 09 bd 0e 2b 6c 3d
       0.05003811 -0.057865273 -0.0336168 0.057658248
000340 62 40 f0 3b 47 bf c4 bd 39 7a 95 3c 7c c8 be bd
       0.007331894 -0.09606796 0.018246757 -0.09315583
000350 88 02 1d bc 96 c2 1f bd d5 88 d4 bd 8d 43 f7 bd
       -0.009583123 -0.03900393 -0.10377661 -0.12073431
000360 2c b3 d0 3d c9 ee 13 bd 9a b0 10 bd 25 de 26 bd
       0.10190424 -0.036116395 -0.03532467 -0.040739197
000370 0b ec 4f 3d 55 09 bc 3d 8a 54 2d 3b 15 b0 00 bc
       0.050762217 0.091814674 0.0026448094 -0.007854481
000380 ff ef e9 bd b8 54 ba bd 62 b3 ad 3d b7 7a 84 bd
       -0.11422729 -0.0909819 0.0848148 -0.064687185
000390 39 9d 00 bd 3a ee eb 3d e5 23 15 3d 2d c1 ae bd
       -0.03139994 0.115200475 0.036411185 -0.08532939
0003a0 39 79 b5 3d 42 ce 9b 3c 01 bc b6 bd d8 08 07 3e
       0.08861012 0.01901925 -0.08922578 0.13186967
0003b0 11 ff ba bc 8b 84 df 3d 92 20 72 3d f4 a1 bf bd
       -0.022826703 0.109139524 0.059113093 -0.09357062
0003c0 06 c9 62 3c 7a c6 8a bd 89 d9 c3 ba 09 a0 85 bc
       0.013841873 -0.06776138 -0.001494215 -0.016311662
0003d0 c1 a6 be 3d 1e 73 ed bc bf 5b 37 bd 65 2d 0f bc
       0.093091495 -0.028985556 -0.04476523 -0.00873885
0003e0 53 6c 03 bc e3 60 92 3c 2a 87 dd bc 26 5a 7b bd
       -0.008021432 0.017868465 -0.02704199 -0.06136527
0003f0 84 8f 8c bd e5 84 25 bd e1 58 75 3d eb cb d5 bd
       -0.06863311 -0.04040994 0.059899215 -0.10439285

rnn.bias_ih_l0 f4 [192]
000000 0c 77 4d 3b 16 85 b8 3d fe 90 81 3d 02 87 75 bd
       0.0031351475 0.09009759 0.06326483 -0.059943207
000010 49 27 ac 3d 2e d2 b8 bd 22 d0 1c 3c 79 ab 09 bd
       0.084059305 -0.090244636 0.009571107 -0.033610795
000020 da bb 3a 3c c0 68 7a 3d 63 39 09 3d bd 3e c8 bd
       0.011397326 0.061135054 0.033501994 -0.097775914
000030 f1 86 a8 3d 2b 91 d2 3d f7 57 98 bd 43 7e 2b 3b
       0.08228863 0.10281595 -0.07438653 0.0026167787
000040 27 35 38 bd f2 bc 3f bc 3c fa 05 3d 4f 45 31 bd
       -0.044972565 -0.011702763 0.032709345 -0.04327899
000050 c4 68 e9 3d ca 8e 88 3c da d7 08 bd 4d 0e 0b bc
       0.113969356 0.01666965 -0.033408977 -0.008487296
000060 44 8b e7 3d 6f 1c b7 bd 63 51 95 bd 62 e6 aa 3c
       0.1130586 -0.0894097 -0.07290914 0.020861808
000070 3c 65 c7 bd 0a ae c9 bd a5 61 bb 3c a2 17 21 bc
       -0.09736106 -0.098476484 0.022873709 -0.009832295
000080 b5 ea 0c 3e d7 31 85 3d b0 f0 05 3e 0f ca e7 bc
       0.13761409 0.06503647 0.13080096 -0.028294591
000090 a7 a7 c7 3d d4 84 17 3c 14 47 42 3c bd 48 e2 bd
       0.09748774 0.009247977 0.011857767 -0.1104903
0000a0 6d 28 de 3d bc 91 a4 bd e5 97 45 bd 4b 3a 0b 3e
       0.10847554 -0.08035609 -0.04824056 0.13596456
0000b0 22 76 87 3d 48 57 d0 3b ad 31 02 3e 5f dd c2 bd
       0.06614329 0.006358061 0.12714262 -0.095148794
0000c0 62 ff 38 bb fb ef b3 bc 23 74 ff bd 2a a1 ae bc
       -0.0028228392 -0.021965018 -0.12473323 -0.021317083
0000d0 2c a8 d6 bd 32 a1 55 bc 98 05 9a 3d 6f 5d b5 3d
       -0.10481295 -0.01303892 0.07520598 0.08855712
0000e0 a0 89 98 bb 6b 99 ff bc 74 67 90 bd 61 16 cd 3d
       -0.004655078 -0.031201085 -0.07050982 0.10014034
0000f0 21 78 8c 3d 96 83 99 3c df fb e2 bc c5 ff fd 3d
       0.0685885 0.018739503 -0.027707992 0.124023
000100 57 5e 86 bc e5 d9 12 bd 19 02 39 3d 90 90 e3 bd
       -0.016402407 -0.03585233 0.045168016 -0.111115575
000110 07 a3 8b 3d 32 b5 86 3d a9 18 b6 3d b2 69 37 3a
       0.068182044 0.06577529 0.08891422 0.0006996646
000120 b5 af 0f 3d ae 4f 8b 3d 26 31 8c 3d b3 7a 4c 3d
       0.035079677 0.06802307 0.06845312 0.049921703
000130 14 dd d8 3d 1b 8f ae bd b4 d9 14 3d 53 f3 59 bc
       0.10589042 -0.08523389 0.03634043 -0.013302642
000140 a6 33 a1 bd c1 d7 37 3c ec be d4 3d 9f 53 dc bc
       -0.07871179 0.011220873 0.10387978 -0.026895342
000150 fa c3 f2 bb 54 b9 9b 3d 38 57 92 bd 22 21 97 bd
       -0.007408616 0.07603708 -0.07145542 -0.073793665
000160 a0 d1 9f 3d 6c 61 f8 bd 5c 75 fb 3b cb 46 30 bd
       0.07803655 -0.12127957 0.0076739024 -0.043036263
000170 a2 90 6e bd 5c c1 d2 bd f3 7e d9 3d c7 51 a6 bd
       -0.0582434 -0.102907866 0.10619917 -0.081210665
000180 c3 04 cf bd dd e2 de 3d 74 1e c2 3d 0c 00 93 3c
       -0.1010833 0.108831145 0.09478465 0.017944358
000190 26 ef 95 bd b8 68 d5 bd 35 89 13 3d d2 1f c3 3d
       -0.073210046 -0.10420364 0.036019523 0.095275536
0001a0 99 45 c6 ba 11 b7 9f 3d f0 c9 25 3d 90 6b a0 b9
       -0.0015126943 0.07798589 0.040475786 -0.00030597718
0001b0 dc c6 27 bd dc 1b df 3c b8 c3 8d bc d6 d4 57 3d
       -0.04096113 0.027234964 -0.01730524 0.05269321
0001c0 2a be 9b bc cf 05 d2 bd 89 a2 11 3d 5c cb f3 bc
       -0.019011576 -0.10255014 0.035555396 -0.029760055
0001d0 ef 68 03 3b 9d dd 8a 3d d3 9a 19 bd fa e5 2c 3d
       0.002005156 0.06780551 -0.037501168 0.04221151
0001e0 72 93 88 3d 3a af 1a 3c 3b 07 cf 3d 5d 45 e1 3d
       0.06668748 0.009441191 0.10108801 0.10999558
0001f0 53 63 f8 bd 47 0a 46 bd 8c 43 b3 3d fa 41 a8 3d
       -0.121283196 -0.048349645 0.08753118 0.08215709
000200 fe 13 06 bd 2e e6 9b bd 02 95 71 3c 46 8d 09 be
       -0.03273391 -0.07612263 0.014744999 -0.13432798
000210 c2 b3 85 bd 6a dd a3 bc 20 ae 6d bb 06 84 ce 3d
       -0.06528427 -0.02000304 -0.0036267117 0.10083775
000220 aa 59 db bd d4 4d 82 3d 79 45 e1 3d 6d 20 26 bd
       -0.107104614 0.06362501 0.10999579 -0.040558267
000230 b0 d3 7a bb 54 02 e1 bc 32 bc da 3d d9 38 89 bd
       -0.0038273148 -0.02746693 0.10680427 -0.06700296
000240 72 23 70 bd 56 98 ce bd 4b 3a 25 3d 2c c5 d6 bd
       -0.058627553 -0.100876495 0.040338796 -0.10486826
000250 60 a3 c2 bd d2 63 b0 3d 57 45 2b bd 2e cc e7 3d
       -0.095038176 0.08612789 -0.041814175 0.11318241
000260 a0 28 ef 3c 66 ef b6 bd 3a e3 10 3e 42 fa 4e bd
       0.029194176 -0.089323804 0.1414918 -0.050531633
000270 44 a1 3a bd 5e 66 94 bd e4 15 b4 bd b7 8d 12 bc
       -0.04556395 -0.072460875 -0.08793238 -0.00894492
000280 c2 55 aa 3a 50 dc 52 bd 76 3f ef bd 57 cd 73 3d
       0.0012995529 -0.051479638 -0.11682026 0.059522
000290 db 33 09 be c8 86 ae bc 1f c7 70 3d 48 b6 ea bd
       -0.13398688 -0.021304503 0.058783647 -0.11460549
0002a0 de 81 b5 bd d1 63 8f 3d 17 41 b0 bc 52 00 92 3d
       -0.08862661 0.0700146 -0.021515412 0.07128967
0002b0 3d d8 69 bc a5 11 f4 3d c2 7a 1d bc ee f1 d3 bc
       -0.014272747 0.11917428 -0.009611787 -0.025872197
0002c0 d0 89 f2 3d 45 d1 a8 3d bf 8b 9c 3c dc 8b b0 bd
       0.11842692 0.0824304 0.019109605 -0.08620426
0002d0 ef 99 8e 3d 22 ca 92 bd f6 af 95 3d 6d 7a d7 3c
       0.06962954 -0.0716746 0.073089525 0.026303494
0002e0 6c f1 e0 3d d2 48 a2 bc 9d 01 02 3d 15 59 9b 3c
       0.109835476 -0.019810114 0.03173982 0.018963376
0002f0 56 94 ae bd 3f 1f fb 3c b5 e0 a8 3d e2 8a 90 bd
       -0.085243866 0.030654548 0.082459845 -0.0705774

rnn.bias_hh_l0 f4 [192]
000000 01 64 d5 bd 50 ed 45 3d 6b 46 46 bd 04 13 f1 3d
       -0.10419465 0.048322022 -0.048407 0.11771205
000010 6e fc 20 bd 54 b8 fd bd a7 0d d1 3d c2 9e 43 bc
       -0.039303236 -0.123886734 0.10207682 -0.011939706
000020 9b 23 2b 3c bc f1 15 3d 0f b7 0c 3d d1 d1 f9 bd
       0.010445501 0.03660749 0.034354266 -0.121982224
000030 ed c1 a1 bb 61 e5 91 3d 6b 51 d9 3d 45 df ac bd
       -0.004936448 0.07123829 0.10611232 -0.08441023
000040 80 58 03 3e 99 94 f9 3d 72 00 87 3c cf 68 5d bc
       0.12826729 0.12186546 0.016479705 -0.013513758
000050 e0 e6 72 bd 33 1b a0 3c 44 a0 d1 bd 05 b0 51 3d
       -0.05930221 0.01954422 -0.10235646 0.051193256
000060 df 4e a4 3c 64 00 a7 bd bc 3c 52 bd 69 8c 77 bd
       0.02005714 -0.081543714 -0.051327452 -0.06043664
000070 6c 0f c1 3c ba 2a 45 bb 9d 54 ad bd 47 7b 9e 3c
       0.023566924 -0.0030085281 -0.08463404 0.019345893
000080 40 75 a5 bd 70 83 8c bc 4b 4e 29 3d 98 e1 5e 3d
       -0.08079004 -0.017152518 0.04133443 0.05441436
000090 30 cf 96 3d 19 f2 c5 bb 54 57 18 3c 2f 65 4f bb
       0.07363737 -0.006040823 0.009298164 -0.0031646003
0000a0 85 9d 8c 3d 47 e6 14 bd 6e 0d c6 3c 36 06 e3 3d
       0.06865982 -0.036352422 0.024176326 0.11085169
0000b0 68 02 6f bc 18 e8 b3 bd de 7d 3e 3d 6a 7a b1 bc
       -0.014587976 -0.08784503 0.046506755 -0.021664817
0000c0 83 d2 3b 3d d1 13 d0 bd 5a b5 26 bd b9 e1 13 be
       0.045855056 -0.1016003 -0.040700294 -0.14441575
0000d0 14 5e cc 3d 2c 07 9d 3d 99 4f 79 bd 9c 75 a1 3d
       0.099788815 0.076673836 -0.060866926 0.0788376
0000e0 a6 d2 d7 bb 12 b2 a2 bd 54 c5 0b 3e 5d 61 88 3d
       -0.0065863905 -0.079441205 0.13649493 0.066591956
0000f0 b9 99 1c bd 79 f7 89 bd f6 e7 a8 bb 9a 62 1e 3d
       -0.03823254 -0.06736655 -0.005154605 0.038668253
000100 46 61 bf bd 5d ee 68 bd 1b dc 37 bd 70 37 3e 3d
       -0.09344725 -0.056867946 -0.044887643 0.046439588
000110 75 8d bc 3d c9 b0 2f 3d a6 de 8b 3c fa 39 f3 bc
       0.09206668 0.042893205 0.01707394 -0.029690731
000120 b7 df 21 bd 46 5a dc bd 84 19 f3 bd 2e 80 99 3d
       -0.03951999 -0.10759406 -0.11870101 0.074951515
000130 08 84 94 bc 07 f9 ec bd 51 b9 f8 3d 5c ab 5d bb
       -0.018129364 -0.11570936 0.12144721 -0.0033824062
000140 c7 2b 36 bd ad 85 4e 3d 94 3c cf bd a1 51 a5 bd
       -0.044475343 0.050420452 -0.10118976 -0.0807221
000150 ec 9d bc 3d c4 42 47 bd b8 19 3b bc 62 18 6e bd
       0.09209809 -0.048647657 -0.011419706 -0.058128722
000160 18 54 f4 bd 1e d0 a3 3d f5 60 f9 bd 67 b3 19 bc
       -0.11930102 0.079986796 -0.12176696 -0.009381152
000170 55 54 d0 bd ce 79 db 3c 75 b1 d6 bd 1d 78 bf bd
       -0.10172335 0.02679148 -0.10483066 -0.09349082
000180 cd 96 a1 bd 76 f7 db bc ce b2 9e 3d 24 92 e3 bc
       -0.07890091 -0.026851397 0.07748948 -0.027779646
000190 6d f1 cf 3d 70 c8 b8 bd e0 d7 93 3d e4 ea b0 ba
       0.1015347 -0.090226054 0.07218909 -0.0013497737
0001a0 8a a0 dd bc 3f 5c cb bd a0 84 ed 3a 3a 40 95 3c
       -0.02705409 -0.09929704 0.001812119 0.018219102
0001b0 f8 22 4c 3d 37 72 1f bc 84 59 93 bd c6 04 86 3d
       0.049838036 -0.009731821 -0.07194808 0.06543879
0001c0 0e 27 95 3d bf e7 bd bc 61 3a 8c 3d e4 29 42 bd
       0.0728284 -0.023181794 0.068470724 -0.04740323
0001d0 c7 b2 a4 bb 0d dc f6 3c ca 55 c6 bb fd e3 e6 3d
       -0.0050261947 0.030134225 -0.0060527073 0.11273954
0001e0 00 48 ea bd 7b b4 41 bd b9 9a 6d bd 35 cb ac 3d
       -0.11439514 -0.04729126 -0.058008883 0.08437196
0001f0 6c 0d 25 3c 5a f0 31 3c 43 90 d2 bc 45 48 4c 3d
       0.010074001 0.010860527 -0.025703555 0.04987361
000200 25 9a 3c 3d 39 9f ba bc 13 66 df 3c c1 d2 0a bd
       0.04604544 -0.022781001 0.027270352 -0.033892397
000210 0e 2f 14 3c ff 0e 34 3d 28 7f 24 bd 1c 80 68 3d
       0.009044422 0.043959614 -0.04016033 0.0567628
000220 27 63 07 be e2 1e 84 3d 58 ba 13 bd d2 50 c8 bb
       -0.13221417 0.06451203 -0.036066383 -0.00611315
000230 19 80 f5 3d 3f 59 f9 3d fa d0 29 3d 10 10 d2 bd
       0.11987323 0.121752255 0.04145906 -0.1025697
000240 13 67 bc bc 56 78 cd 3a 4f 4c 35 bd f4 3c 35 3d
       -0.022998368 0.0015676122 -0.044262227 0.044247583
000250 3c d3 d1 3b 48 c2 97 3a 00 53 94 3c ce 76 ce 3d
       0.006403355 0.0011578286 0.018105984 0.10081254
000260 14 cf 00 3e 6e cb d3 bd b1 9d 8a bd 37 ea 4b 3d
       0.12578994 -0.103415355 -0.067683585 0.04978391
000270 a4 e9 e7 bd f0 47 27 bd 81 af 0a 3e f5 7d f9 bd
       -0.1132386 -0.04084009 0.13543512 -0.121822275
000280 39 2e 8a bd 79 58 26 bd cd 10 2e bd 57 c2 d1 bd
       -0.067470975 -0.040611718 -0.04249649 -0.102421455
000290 5a b8 e3 3c 5d a5 43 3d 95 ac 86 3d 4c 0e bf 3d
       0.027797867 0.047765125 0.06575886 0.09328899
0002a0 d1 9c cb 3d 25 83 ff bd b2 e7 15 3d ef 55 82 bd
       0.0994202 -0.12476186 0.036597915 -0.06364047
0002b0 c6 e4 d5 bd f8 30 53 bd 3a 60 11 bd b8 ee 6e bd
       -0.10444026 -0.051560372 -0.03549216 -0.05833313
0002c0 73 fc 04 3e a3 6c c1 bd 4d 2a aa 3d ac 77 9b 3d
       0.12986927 -0.09444549 0.083088495 0.07591185
0002d0 e8 19 f4 3d 15 60 83 bd 1d 12 18 3d 50 8a 52 3d
       0.11919004 -0.064148106 0.03712665 0.051401436
0002e0 4b 50 02 3e 4e 4a 51 bd d4 7d 16 3d 97 bf fe 3d
       0.12725942 -0.051096253 0.036741093 0.124388866
0002f0 ab 97 27 bc f3 fe 81 bd 03 85 ec 3d f8 e6 b3 bc
       -0.010229032 -0.06347456 0.115488075 -0.02196072

head.0.weight f4 [64, 64]
000000 c0 e1 a4 3d 7a db 38 3d 6c 17 ed bc 21 49 6b 3d
       0.08050871 0.045131184 -0.028941832 0.057442788
000010 80 a9 b0 3d 9e 1d f0 bd 38 b8 96 bd 72 c0 ec 3d
       0.086260796 -0.11724399 -0.07359356 0.115601435
000020 cb dd 9c 3d 5f e5 66 3d e7 7d 12 3d 4a f7 86 3d
       0.07659491 0.05637109 0.0357646 0.065901354
000030 c3 14 5e 3c 0d a8 b2 3c 28 2b 28 3b d8 52 01 be
       0.013554755 0.021808648 0.0025660489 -0.12629259
000040 85 f3 98 3b 73 25 e3 3d ce 42 06 3e b9 44 9b 3d
       0.0046677017 0.11091127 0.13111421 0.07581467
000050 32 1a 1d 3d 55 23 99 3d 07 b4 5f 3d ae d7 c1 bd
       0.03835506 0.07477442 0.054615047 -0.09464966
000060 33 93 a2 3d ad 51 fa bc 62 ea 73 bd 18 f7 e6 bc
       0.07938232 -0.030556524 -0.059549697 -0.028193995
000070 66 d7 e0 3d 81 50 2e 3c a1 6f de bd be 39 1f 3d
       0.10978584 0.010639311 -0.10861135 0.038873427
000080 74 28 c0 3c ef aa c7 3d 55 6f 63 bd 1f 1f 9f 3c
       0.02345679 0.097494 -0.055526096 0.01942402
000090 01 26 28 3d 4d d6 c9 bc 7f 53 60 bd e6 2d 87 bd
       0.04105187 -0.02463832 -0.054767128 -0.06600551
0000a0 01 79 ba 3d 32 47 e3 3c cb df 9b bd d4 a1 85 3d
       0.09105111 0.02774391 -0.076110445 0.06525007
0000b0 e5 c2 05 be c8 05 a6 38 89 67 ce 3d c3 ba 73 bc
       -0.13062628 7.916574e-05 0.100783415 -0.01487607
0000c0 2a 50 e5 3c 39 c5 af bc 9f d9 c5 bc b5 8e 03 3e
       0.027992327 -0.021456348 -0.024151621 0.12847407
0000d0 33 31 84 3d f1 9c ab bb 38 a4 09 3c 89 a1 fd bd
       0.064546965 -0.0052372147 0.008400969 -0.12384326
0000e0 90 35 84 bc dc ca 9b bd 64 54 ca 3c 10 fb e5 bb
       -0.016138822 -0.07607052 0.024698444 -0.0070184544
0000f0 c9 35 f2 bd c8 3d 42 3c 48 8b 37 3d 52 56 0c bd
       -0.11826665 0.01185555 0.044810563 -0.03426201
000100 7b c2 11 3d e8 e1 dc 3d 70 a0 ca 3c 9c cd 1c 3d
       0.03558586 0.10785276 0.024734706 0.038282022
000110 ba c7 cc 3d 79 57 ee 3d ff ab 1f 3d c6 97 fe bd
       0.09999032 0.11637778 0.038982388 -0.12431292
000120 5c 77 96 bc ae 4c 8b 3d e9 4b af 3d 5a 25 4a bd
       -0.018367462 0.06801735 0.085594006 -0.049352027
000130 cd 55 bd bd a5 dc ac bd bc ad 14 bd d6 4c 0d bd
       -0.09244881 -0.08440522 -0.0362985 -0.034497105
000140 53 c1 9e 3d c5 25 1f 3d 9e 4b db bd 7c b9 eb bd
       0.077517174 0.03885438 -0.10707782 -0.11509988
000150 27 66 fa bd af 92 a3 3c ad 87 9a 3c 0f 86 c9 bd
       -0.12226515 0.019967405 0.018863523 -0.09840023
000160 c1 73 89 3d 4a 28 ac bd cd f9 dd bb b1 1c 02 bd
       0.067115314 -0.08406122 -0.0067741633 -0.031765644
000170 58 c7 7e 3d 58 5b 93 bb 92 44 b3 3c 20 8c c2 bc
       0.062201828 -0.004496973 0.021883283 -0.023748457
000180 00 f2 9c bd df 2f 57 bd 8a 91 c9 3d f0 60 f4 3d
       -0.07663345 -0.052535888 0.098422125 0.11932552
000190 0f 49 0e 3d 53 a8 c8 bc 71 50 57 3d 2f cd b1 bd
       0.034737643 -0.024494326 0.05256695 -0.08681714
0001a0 3d 7f f8 3d 3d 55 bb bd 43 b0 cf bd 35 8a b1 bd
       0.12133644 -0.09147117 -0.10141041 -0.08668939
0001b0 ee 6b 3e bc a4 95 b9 3d 92 e9 ac 3a ad 70 f1 3d
       -0.011622412 0.09061745 0.0013192168 0.11789069
0001c0 e8 83 7b bd d5 dc 87 3d 23 0f 67 3d bc 14 d6 3c
       -0.061405092 0.06633917 0.05641092 0.026132934
0001d0 b7 aa c6 bd 60 17 26 bc 37 d5 14 3d 06 be c8 3d
       -0.0970053 -0.010137409 0.03633615 0.09801869
0001e0 59 1c 7c 3d 51 c1 d1 bb 92 d0 55 bd 36 28 6a 3c
       0.061550472 -0.006401219 -0.05220086 0.014291814
0001f0 3c b7 aa bc 08 1e bd 3d d0 03 15 3d a6 46 db bd
       -0.020839326 0.09234244 0.03638059 -0.107068345
000200 8b 9b b9 bc 5d 43 3c 3d 2b 4a 02 3e c6 13 12 3e
       -0.022657176 0.04596268 0.12723605 0.14265355
000210 5b 62 0d bd e9 a0 5b 3d 21 9b 51 bd 6f 50 fd 3c
       -0.034517627 0.053620253 -0.051173333 0.030922143
000220 a0 03 7e bd a2 7f 46 3d 34 6b 4c bd c9 71 33 bd
       -0.062015176 0.048461564 -0.049906924 -0.043809686
000230 b2 51 eb 3d 84 0e 5b bd b8 d2 06 be 9d 93 b8 3c
       0.114901915 -0.05348064 -0.1316632 0.022531325
000240 35 98 b3 3d 8b e5 15 3d 70 27 54 bd 59 84 91 3d
       0.087692656 0.036595862 -0.051795423 0.071053214
000250 bb 34 ab bc e8 1d 94 bd 19 e6 d1 3b b7 56 3a bd
       -0.020899167 -0.07232267 0.0064056036 -0.045492854
000260 7d bb a4 3d 47 cb 38 bc 12 27 eb 3c eb cc 0a 3d
       0.08043573 -0.011278934 0.028705154 0.03388683
000270 2d fc 85 bd 15 a7 b6 bd ff 1c be bc 60 c4 df 3d
       -0.06542239 -0.08918587 -0.023207186 0.109261274
000280 e8 3e 80 bd 57 41 d1 3d d3 f9 2b 3d 46 fa 4c 3d
       -0.062619984 0.10217541 0.041986298 0.050043367
000290 95 c9 a7 bd c2 f3 4f bd 1e 70 8c 3c 86 0e 64 bc
       -0.081927456 -0.050769575 0.017143305 -0.013919478
0002a0 ca b6 6e 3d 2a d7 ac bd 27 90 55 bd 34 02 14 bd
       0.05827979 -0.08439477 -0.052139428 -0.036134914
0002b0 f7 44 52 bd 91 c8 41 3d a4 62 c2 3c b6 18 2e bd
       -0.0513353 0.047310416 0.023728676 -0.042504035
0002c0 61 cc 85 3d f3 6c d0 bd 19 4d 25 3d e9 d4 1a bc
       0.06533123 -0.101770304 0.04035673 -0.009450176
0002d0 bb 1e 02 be 79 6e 87 bc 8c 5d 05 be e2 94 78 3d
       -0.12707035 -0.01653217 -0.13023967 0.06068886
0002e0 a1 4b b8 bc 71 4b b1 3d 94 61 a5 3d 54 42 99 3d
       -0.022497 0.086569674 0.08075252 0.07483354
0002f0 6c e7 fe b9 31 b6 03 3e 18 96 b1 bd f7 e6 ce 3d
       -0.00048619078 0.1286247 -0.08671206 0.10102647
000300 77 f5 01 be be 09 15 3c 83 22 24 3d 4a 41 11 3d
       -0.12691294 0.009096561 0.040071975 0.035462655
000310 71 08 0c 3e a3 5a 8d bd 5f fa cb bd 49 97 a9 3d
       0.13675095 -0.06902053 -0.09959864 0.082808085
000320 61 2f 71 bd 45 d7 a4 bd 7b 90 c0 bc 7a a8 e6 3d
       -0.058883075 -0.08048872 -0.023506394 0.11262603
000330 b2 4e 73 bd c6 07 93 bd 90 1e 96 3d 34 24 ec bb
       -0.05940122 -0.07179217 0.07330048 -0.007206464
000340 aa 45 9b bc 83 5e a0 3d fe b0 87 bd 0e a8 8b bd
       -0.018954117 0.07830527 -0.066255555 -0.06819163
000350 f4 6a 85 bd f2 f7 aa bd d9 2d 32 3b ff 21 14 3d
       -0.0651454 -0.08348073 0.0027187972 0.036165234
000360 a9 24 c0 3d 7d f0 2a 3d ac 20 71 3a bb 40 1e 3d
       0.09381992 0.041733254 0.0009198289 0.03863595
000370 6c 9b 58 bd 82 88 af 3c c2 72 59 bd a2 7d 0e 3c
       -0.052882597 0.021427397 -0.053087957 0.008696945
000380 b7 88 1d 3d 25 b6 95 3b 5f 7c c3 bd 41 cd 3a bc
       0.03846046 0.0045688325 -0.09545206 -0.011401475
000390 e5 46 c7 3d a8 e0 86 3b 32 b4 c4 bd 76 eb 40 bd
       0.09730319 0.0041161366 -0.09604682 -0.047099553
0003a0 6d 80 f5 3d 42 44 8d 3c ba 06 c4 3d 2c 65 ac bd
       0.11987386 0.017244462 0.095715955 -0.084177345
0003b0 26 99 1f bc 56 17 98 3d 1b 9d b9 3d ae 16 9a bd
       -0.009741103 0.07426326 0.090631686 -0.07523857
0003c0 02 9e fa bd e7 40 e3 3d 96 6c 46 3d 0e 4d a0 3d
       -0.12237169 0.110963635 0.0484434 0.07827197
0003d0 58 09 9a bd 02 51 b4 bd 64 0d f0 bd b9 ef db bd
       -0.075213134 -0.088045135 -0.11721304 -0.10739083
0003e0 81 d1 52 3d d2 9d 5f bd a5 a2 98 bc 83 28 a2 bd
       0.05146933 -0.05459387 -0.018632242 -0.07917883
0003f0 77 c3 2d 3d 8d ce 57 bd 6f 14 04 bd 48 55 38 bd
       0.042422738 -0.052687217 -0.03224605 -0.045003206

head.0.bias f4 [64]
000000 01 fc 70 3d 03 5a b0 bd a1 ce 6d 3b c6 19 f2 3c
       0.05883408 -0.086109184 0.003628649 0.029553305
000010 7d 02 a8 3d f0 65 b6 bc 91 31 29 3b d1 42 1d bc
       0.082035996 -0.022265404 0.0025816897 -0.00959845
000020 78 54 29 3c 7d 65 d6 3d 91 c1 fb 3d 30 0d 29 3d
       0.01033508 0.10468576 0.12292779 0.041272342
000030 8d 79 86 bd cf dc e0 3d c5 0b b8 bd 6e 9c b0 3d
       -0.06566153 0.10979616 -0.0898662 0.086235866
000040 00 89 03 3c be 92 3a 3d 31 7b d2 3c d7 23 b6 bd
       0.008028269 0.0455501 0.025693508 -0.08893555
000050 e1 af 00 bd 6b 59 f6 3c 19 6c fc bd 74 f4 27 bd
       -0.03141773 0.030071935 -0.123253055 -0.041004613
000060 d3 6b fa bd fd 92 5d bd 6e 0e 10 3d 5b b5 04 3d
       -0.12227597 -0.054095257 0.03517001 0.032399517
000070 bb 00 32 bd 16 f5 14 bd 98 a2 aa 3c 36 88 94 3b
       -0.043457728 -0.036366545 0.020829484 0.004532839
000080 b2 10 b1 bd ef c4 ec bd 2f 6f a7 bd 1f 8b 87 bb
       -0.086457625 -0.115609996 -0.081755035 -0.0041364576
000090 46 cd 06 bb 4c 90 ac bd 76 27 47 3d 87 95 cb bd
       -0.002056913 -0.0842596 0.048621617 -0.099406295
0000a0 59 93 91 bc 6b a2 eb bd 27 d8 4b bc da ba a3 bd
       -0.017770456 -0.11505588 -0.012441671 -0.079946235
0000b0 68 39 d8 bd 6e 36 dc 3d 57 cf b4 3d 1a e4 20 3d
       -0.105578244 0.10752569 0.088286094 0.039280035
0000c0 ce 60 a8 bc e2 bd 43 3d 92 c2 09 bd 8f da a5 bd
       -0.020553973 0.04778851 -0.033632822 -0.08098327
0000d0 7d eb df bd 6a 96 31 bd 11 c8 f5 3b 60 11 0b 3d
       -0.10933588 -0.043356337 0.0075006564 0.033952117
0000e0 3e a3 a8 bd c2 e7 0c bd a8 9e 80 3d 43 e8 6d bc
       -0.08234261 -0.03440071 0.06280261 -0.014520708
0000f0 bd 28 07 3e b7 2d c0 bd b0 4a fb bd 0f 1f 9a 3d
       0.13199134 -0.093837194 -0.12270105 0.07525455

head.3.weight f4 [1, 64]
000000 f0 b8 85 bc be 88 08 3d ec 7e b1 bd b5 b2 0c bd
       -0.016323537 0.033333533 -0.086667866 -0.034350116
000010 7f 57 9e bd a4 4b 8f 3d 1e d0 d5 3d 5c 56 d5 3d
       -0.07731532 0.06996849 0.10440086 0.10416862
000020 39 f1 a7 bd 48 25 f1 bd 04 18 8d 3d 19 c8 93 3d
       -0.082003064 -0.11774689 0.06889346 0.072159
000030 63 b2 c3 bd d3 83 d5 3d 41 bf c7 bb 78 76 6d 3d
       -0.09555509 0.10425534 -0.0060957973 0.05797431
000040 a9 77 d6 bb 8f 1c 01 be 30 76 ac 3c dc 4e ee 3d
       -0.0065450263 -0.1260855 0.02105245 0.11636135
000050 8c 97 b6 bc 63 1e 31 bd d9 2b 15 bd 10 64 10 3e
       -0.02228906 -0.04324187 -0.03641877 0.14100671
000060 94 62 8f 3c 4e a2 9f bd b3 8a 8b bd e8 36 d5 bd
       0.01750306 -0.07794629 -0.06813564 -0.10410863
000070 da ee 9f bd 10 35 ec bd d9 da 20 bd 72 e6 ad bd
       -0.07809229 -0.11533558 -0.03927121 -0.084912196
000080 33 f5 43 bd fc 7b ce 3d 3e 54 1b bd 1f 7f c7 bd
       -0.047841262 0.10082242 -0.037922136 -0.09741043
000090 7b c5 da bc 14 ce 83 bd c3 86 e4 3d 66 eb 58 3d
       -0.026705494 -0.06435791 0.11158516 0.05295887
0000a0 04 f3 b9 bd 72 86 19 bc a0 d2 eb bc 15 07 95 3d
       -0.09079555 -0.009370433 -0.028786957 0.072767414
0000b0 cc 55 e8 bd 3b 0d 95 3d c3 85 f7 bd 2c 3f 95 bd
       -0.113444895 0.07277914 -0.1208606 -0.0728744
0000c0 c6 00 c6 bd f9 6f 78 3d ab 3f 1b 3c 0e d3 bb 3d
       -0.09668116 0.06065366 0.009475629 0.09171115
0000d0 de 4c 88 bd c8 f7 94 3d 05 f2 14 be ba 67 8e 3d
       -0.06655286 0.07273823 -0.14545448 0.06953378
0000e0 c3 29 b2 3d ab c1 81 bd bb 69 8e 3c 21 f3 2f 3d
       0.08699372 -0.06335767 0.0173844 0.042956475
0000f0 f9 9b 05 3e d2 48 69 3d 15 65 c7 3b 55 d7 75 3d
       0.1304778 0.056954212 0.006085048 0.06001981
