runs_tsgenad/disc.pt (torch, 742281 bytes, 11 tensors)

lstm.weight_ih_l0 f4 [512, 18]
0	0xbd6c8d42	-0.0577519
1	0xbd881d0b	-0.066461645
2	0xbbe9a682	-0.007130445
3	0x3b0d7cb6	0.0021589226
4	0x3d21b065	0.039474864
5	0xbd2ed74e	-0.0426858
6	0x3b63069e	0.0034641395
7	0x3da66562	0.08124806
8	0x3daec11c	0.085329264
9	0x3cd69e0e	0.026198413
10	0x3d2ccaa9	0.04218546
11	0x3da4d2cb	0.08048018
12	0x3dabe3ef	0.08393084
13	0x3da7a60c	0.08185968
14	0xbc8d8b99	-0.01727848
15	0xbd794c7d	-0.06086396
16	0x3d80145e	0.06253885
17	0xbda85855	-0.08219973
18	0xbc38b6d4	-0.011274058
19	0x3d22afbf	0.039718386
20	0x3b8f0c43	0.0043654754
21	0xbd7ae64e	-0.061254792
22	0xbdb1c996	-0.086810276
23	0xbdb0414f	-0.086062066
24	0xbb3d6859	-0.0028901307
25	0xbbad1af0	-0.005282752
26	0xbc70950e	-0.014683975
27	0xbdb07457	-0.0861594
28	0xbdb87848	-0.09007317
29	0x3cb19dc5	0.021681676
30	0x3d87a24e	0.06622754
31	0xbcd4ade3	-0.025961822
32	0xbd03a9c0	-0.032144308
33	0x3d61a893	0.055092406
34	0xbc68971c	-0.0141961835
35	0x3ce36a95	0.027760783
36	0xbd26493c	-0.040597185
37	0x3d9f5aee	0.07781015
38	0xbdbffbaf	-0.09374177
39	0x3d6a1a0a	0.05715374
40	0xbdb3b804	-0.087753326
41	0x3c9298ab	0.017895063
42	0x3d53368c	0.05156569
43	0x3d82af11	0.063810475
44	0x3d996946	0.074907824
45	0xbd78b669	-0.060720835
46	0x3d47b0ab	0.048752468
47	0x3d45c1b9	0.04828045
48	0xbcd46526	-0.025927138
49	0xbd484d3d	-0.048901785
50	0x3ce34bc3	0.027746087
51	0xbd84dd0f	-0.06487476
52	0x3ccd24b1	0.02504191
53	0x3da116e0	0.07865691
54	0x3d80f63f	0.06296968
55	0xbc3a0a88	-0.01135505
56	0xbd085589	-0.033284698
57	0x3bfac681	0.007653058
58	0xbd099340	-0.033587694
59	0x3d985434	0.074379355
60	0x3baa7863	0.0052023395
61	0xbb98b6de	-0.0046604713
62	0xbd1b70a4	-0.03794922
63	0xbd9d4251	-0.076786645
64	0x3ca6db37	0.020368202
65	0xbd1b580a	-0.037925757
66	0xbda1928d	-0.078892805
67	0x3c8f39d7	0.017483635
68	0x3d7a67ec	0.061134264
69	0xbd060ffd	-0.03273009
70	0xbdb123b3	-0.08649387
71	0xbd40ea62	-0.047098525
72	0xbd8a9521	-0.06766725
73	0xbdc24813	-0.09486403
74	0x3d0b8a19	0.034067247
75	0x3d5ab93f	0.05339932
76	0xbd8ab49d	-0.067727305
77	0x3c898dae	0.016791191
78	0x3d6b99f8	0.057519883
79	0x3c449ded	0.012000543
80	0xbda1b0aa	-0.07895024
81	0x3cc99eeb	0.02461191
82	0xbd06f2ed	-0.032946516
83	0xbb71dc17	-0.0036904865
84	0xbcd0001e	-0.02539068
85	0xbd9af336	-0.0756592
86	0xbcb5a02e	-0.022171106
87	0xbd123aac	-0.035700485
88	0x3d1571c5	0.036485452
89	0xbd4561e3	-0.048189055
90	0xbc40aa4c	-0.011759352
91	0xbd4e19c2	-0.050317533
92	0xbc519536	-0.012791922
93	0xbd805aa5	-0.06267289
94	0xbdb8ead1	-0.09029163
95	0x3ceaa799	0.02864437
96	0xbd74ab72	-0.059733815
97	0x3db1c59f	0.08680271
98	0xbd536a35	-0.05161496
99	0xbd69a448	-0.057041436
100	0xbdb5ac11	-0.0887071
101	0x3d10ba31	0.035333816
102	0x3d8e001d	0.06933615
103	0xbc532207	-0.012886531
104	0xbda52597	-0.0806381
105	0x3c86b5b3	0.016444063
106	0xbcc6e868	-0.024280742
107	0xbbae4309	-0.00531805
108	0xbbb53267	-0.00552969
109	0x3d51b3df	0.05119693
110	0x3c9456a8	0.018107727
111	0x3d047ec8	0.03234747
112	0xbb13fc2f	-0.0022580733
113	0x3cb3a448	0.021928921
114	0xbc68a561	-0.014199586
115	0xbaddd3a1	-0.0016924032
116	0xbd93838f	-0.07202827
117	0x3d8041e7	0.0626257
118	0xbd03bc19	-0.032161806
119	0x3bfc3322	0.007696525
120	0xbd9219f8	-0.071338594
121	0xbda674ce	-0.081277475
122	0xbd1b73fc	-0.03795241
123	0x3d8f367d	0.06992815
124	0x3d513cca	0.051083364
125	0x3d5ac26a	0.053408064
126	0xbcedfe98	-0.029052064
127	0xbd222e67	-0.039595034
128	0x3c83ecae	0.016104069
129	0xbd0c443e	-0.03424477
130	0xbbb31833	-0.0054655313
131	0xbc95891e	-0.01825386
132	0x3d855a0c	0.06511316
133	0xbc7fa462	-0.015603157
134	0x3d7494a7	0.05971208
135	0x3db960a3	0.09051635
136	0xbccb8afa	-0.024846543
137	0x3d2a9367	0.04164448
138	0x3cb7c1a7	0.022431208
139	0x3d732de7	0.059369948
140	0xbd30683f	-0.043068167
141	0x3d800075	0.06250087
142	0xbc3387ed	-0.0109577
143	0x3d50f083	0.05101062
144	0xbd5592b2	-0.052141853
145	0xbd11f09f	-0.035629865
146	0xbd44a980	-0.04801321
147	0xbd58a92a	-0.052895702
148	0xbdcf523e	-0.10123108
149	0xbd967e93	-0.07348361
150	0x3c931793	0.017955577
151	0xbced145f	-0.028940378
152	0x3d0d660b	0.034521144
153	0x3a8ce603	0.0010749701
154	0x3d5f023b	0.054445487
155	0xbc2c9eed	-0.010535938
156	0x3ba9f55c	0.00518672
157	0x3d6651ed	0.056230474
158	0x3c3fcea2	0.01170698
159	0x3dac78eb	0.08421501
160	0xbd3eb804	-0.04656221
161	0xbdc8dacc	-0.09807357
162	0xbd1cf347	-0.038317945
163	0x3ce3067f	0.027713059
164	0xb9d0158f	-0.00039688914
165	0xbd56a687	-0.052404907
166	0xbdadf2bd	-0.08493564
167	0xbdbac9cc	-0.09120521
168	0xbda859a0	-0.082202196
169	0xbc2977df	-0.010343521
170	0xbdcf24eb	-0.101144634
171	0x3d3b2e3d	0.045698393
172	0xbd9e9bb9	-0.077445455
173	0xbdd85b24	-0.10564259
174	0x3d79893f	0.060921904
175	0x3d44be6a	0.048033156
176	0xbdbab50d	-0.09116564
177	0x3c91408b	0.017730972
178	0x3d301136	0.042985164
179	0x3cb865c4	0.022509463
180	0xbda1c01c	-0.0789797
181	0x3b096ddb	0.002097002
182	0x3d09adbc	0.03361295
183	0xbd558a7d	-0.052134026
184	0x3d6b674a	0.05747155
185	0xbc8362f6	-0.0160384
186	0x3d684cdc	0.056713924
187	0x3cacf2c7	0.021111859
188	0xbc6044e8	-0.0136883035
189	0xbcd32f8c	-0.025779508
190	0xbc4e8dfc	-0.012607094
191	0x3b5bdecb	0.0033549543
192	0xbd8cd70c	-0.068769544
193	0x3d7c2b0a	0.061564483
194	0x3c993cf3	0.01870582
195	0x3ccafe33	0.024779415
196	0x3c0393b4	0.008030821
197	0x3c034b86	0.008013612
198	0xbccfa125	-0.025345394
199	0xbd67a06f	-0.056549486
200	0x3cf166d5	0.02946798
201	0xbd5b71b6	-0.05357524
202	0x3d809b02	0.062795654
203	0x3c8adec1	0.01695192
204	0xbd83e1ad	-0.064395286
205	0x3c05c173	0.008163798
206	0x3d7d283d	0.061805952
207	0xbc9397c7	-0.018016709
208	0xbd5478a4	-0.051872864
209	0x3ce108e5	0.027470062
210	0x3daad17a	0.08340736
211	0x3c1b5875	0.009481539
212	0x3c4b0f41	0.0123937735
213	0xbd5a955f	-0.053365108
214	0xb99e5941	-0.00030202608
215	0x3d1dbf07	0.038512256
216	0x3d6e85da	0.05823312
217	0xbd83d9c1	-0.06438018
218	0x3b9acdf2	0.0047242576
219	0x3d1e2868	0.038612753
220	0xbcc90fe2	-0.024543706
221	0x3d7bf6ef	0.06151479
222	0xbc360fd7	-0.011112175
223	0x3d355c89	0.0442777
224	0x3cb03138	0.021507844
225	0xbd867326	-0.065649316
226	0x3d8e9097	0.06961172
227	0xbdb3b3a6	-0.087744996
228	0xbd1650e9	-0.036698256
229	0xbcae4e68	-0.021277621
230	0x3d4dbaa3	0.05022682
231	0x3da6c63d	0.0814328
232	0xbdb095da	-0.08622332
233	0xbcd4379d	-0.025905425
234	0x3ac75245	0.0015207013
235	0x3dad730a	0.084692076
236	0x3d7b054c	0.06128435
237	0x3daef5ce	0.08542977
238	0x3d16d284	0.036821857
239	0x3bbab741	0.005698115
240	0x3d8e77cd	0.06956444
241	0x3d218a90	0.039438784
242	0x3a745a29	0.0009321296
243	0x3db0ccbd	0.08632801
244	0xbd89db4f	-0.06731283
245	0x3a41e1ce	0.0007396013
246	0x3da4a89a	0.08039971
247	0x3da3027c	0.07959458
248	0x3d9fe5e5	0.07807521
249	0x3d461203	0.04835702
250	0x3d91c091	0.07116807
251	0x3d50e6cd	0.05100136
252	0x3d32eb7c	0.043681607
253	0xbc99ee0e	-0.018790271
254	0x3c0d6612	0.0086302925
255	0xbc4e5738	-0.012594037

lstm.weight_hh_l0 f4 [512, 128]
0	0x3da567e3	0.080764554
1	0xbcebe6ed	-0.028796637
2	0xbc1657a6	-0.00917617
3	0x3dabaf3c	0.08383033
4	0x3d8f8703	0.07008173
5	0xbc398521	-0.011323244
6	0xbd415bd9	-0.047206733
7	0xbbcb5d84	-0.0062062163
8	0x3d4f3448	0.05058697
9	0xbd565f4b	-0.052336972
10	0x3d41f8a5	0.047356267
11	0xbc456531	-0.012048052
12	0xbd8fc55f	-0.070200674
13	0x3c0fda5a	0.008780086
14	0xbd1afff1	-0.03784174
15	0x3c71eba0	0.01476565
16	0x3d1ec564	0.038762465
17	0xbda1fe25	-0.07909802
18	0x3d93b3c9	0.07212026
19	0xbd1b2937	-0.037881102
20	0xbd933c07	-0.07189184
21	0x3d3f6434	0.04672642
22	0xbcca8397	-0.02472095
23	0x3d7a8a30	0.061166942
24	0xbb690d07	-0.0035560743
25	0x3d0e3833	0.034721565
26	0x3b86a461	0.004108951
27	0x3d5b5c27	0.05355468
28	0xbd8a0080	-0.067383766
29	0xbd89d5c4	-0.06730226
30	0x3d92d56f	0.071696155
31	0xbc85b38d	-0.016320968
32	0x3c3aa65b	0.011392201
33	0xbcfa18a3	-0.030529326
34	0xbd9cbf32	-0.07653655
35	0x399897a2	0.00029104674
36	0xbd5e2853	-0.054237675
37	0xbd5bcaa8	-0.053660065
38	0x3db34d18	0.08754939
39	0x3ccd1004	0.02503205
40	0xbd5dd86e	-0.05416148
41	0xbd3b1351	-0.04567272
42	0xba50c0ab	-0.000796328
43	0x3da6d2b8	0.0814566
44	0xbc90f401	-0.017694475
45	0xbd93211c	-0.071840495
46	0x3d98fb7f	0.07469844
47	0x3c5135c4	0.012769166
48	0xbd16822b	-0.03674523
49	0xbdacfaec	-0.08446297
50	0x3ca2f767	0.019893361
51	0xbd9b84fc	-0.07593724
52	0xbdaac82b	-0.0833896
53	0x3da5181e	0.080612406
54	0x3cc88c55	0.024480978
55	0x3d5153c9	0.051105294
56	0x3c4c8fa7	0.012485421
57	0x3cf57884	0.029964693
58	0x3d545f29	0.051848564
59	0x3d5d3f19	0.054015253
60	0x3ca8a83b	0.020588031
61	0xbd980048	-0.07421929
62	0xbbaee10f	-0.0053368877
63	0xbdb40258	-0.087895095
64	0x3c61b075	0.013774981
65	0x3d609ff1	0.054840032
66	0xbd182e31	-0.037153427
67	0xbce9a221	-0.028519692
68	0x3d985d1a	0.07439633
69	0xbbbd59f8	-0.0057785474
70	0x3d9b0937	0.07570117
71	0x3cfadf3f	0.03062403
72	0xbc42fc1d	-0.011900929
73	0x3da17563	0.07883718
74	0xbd238c1a	-0.039928533
75	0xbd5136f7	-0.05107781
76	0xbd9ab532	-0.075540915
77	0xbd257f76	-0.04040476
78	0xbd99bb9c	-0.07506487
79	0x3da99ae1	0.08281494
80	0x3d296382	0.041354664
81	0xbce23d52	-0.02761713
82	0xbd865ca5	-0.06560639
83	0x3d99bf86	0.07507233
84	0x3d34a2d4	0.044100598
85	0xbd91bb92	-0.07115854
86	0xbda0dbd4	-0.07854429
87	0xbcc71117	-0.024300141
88	0x3d2a6ab7	0.041605677
89	0x3c0f91c8	0.008762784
90	0x3d3f5f63	0.046721827
91	0xbb0e12f6	-0.0021678782
92	0x3da75289	0.08170039
93	0xbc908224	-0.01764018
94	0xbd71ee14	-0.05906494
95	0x3d9ebaf2	0.07750501
96	0x3d18c5cd	0.037298013
97	0xbcddcdde	-0.027075704
98	0x3da6c05b	0.08142158
99	0x3be3c648	0.006951127
100	0x3cd5dbd2	0.026105795
101	0x3c625fe7	0.01381681
102	0x3d70f4ce	0.058827214
103	0x3d04fac0	0.032465696
104	0xbc453e86	-0.0120388325
105	0x3d599294	0.053118303
106	0x3cdd7e77	0.027037842
107	0xbd92b147	-0.07162719
108	0x3d466625	0.048437256
109	0xbd06e9d7	-0.03293785
110	0xbbdf8bf7	-0.006822105
111	0x3d80734d	0.06271992
112	0x3d357a6a	0.044306196
113	0x3d10d5f6	0.0353603
114	0x3d2f9806	0.04286959
115	0x3c922f67	0.017844869
116	0xbc08ad3a	-0.008342082
117	0xbcf8bb8b	-0.030362865
118	0xbcdc3927	-0.026882721
119	0xbd829016	-0.063751385
120	0x3da93752	0.08262505
121	0x3d94cdfd	0.07265852
122	0xbc0b3641	-0.008496822
123	0x3cca4f36	0.024695974
124	0x3d199811	0.037498537
125	0xbbb84e0b	-0.005624538
126	0x3bc0dcac	0.005885681
127	0x3dad6ce1	0.08468033
128	0xbd86d3e0	-0.06583381
129	0x3caee797	0.021350665
130	0x3d8d749f	0.06907009
131	0xbd885fc7	-0.06658893
132	0xbd95705b	-0.07296821
133	0x3d764d1e	0.06013214
134	0x3b50f8f5	0.0031886671
135	0xbd918bdf	-0.071067564
136	0x3be07b34	0.0068506245
137	0x3d9027f9	0.07038874
138	0xbc8c1e71	-0.01710436
139	0x3d698404	0.057010666
140	0xbda18f7f	-0.07888698
141	0xbd84102e	-0.064483985
142	0xbd026507	-0.03183463
143	0x3d7f5c6a	0.062343992
144	0xbc437b0d	-0.011931193
145	0x3c867285	0.016412029
146	0x3b1e80cc	0.0024185656
147	0xbd01a00f	-0.031646784
148	0xbd9afbc5	-0.075675525
149	0x3d79f85d	0.061027873
150	0x3ba3cfa9	0.0049991203
151	0xbc09c008	-0.0084076
152	0x3db1a3fe	0.08673857
153	0x3d18693f	0.037209745
154	0xbd796a50	-0.060892403
155	0xbc3163fa	-0.010827059
156	0x3d65beeb	0.056090277
157	0x3dab91c5	0.08377413
158	0x3d8775cc	0.06614265
159	0xbda1899f	-0.07887577
160	0x3d21ae2b	0.03947274
161	0x39dfe782	0.0004270636
162	0xbd0af311	-0.033923212
163	0x3d6c1673	0.057638597
164	0x3ca591b1	0.020211073
165	0xbdb65b66	-0.089041516
166	0x3d4e38c0	0.05034709
167	0xbb737758	-0.0037149992
168	0xbd457ab4	-0.048212722
169	0xbd9bcb2b	-0.076071106
170	0xbd0986cf	-0.03357583
171	0xbcfb48f6	-0.030674439
172	0x3d712ca5	0.058880467
173	0x3c20a64b	0.009805272
174	0xbd75d708	-0.060019523
175	0xbd93ee94	-0.072232395
176	0x3d9b1f3b	0.07574316
177	0xbcd336cf	-0.02578297
178	0xbd546655	-0.051855404
179	0xbd7ea044	-0.06216456
180	0xbd848c1a	-0.06472035
181	0xbbaa4524	-0.0051962305
182	0xbb883c3b	-0.0041575707
183	0xbb3b17fc	-0.0028548231
184	0xbd6fbf50	-0.05853206
185	0xbd99eca0	-0.07515836
186	0x3cf32c16	0.029684108
187	0x3cf0d9ee	0.029400792
188	0xbcd31720	-0.025767863
189	0x3d7a5c37	0.0611231
190	0xbd3f97ab	-0.0467755
191	0xbbe21682	-0.006899656
192	0xbd2fb75b	-0.04289947
193	0xbd2e4a3d	-0.042551268
194	0xbd164654	-0.036688164
195	0xbd06f6be	-0.032950155
196	0xbd9c2c8a	-0.07625683
197	0x3da468bd	0.0802779
198	0x3caa6c3b	0.020803561
199	0xbd4bf23d	-0.049791563
200	0x3d180d7d	0.03712224
201	0x3d2885aa	0.041143097
202	0xbd98b412	-0.07456221
203	0x3d173266	0.036913298
204	0x3dac877d	0.0842428
205	0xbc2c9f1b	-0.010535981
206	0xbd025a3c	-0.031824335
207	0x3d3f3dea	0.046689905
208	0x3d68e576	0.056859456
209	0x3d35815d	0.044312824
210	0xbd992ef5	-0.074796595
211	0x3da16732	0.07881011
212	0xbd205a9d	-0.039148916
213	0x3d0cf53f	0.034413572
214	0xbcd834e5	-0.02639241
215	0x3d9c3dc6	0.0762897
216	0x3c840143	0.016113883
217	0xbd91ec23	-0.07125118
218	0x3d6321c9	0.055452142
219	0xbd69eed1	-0.05711252
220	0x3d94390a	0.07237442
221	0x3d4925f0	0.049108446
222	0xbd47cfc7	-0.048782136
223	0x3cda44f4	0.026644208
224	0x3c55b03a	0.013042504
225	0xbdb90ff3	-0.09036245
226	0xbc8245eb	-0.01590248
227	0xbdb7797d	-0.08958719
228	0x3d874ec9	0.06606824
229	0xbd907d0d	-0.070551015
230	0xbd723219	-0.059129808
231	0xbd9823b7	-0.07428687
232	0x3da91e1d	0.08257697
233	0x3c92a45e	0.017900642
234	0x3d2f2a0f	0.04276472
235	0x3c99f525	0.018793652
236	0x3d33e921	0.0439235
237	0x3bdcc59b	0.0067374236
238	0x3ce15d2c	0.027510248
239	0xbcfa3c3d	-0.030546302
240	0xbd5dbb59	-0.054133747
241	0x3d4b3442	0.049610384
242	0x3d3112a6	0.043230675
243	0x3d694cc5	0.05695798
244	0xbd54f27f	-0.051989075
245	0xbd10124f	-0.03517371
246	0xbcaefcac	-0.021360718
247	0xbdacb1c0	-0.084323406
248	0xbd517c44	-0.0511439
249	0x3cb330ae	0.021873798
250	0xbdadc215	-0.08484284
251	0x3cff5087	0.031166328
252	0xbcb22fa6	-0.021751236
253	0x3d5d334f	0.05400401
254	0x3cf61dd2	0.030043516
255	0x3d85258e	0.065013036

lstm.bias_ih_l0 f4 [512]
0	0x3ba158eb	0.00492393
1	0xb97e5ff6	-0.00024259076
2	0x3c4e0fb0	0.012576982
3	0x3d3132c3	0.0432613
4	0xbda3e329	-0.08002312
5	0x3d52dc58	0.051479667
6	0x3da4a1fa	0.08038707
7	0x3db29baa	0.08721097
8	0x3d453c25	0.04815306
9	0xbd851bd8	-0.064994514
10	0xbd5b23b5	-0.05350085
11	0xbd8f4ecd	-0.06997452
12	0x3d061e63	0.032743823
13	0xbdaf5773	-0.085616015
14	0x3d95ab2d	0.0730804
15	0xbd33fcf8	-0.04394242
16	0xbd924a11	-0.07143033
17	0xbbe33bd8	-0.006934624
18	0xbda4f895	-0.08055226
19	0x3c53f122	0.0129359085
20	0x3db03dec	0.08605561
21	0xbcd46199	-0.025925444
22	0x3c8f54c3	0.017496472
23	0x3d57a155	0.052644093
24	0x3d9d6b47	0.07686477
25	0xbd3b9ef8	-0.0458059
26	0xbcb847e2	-0.022495214
27	0xbd9a0690	-0.07520783
28	0x3d146224	0.036226407
29	0x3d6f6213	0.05844314
30	0xbd37baf3	-0.044856023
31	0xbdba1f03	-0.09087946
32	0x3d70fa00	0.05883217
33	0xbd563757	-0.05229887
34	0x3d2f08de	0.042733066
35	0x3d87ecc9	0.0663696
36	0x3d4fa564	0.05069484
37	0x3b536a15	0.0032259275
38	0x3dad2393	0.08454051
39	0xbd4069e9	-0.046976004
40	0x3ccdcc97	0.02512197
41	0xbdaa8a43	-0.083271526
42	0xbd21b815	-0.039482195
43	0xbda31719	-0.0796339
44	0x3d4e0f06	0.050307296
45	0xbbac4835	-0.005257631
46	0x3daabcdd	0.08336804
47	0xbd0cd033	-0.03437824
48	0x3d967f41	0.073484905
49	0x3d88faa8	0.06688434
50	0x3ca9f1a1	0.0207451
51	0xbd30baa2	-0.043146737
52	0xbd789f38	-0.060698718
53	0x3c0d78b4	0.008634735
54	0xbc95ce77	-0.018286927
55	0xbd94f27f	-0.07272815
56	0xbd9c41cd	-0.07629738
57	0xbd22bc24	-0.039730206
58	0x3d996d09	0.074915
59	0x3d81d9fb	0.063404046
60	0xb9c64445	-0.00037816368
61	0xbb89949f	-0.004198625
62	0xbda6ff25	-0.08154134
63	0x3da6d883	0.08146765
64	0x3d156698	0.036474794
65	0x3d954da7	0.07290202
66	0xbdafab6b	-0.08577617
67	0x3b9062a0	0.0044062883
68	0x3d53bb8c	0.05169253
69	0xbc81eed0	-0.015860945
70	0xbbe996d8	-0.0071285777
71	0xbd86651b	-0.06562253
72	0xbd058ded	-0.032606054
73	0x3d45da9a	0.048304178
74	0x3cc7d9fb	0.024395933
75	0x3d030178	0.031983823
76	0xbd1b4494	-0.037907198
77	0xbaa5ada7	-0.0012640253
78	0x3cdcb20b	0.026940366
79	0xbd22e6ee	-0.039771013
80	0xbdc24be3	-0.094871305
81	0xbc71096d	-0.01471172
82	0x3c375036	0.011188557
83	0xbd14cade	-0.03632628
84	0x3c9d6a7a	0.019215811
85	0x3c680322	0.014160903
86	0x3d4670de	0.048447482
87	0xbdaa1754	-0.08305231
88	0xbcfef619	-0.031123208
89	0xbd7ad410	-0.061237395
90	0xbd0311b3	-0.0319993
91	0x3da895d3	0.08231702
92	0x3db9b4e2	0.09067704
93	0xbd900f16	-0.070341274
94	0x3c2bf661	0.010495753
95	0x3d5cfeba	0.053953864
96	0xbd02122c	-0.03175561
97	0xbdb33ba6	-0.087516114
98	0x3d4e3cb7	0.05035087
99	0x3dad2f21	0.08456255
100	0xbba5a0f7	-0.005054589
101	0x3ced315a	0.028954197
102	0x3c8b9876	0.017040472
103	0x3cd720a8	0.026260689
104	0xbd2a5785	-0.04158737
105	0x3d1ce3cf	0.038303193
106	0xbd3806dd	-0.04492842
107	0x3ba26478	0.0049558245
108	0x3d9b5c37	0.07585948
109	0x3d6639d5	0.056207497
110	0xbc4723aa	-0.012154499
111	0xbd93abe5	-0.07210521
112	0x3d079c99	0.033108328
113	0x3d9c9bac	0.076468796
114	0xbd83545d	-0.064125754
115	0xbd816446	-0.06317954
116	0xbcbbfb7b	-0.022947064
117	0xbd4808a3	-0.04883636
118	0x3d87143b	0.065956555
119	0x3d3e899f	0.046517964
120	0xbc1564c6	-0.009118265
121	0xbcf0c5cc	-0.029391192
122	0x3d3f35ee	0.04668229
123	0xbd6f91da	-0.058488704
124	0xbcf44520	-0.029818118
125	0xbc65f46c	-0.0140353255
126	0xbdb9370c	-0.090437025
127	0x3c8170ff	0.015800951
128	0xbd67c850	-0.056587517
129	0x3cf11924	0.029430933
130	0xbc6075f5	-0.013699998
131	0xbdbf9ba1	-0.09355856
132	0xbcce9ab2	-0.025220249
133	0xbc005f84	-0.007835273
134	0xbd805af6	-0.062673494
135	0x3d3d7ff3	0.0462646
136	0xbbd8cdf6	-0.0066163493
137	0xbd9dcfcc	-0.0770565
138	0xbc91408d	-0.017730976
139	0x3cec17a5	0.028819868
140	0x3d2aebf2	0.04172892
141	0x3c8e0f5d	0.01734131
142	0x3c85960b	0.016306898
143	0x3d1afe6a	0.037840284
144	0xbd50db39	-0.050990317
145	0xbcf3b2ba	-0.02974831
146	0x3c5a5889	0.0133267725
147	0xbc25a4d9	-0.0101101035
148	0xbd1d5b96	-0.03841742
149	0xbb1d0db3	-0.0023964464
150	0xbd457eac	-0.048216507
151	0x3bb7d964	0.005610632
152	0x3d8a56e4	0.06754854
153	0x3c03b0b8	0.0080377385
154	0xbd4df12c	-0.050278828
155	0x3d7d9de7	0.061918166
156	0x3d341659	0.043966625
157	0xbd96a837	-0.07356303
158	0x3bbe91e4	0.0058157314
159	0x3ca1a865	0.019733617
160	0xbdb5a9d9	-0.088702865
161	0x3cd78736	0.02630959
162	0x3c4196ee	0.01181577
163	0xbd8b44f0	-0.06800258
164	0xbd8f95ab	-0.07010969
165	0x3b6eb1ce	0.0036421898
166	0x3c6df692	0.014524119
167	0x3d282e97	0.041060057
168	0xbd8f7b8d	-0.07005987
169	0xbb979387	-0.004625741
170	0xbda20add	-0.07912228
171	0xbd73b4ab	-0.05949847
172	0xbd032f46	-0.032027505
173	0x3d6f97b3	0.05849428
174	0xbd881317	-0.06644266
175	0xbda0af7e	-0.078459725
176	0xbcf8402f	-0.030304043
177	0x3ca7a13e	0.020462628
178	0xbdb48115	-0.08813683
179	0xbc5a2b8d	-0.013316047
180	0xb9c3bd4d	-0.00037334338
181	0x3d793ef2	0.060851045
182	0xbd5a1dd3	-0.0532511
183	0xbd2558d3	-0.040367913
184	0x3ba13719	0.004919898
185	0xbd520546	-0.05127456
186	0x3d828c31	0.06374396
187	0xbd9603b0	-0.07324922
188	0x3c042a0b	0.008066664
189	0xbd04b2b0	-0.032396972
190	0x3ccf1502	0.025278572
191	0x3c878980	0.016545057
192	0x3d00b863	0.031425845
193	0xbcaca493	-0.021074569
194	0x3d7fda59	0.062464092
195	0xbd03aeb0	-0.032149017
196	0xbdb5df7d	-0.08880518
197	0x3d8f19c6	0.06987338
198	0x3a92861d	0.0011178885
199	0x3d39cc67	0.04536095
200	0xbd785951	-0.060632054
201	0xbd920554	-0.071299225
202	0x3d387a18	0.045038313
203	0x3c4cfbd5	0.012511213
204	0xbcbbe6d8	-0.022937223
205	0xbd8561ef	-0.0651282
206	0x3bfef25c	0.0077803563
207	0xbd3c5c0d	-0.045986224
208	0xbdc23cbf	-0.09484243
209	0xbcb31e08	-0.021864906
210	0x3daa94ce	0.083291635
211	0xbcb0512d	-0.021523083
212	0xbd377cb8	-0.044796675
213	0xbda58a20	-0.08082986
214	0x3d2b473f	0.041815992
215	0xbca86745	-0.020557055
216	0xbd17262f	-0.03690165
217	0xbd8680b5	-0.06567518
218	0xbd8f9ed0	-0.07012713
219	0x3d452709	0.04813293
220	0x3caa063f	0.020754931
221	0xbd6d668f	-0.057959136
222	0xbd50f4b7	-0.05101463
223	0xbc37daa2	-0.01122156
224	0x3d9c2120	0.076235056
225	0xbda81f04	-0.08209041
226	0xbd0f651e	-0.035008542
227	0x3d2df3f5	0.042468984
228	0x3c7ec34f	0.015549495
229	0x3d15e80e	0.036598258
230	0xbd4ac900	-0.049508095
231	0x3d882b56	0.06648891
232	0x3da2712e	0.079317436
233	0xbc2dda35	-0.010611107
234	0x3ca7d685	0.020488033
235	0x3d88939d	0.0666878
236	0xbcda1bcf	-0.026624588
237	0x3d8c2561	0.06843067
238	0xbd2a41c9	-0.041566644
239	0xbd7855f7	-0.060628857
240	0xbccb0e0e	-0.024786975
241	0x3d66c04a	0.056335725
242	0xbdabbf51	-0.083861
243	0xbd46e58c	-0.048558757
244	0x3c9e7ed6	0.01934759
245	0x3d9d0779	0.07667441
246	0xbda0e26e	-0.07855688
247	0xbc495a7f	-0.012289642
248	0x3d8f3529	0.06992561
249	0xbd8bb5f8	-0.06821817
250	0x3d17e785	0.03708603
251	0xbbc69dca	-0.0060612904
252	0xbd569818	-0.05239114
253	0x3d4796ae	0.048727684
254	0x3b355a2a	0.002767215
255	0x3d8b729e	0.06808971

lstm.bias_hh_l0 f4 [512]
0	0x3d1dfb50	0.03856975
1	0x3da2d297	0.07950323
2	0xbd9aad5c	-0.07552597
3	0xbb37d588	-0.0028050859
4	0xbcd23037	-0.025657756
5	0xbcb4ddd5	-0.022078434
6	0xbd3c0772	-0.045905538
7	0x3b982ac3	0.0046437695
8	0x3d53ade5	0.05167951
9	0xbdc82c62	-0.0977409
10	0x3d94e14a	0.07269533
11	0x3d6b7fda	0.057494976
12	0xbd057771	-0.03258461
13	0xbda2a622	-0.079418436
14	0x3d2e8aa4	0.042612687
15	0xbd474e30	-0.04865855
16	0x3cc7d179	0.024391877
17	0x3cf7cd04	0.030249126
18	0x3c4f7b02	0.012663605
19	0xbc90f46b	-0.017694673
20	0xbc4cde6f	-0.012504204
21	0xbdaed952	-0.08537544
22	0xba9bd973	-0.0011890366
23	0x3d900ed6	0.0703408
24	0x3d2b16b2	0.04176969
25	0x3d4195dc	0.047262058
26	0xbc49d705	-0.012319331
27	0xbcf69736	-0.0301014
28	0xbcca98ea	-0.024731118
29	0x3d55e107	0.052216556
30	0x3d8a5ff5	0.067565836
31	0x3d4522e7	0.04812899
32	0x3d480868	0.04883614
33	0x3d3ada0e	0.04561811
34	0x3c9b5e43	0.018965846
35	0xbd1083e0	-0.035282016
36	0xbcb4c20e	-0.022065189
37	0xbd1d34c1	-0.03838039
38	0x3d8f9393	0.070105694
39	0x3d926074	0.07147303
40	0x3c89c733	0.016818618
41	0xbd8bf08e	-0.068329915
42	0xbc984116	-0.018585723
43	0x3d310369	0.043216143
44	0x3c9b7eb4	0.018981315
45	0x3d009b71	0.03139824
46	0xbcfff40a	-0.031244297
47	0xbd085f5c	-0.033294067
48	0x3d5eabd2	0.05436308
49	0x3c5212b9	0.012821847
50	0xbc5723ed	-0.013131124
51	0xbc50285d	-0.012704936
52	0xbd28c455	-0.04120286
53	0xbdba91ec	-0.09109864
54	0xbcd72e81	-0.026267292
55	0xbcd949f9	-0.02652453
56	0xbbd804f5	-0.006592388
57	0x3c9ee334	0.019395448
58	0xbda7fc0f	-0.08202373
59	0xbcb94530	-0.022615999
60	0x3d07177d	0.032981385
61	0x3cd4b2bc	0.025964133
62	0xbc76af54	-0.01505645
63	0xbce04cfc	-0.027380459
64	0x3d979c6b	0.07402881
65	0x3d9465c5	0.072459735
66	0xbd2f5882	-0.042809017
67	0xbaf7ee2e	-0.0018915588
68	0x3d9db432	0.07700385
69	0x3c41389c	0.011793282
70	0xbbbc8939	-0.005753663
71	0x3ab5f118	0.0013881056
72	0xbd776fe8	-0.060409456
73	0x3d212612	0.039342947
74	0xbc06d051	-0.008228377
75	0x3db422e5	0.08795718
76	0x3d22a0be	0.039704077
77	0xbd3cb63a	-0.046072222
78	0x3cd04973	0.025425648
79	0x3cdb3eaa	0.026763279
80	0x3b02fe64	0.0019988054
81	0x3c8c00ad	0.017090166
82	0xbda63e89	-0.081173964
83	0x3d385826	0.04500594
84	0x3cfec542	0.03109992
85	0xbb2f4a63	-0.0026747219
86	0x3caffe72	0.021483634
87	0x3d4f28bb	0.050575953
88	0xbd9547f6	-0.07289116
89	0xbca540b0	-0.020172447
90	0xbc2c464b	-0.010514806
91	0x3be6fd75	0.0070492574
92	0x3d44f5dc	0.048086032
93	0xbd019445	-0.03163554
94	0xbdb1171d	-0.08646987
95	0xbd9b5c06	-0.075859115
96	0xbb4563ef	-0.003011938
97	0x3cf6a2da	0.03010695
98	0x3d424ffb	0.047439557
99	0xbd1a7766	-0.037711523
100	0xbc9689a8	-0.018376186
101	0x3daeaa98	0.08528632
102	0x3d51e2e3	0.051241767
103	0xbc4c1053	-0.012455064
104	0x3d522525	0.051304955
105	0x3d865ad5	0.065602936
106	0x3d2ad01d	0.04170238
107	0xbd927cf5	-0.0715274
108	0x3cd657ae	0.026164856
109	0xbda7e600	-0.08198166
110	0x3d2b60e5	0.041840453
111	0xbd3fd740	-0.046836138
112	0xbda0e533	-0.07856216
113	0x3d116361	0.035495166
114	0xbcb0a62f	-0.021563618
115	0xbda328bc	-0.07966754
116	0x3dacda76	0.084401056
117	0xbd352100	-0.044220924
118	0xbc4963fe	-0.012291906
119	0x3d3cc437	0.046085563
120	0xbdb0d2cc	-0.08633956
121	0x3c389545	0.011266057
122	0xbcba60ac	-0.022751175
123	0xbcf34a9c	-0.029698662
124	0xbb830ddc	-0.003999455
125	0x3c974881	0.01846719
126	0xbd18fab4	-0.037348464
127	0xbb465cb6	-0.0030267662
128	0xbd4c552d	-0.049885917
129	0xbd162c7c	-0.036663517
130	0xbd90e1c5	-0.07074312
131	0x3ce31d70	0.027723998
132	0x3d982224	0.07428387
133	0xbdaf6fae	-0.08566223
134	0xbc5205bb	-0.012818749
135	0xbc5a07c6	-0.013307517
136	0x3d2630bb	0.040573817
137	0x3d59c8cd	0.053170014
138	0xbd302a8b	-0.043009322
139	0xbc028137	-0.0079653775
140	0x3d95cb37	0.07314151
141	0x3d877f42	0.066160694
142	0xbccd3c71	-0.025053235
143	0x3db19de0	0.086726904
144	0x3d32de3c	0.04366897
145	0xbaea65b2	-0.0017883091
146	0xbc42afdd	-0.011882749
147	0x3c21f437	0.0098848855
148	0xbcf25909	-0.02958347
149	0x3d592fdb	0.053024154
150	0x3cd1eecd	0.025626564
151	0x3cf4a2f5	0.02986286
152	0x3d116d90	0.035504878
153	0xbdb6815c	-0.08911392
154	0xbd98359e	-0.07432102
155	0xbd3e731c	-0.046496496
156	0x3cf766c7	0.030200375
157	0xbd8da008	-0.06915289
158	0xbd53bfb2	-0.051696487
159	0x3d9e6fcf	0.077361695
160	0x3d58312e	0.052781276
161	0xbd547178	-0.051866025
162	0xbcfc5fb4	-0.030807354
163	0x3d9f1090	0.07766831
164	0x3d3792be	0.04481768
165	0x3d86863a	0.065685704
166	0xbd81f0b9	-0.06344742
167	0x3ce8ca0f	0.028416662
168	0xbd883060	-0.06649852
169	0xbd8f4fb1	-0.06997622
170	0xbd1b12ae	-0.03785961
171	0x3d4e9341	0.0504334
172	0xbbd04632	-0.006356024
173	0x3d54c99a	0.051950075
174	0x3d19b81a	0.03752909
175	0xbd843cad	-0.064568855
176	0xbd22044c	-0.03955488
177	0xbd2ceb3a	-0.042216517
178	0x3dac0c11	0.08400739
179	0x3ca33511	0.019922765
180	0xbd566788	-0.05234483
181	0xbd17129d	-0.036882985
182	0x3bc9df2b	0.006160637
183	0x3d829ad6	0.06377189
184	0xbd865e31	-0.06560934
185	0x3d8789b5	0.066180624
186	0xbdb3b3cf	-0.0877453
187	0xbd6a3c6a	-0.05718652
188	0x3dadcc8e	0.08486281
189	0xbd90ed05	-0.07076458
190	0x3c339867	0.0109616285
191	0xbbe23286	-0.0069029955
192	0xbd881829	-0.06645233
193	0xbc633f81	-0.013870121
194	0x3d3fff7a	0.0468745
195	0x3d03ce0c	0.032178923
196	0xbaf84987	-0.0018942811
197	0x3b59d149	0.0033236316
198	0xbd86fc3c	-0.06591079
199	0x3da607de	0.08106969
200	0x3d94e678	0.07270521
201	0xbc2cde28	-0.010551013
202	0x3d6960ec	0.056977198
203	0x3d5511d4	0.052018955
204	0x3d958a26	0.0730174
205	0xbc199940	-0.009374917
206	0xbd3dcf7b	-0.046340447
207	0xbd97ecd5	-0.07418219
208	0xbce4e567	-0.027941419
209	0x3cd01914	0.025402583
210	0xbd03d7cd	-0.032188226
211	0x3cd6a26b	0.026200494
212	0x3d7b9c65	0.061428446
213	0xbdb5b303	-0.088720344
214	0xbd6d0057	-0.057861652
215	0xbdab90cb	-0.083772264
216	0xbdc1eda9	-0.09469158
217	0xbc927adc	-0.01788085
218	0x3d849eb6	0.06475584
219	0xbda4e819	-0.080520816
220	0x3d092a1b	0.03348742
221	0xbc9cdc7f	-0.01914811
222	0x3da2273b	0.07917639
223	0x3d7bf856	0.06151613
224	0xbd1a3669	-0.037649546
225	0xbc8c70cc	-0.01714363
226	0xbd148a45	-0.036264677
227	0xbd576417	-0.052585687
228	0xbbb397e3	-0.005480753
229	0x3cc81ba3	0.02442724
230	0x3ca231e7	0.019799186
231	0xbd941466	-0.07230453
232	0xbcef681c	-0.029224448
233	0xbd7b2d5a	-0.061322547
234	0xbc439922	-0.011938365
235	0x3bb94de1	0.005655036
236	0xbdbd040d	-0.09229288
237	0xbd2f9e23	-0.04287542
238	0xbd414bf3	-0.04719157
239	0x3d378157	0.044801082
240	0xbd8c3aa2	-0.06847121
241	0x3d23937a	0.039935566
242	0x3d7a4e19	0.061109636
243	0xbd7eefbf	-0.06224036
244	0xbc3fb82c	-0.011701625
245	0xbb9dd6fd	-0.0048168884
246	0xbd274800	-0.04084015
247	0x3d8dda79	0.06926436
248	0xbdb833da	-0.08994265
249	0xbda653c3	-0.08121445
250	0xbd9266e0	-0.07148528
251	0xbcfadad9	-0.030621933
252	0xbc865329	-0.016397076
253	0x3d939316	0.07205789
254	0xbd8c5852	-0.06852783
255	0xbc87eaed	-0.016591514

lstm.weight_ih_l0_reverse f4 [512, 18]
0	0xbdb0b97d	-0.08629129
1	0x3d47459f	0.04865038
2	0xbd9172a5	-0.07101945
3	0xbd943f33	-0.07238617
4	0xbc1753bf	-0.009236275
5	0xbd7e79a8	-0.06212774
6	0x3d6b09da	0.057382442
7	0xbd9d1ef7	-0.07671922
8	0x3d772a21	0.06034291
9	0x3bb62cf2	0.005559557
10	0xbc663b97	-0.014052293
11	0x3d9deabe	0.07710789
12	0x3c1c0c6b	0.009524445
13	0xbd9ca18c	-0.07648
14	0xbd9714e5	-0.07377032
15	0x3d24b2f1	0.040209714
16	0xbd50bb59	-0.05095992
17	0x3d8f2dbc	0.06991145
18	0xbcf9614a	-0.030441899
19	0xbd5da6ec	-0.054114267
20	0x3ca321e4	0.019913621
21	0x3d1a8fcf	0.037734803
22	0xbc37f607	-0.011228091
23	0xbd4a1f41	-0.049346212
24	0xbc04a575	-0.008096089
25	0xbd9bd6b9	-0.076093145
26	0x3c86f17c	0.01647257
27	0xbcb938a3	-0.022610014
28	0x3d8bacb1	0.06820048
29	0x3ad66248	0.0016356194
30	0x3c48bbec	0.012251835
31	0x3d472f8e	0.048629336
32	0x3daf8e67	0.08572083
33	0xbd22cc07	-0.039745357
34	0xbd73955e	-0.05946862
35	0x3b847c12	0.0040431106
36	0xbdb401c6	-0.08789401
37	0x3a38038f	0.0007019573
38	0x3c9f2ba1	0.019429984
39	0xbdad161e	-0.08451484
40	0x3d5723d6	0.05252441
41	0xbdbdf074	-0.092743784
42	0xbdbc3ca9	-0.091912575
43	0x3c652f8b	0.013988386
44	0x3d94a2f0	0.0725764
45	0x3d1ec2ce	0.03876
46	0xbd1f2345	-0.038851995
47	0x3cda8731	0.026675792
48	0xbcfb544f	-0.03067985
49	0xbd6f70c0	-0.058457136
50	0x3da949de	0.08266042
51	0xbd928381	-0.07153989
52	0xbd846cdb	-0.06466075
53	0x3cc4b19d	0.024010474
54	0xbc20a3ef	-0.00980471
55	0x3d630110	0.055420935
56	0x3d01a139	0.031647895
57	0x3d002932	0.031289287
58	0xbd92d8bc	-0.07170245
59	0x3daf34e7	0.08555012
60	0xbb97c18d	-0.0046312273
61	0xbc745fd1	-0.014915423
62	0x3da6cfc8	0.081451
63	0x3d684e90	0.056715548
64	0x3c8e2ba6	0.017354798
65	0x3dbccb60	0.09218478
66	0xbda8c8a0	-0.08241391
67	0xbcc3c536	-0.023897748
68	0x3db4df81	0.088316925
69	0x3cb9c602	0.022677425
70	0x3c3a2f2d	0.011363787
71	0x3bdd3166	0.0067502735
72	0xbd84ec6a	-0.06490405
73	0x3c21097d	0.009828922
74	0x3d9bcb13	0.07607093
75	0x3cbd671f	0.023120461
76	0xbd0c37f2	-0.03423304
77	0x3daf2711	0.08552373
78	0xbcf3a254	-0.02974049
79	0xbd4454cf	-0.047932442
80	0xbd4759df	-0.048669692
81	0xbc8913cc	-0.016733073
82	0xbda47d2a	-0.08031686
83	0xbc63c529	-0.013901987
84	0x3d7908f3	0.06079955
85	0x3dbd35e9	0.09238798
86	0x3da16e2a	0.0788234
87	0x3c792aea	0.015207985
88	0x3cf0a923	0.029377526
89	0xbdaed437	-0.085365705
90	0xbca5e093	-0.020248687
91	0xbd98f91e	-0.0746939
92	0xbd7d33c4	-0.061816946
93	0xbd7b2d49	-0.061322484
94	0xbcf97e8f	-0.030455856
95	0xbd999365	-0.074988164
96	0xbdafb29c	-0.08578989
97	0x3d0e8b3c	0.034800753
98	0x3cb9dc86	0.022688162
99	0x3b9dc27d	0.0048144446
100	0x3d11d68c	0.035605
101	0xbdba9683	-0.09110739
102	0x3d910b30	0.07082212
103	0xbc49a45c	-0.012307253
104	0x3d36a318	0.044589132
105	0xbce1891a	-0.027531195
106	0xbd158e5a	-0.03651271
107	0x3d9ee997	0.077593975
108	0xbbd37b11	-0.0064538796
109	0x3d637a5c	0.055536613
110	0xbdc6eb88	-0.09712893
111	0xbdc898a4	-0.09794739
112	0xbd83731d	-0.064184405
113	0xbc5498eb	-0.012975912
114	0xbd008096	-0.03137263
115	0xbdab62c3	-0.08368447
116	0xbac0c8b9	-0.0014708258
117	0x3cc6cadb	0.02426665
118	0x3d825f77	0.06365865
119	0xbc8b2e0c	-0.01698973
120	0x3d294f02	0.041335113
121	0x3d2a0e79	0.04151771
122	0x3d262133	0.040559005
123	0xbd25b485	-0.04045536
124	0xbd1c9200	-0.038225174
125	0x3b7c644d	0.0038511932
126	0xbc714d51	-0.014727906
127	0xbd5128ed	-0.05106442
128	0x3d8fa6fc	0.070142716
129	0x3d4d17cc	0.050071523
130	0xbda71e8d	-0.08160124
131	0xbda8ee5e	-0.0824859
132	0x3bb6c142	0.0055772373
133	0xbd5a06b1	-0.053229038
134	0xbd108059	-0.035278652
135	0xbd1077a9	-0.035270367
136	0xbd482bbd	-0.048869837
137	0xbda98e8e	-0.08279143
138	0x3d8e14ef	0.069375865
139	0xbbbfb42e	-0.0058503365
140	0x3c127b90	0.008940592
141	0xbd81f7d7	-0.063461
142	0xbda7444d	-0.08167324
143	0xbceccd55	-0.028906504
144	0x3d5688cc	0.052376553
145	0x3d10682e	0.035255603
146	0xbd38acbb	-0.045086604
147	0xbda11e1b	-0.0786707
148	0x3d161315	0.03663929
149	0xbc6eeb9f	-0.014582544
150	0x3cccd86a	0.025005538
151	0xbd81cf4d	-0.063383676
152	0xbd989dc3	-0.07451966
153	0xbd90b0f2	-0.07065
154	0xbd07373d	-0.033011664
155	0xbd937f8f	-0.07202064
156	0xbd8a1452	-0.06742157
157	0xbbc628d3	-0.006047347
158	0xbda36700	-0.0797863
159	0x3d78dc70	0.0607571
160	0x3d329e21	0.043607835
161	0xbcef715b	-0.029228857
162	0xbd15f4fb	-0.036610585
163	0xbd63db71	-0.055629198
164	0x3dac465f	0.0841186
165	0x3ce1920a	0.027535457
166	0x3c2fcddf	0.010730236
167	0x3da49d81	0.08037854
168	0xbce994ac	-0.028513275
169	0xbd7ce121	-0.061738137
170	0xbd0003e5	-0.031253714
171	0xbd1dabd6	-0.038493954
172	0x3cfa2f95	0.030540267
173	0x3c9b5fe8	0.01896663
174	0xbd6092a8	-0.054827362
175	0x3b246a72	0.002508786
176	0xbd047735	-0.032340247
177	0xbcaec86b	-0.021335801
178	0x3c92c2e2	0.017915193
179	0xbd5ceeb6	-0.05393859
180	0x3d90a8fd	0.07063482
181	0x3c9f0dd3	0.019415772
182	0xbd8c5495	-0.0685207
183	0xbd91ad4d	-0.071131326
184	0x3d6ee0a5	0.058319706
185	0xbd834fb9	-0.0641169
186	0x3bb3a0bb	0.005481807
187	0x3db2ac15	0.08724228
188	0x3d5a29df	0.053262588
189	0x3d9c9058	0.07644719
190	0x3d6d9bb2	0.05800981
191	0x3c84639a	0.016160775
192	0x3b90ab9a	0.0044149878
193	0xbdab3cfb	-0.083612405
194	0xbd9b7a33	-0.07591667
195	0x3cb6dbf7	0.022321684
196	0xbd935896	-0.07194631
197	0xbce82007	-0.028335584
198	0x3d8f30ca	0.06991728
199	0xbc408789	-0.011751064
200	0xbd833e02	-0.064083114
201	0xbc7c81e3	-0.015411827
202	0xbd7ffea6	-0.06249871
203	0xbd380dbd	-0.044934977
204	0x3d55252c	0.052037403
205	0x3d37e4ad	0.044895817
206	0xbcabfa8a	-0.02099349
207	0xbd015245	-0.0315726
208	0xbbd29bdd	-0.0064272718
209	0x3d7da6a8	0.061926514
210	0xbcd503fc	-0.026002876
211	0xbcdcba75	-0.026944378
212	0x3d067ed2	0.03283579
213	0xbc3967c3	-0.011316243
214	0xbcfcf0f2	-0.03087661
215	0x3c73c4cc	0.014878463
216	0x3d662f4d	0.056197453
217	0x3cca1f44	0.024673112
218	0xbd1c2df6	-0.03812977
219	0x3ca8abf1	0.0205898
220	0xbd9200f1	-0.07129086
221	0xbcab7564	-0.02093
222	0xbd3effb2	-0.04663057
223	0x3d8d7126	0.06906347
224	0x3d82ac37	0.063805036
225	0x3d5f65dd	0.054540504
226	0x3d58e70d	0.052954722
227	0x3cb9ae3f	0.022666095
228	0xbcdabbc4	-0.026700862
229	0x3dab3387	0.083594374
230	0x3ce883de	0.028383192
231	0xbca29715	-0.019847432
232	0xbd9a96e5	-0.07548312
233	0x3c673b54	0.014113266
234	0x3d8757a6	0.066085145
235	0xbd0a5e1f	-0.033781167
236	0xbd923c8e	-0.07140456
237	0xbda703f0	-0.08155048
238	0xbbd74070	-0.006568961
239	0xbc4f2d31	-0.012645052
240	0xbb5ed2d8	-0.0034000184
241	0x3d52c0e1	0.051453475
242	0xbd65524d	-0.05598669
243	0x3ba90f4e	0.005159295
244	0xbdbb7f86	-0.091551825
245	0x3d77e240	0.060518503
246	0xbd675079	-0.05647323
247	0xbd9a6b34	-0.075399786
248	0xb944c51c	-0.00018765446
249	0xbccf4a9c	-0.025304131
250	0x3d7e91d1	0.06215078
251	0xbd0b722e	-0.034044437
252	0x3cecc8b0	0.028904289
253	0xbbca10b8	-0.006166544
254	0x3d497113	0.0491801
255	0x3d74a828	0.05973068

lstm.weight_hh_l0_reverse f4 [512, 128]
0	0xbd7457d7	-0.059654083
1	0x3c162e23	0.009166273
2	0x3cc05af9	0.02348088
3	0x3cdc727b	0.026910057
4	0x3cd369a1	0.025807204
5	0x3d3e0323	0.04638971
6	0xbd2c3dfe	-0.042051308
7	0xbda7d0f9	-0.08194155
8	0x3d2f5efd	0.042815197
9	0x3c62c9f9	0.013842099
10	0x3d756469	0.05991021
11	0x3d8aa06c	0.06768879
12	0xbcef9956	-0.029247921
13	0x3b0d74b9	0.0021584465
14	0x3da347af	0.07972657
15	0x3c4e3a1d	0.0125870975
16	0xbd47c9cf	-0.048776444
17	0x3d937cb9	0.07201523
18	0x3da843ea	0.082160786
19	0xbd69d962	-0.057092078
20	0xbda3a647	-0.07990699
21	0x3d84f642	0.064922825
22	0x3b5c5e6c	0.0033625616
23	0x3d8f43f6	0.069953844
24	0x3d0a1823	0.033714425
25	0xbcdb1401	-0.026742937
26	0x3cb4145d	0.021982366
27	0xbd6f8cf8	-0.058484048
28	0xbbebc33f	-0.007194906
29	0x3d69e66d	0.057104517
30	0x3c8b169f	0.01697856
31	0xba59e165	-0.00083114795
32	0x3c87818a	0.016541261
33	0x3d557db8	0.052121848
34	0xbda93c6e	-0.08263479
35	0x3d0e6714	0.03476627
36	0xbc80ba7f	-0.015713928
37	0xbbdfe3ff	-0.006832599
38	0x3d4d5707	0.050131824
39	0xbd8ec624	-0.06971386
40	0xbd8e64d7	-0.069528274
41	0xbca23f64	-0.019805618
42	0x3d5ac2f6	0.053408585
43	0xbda56c32	-0.08077277
44	0xbd7b9362	-0.061419852
45	0x3da61648	0.081097186
46	0x3d22b5ef	0.039724287
47	0x3cc935e0	0.024561822
48	0xbd99279e	-0.074782595
49	0xbc176d9a	-0.00924244
50	0xbda411c7	-0.08011203
51	0xb9ffab26	-0.00048764906
52	0x3d896d02	0.06710245
53	0xbd242cbd	-0.04008173
54	0x3d9e4b71	0.07729233
55	0x3c97e54b	0.018541953
56	0x3d2d5764	0.04231967
57	0x3d2e4002	0.04254151
58	0xbd85b650	-0.06528914
59	0x3db2ff9c	0.0874016
60	0x3db1193d	0.08647392
61	0xbbe14bb2	-0.0068754787
62	0xbd0aed9e	-0.033918016
63	0xba1315db	-0.00056108617
64	0xbbb96e45	-0.005658897
65	0xbc001fa9	-0.007820048
66	0x3d92d316	0.07169168
67	0x3ceb530b	0.028726121
68	0xbcb02d28	-0.021505907
69	0x3c953c84	0.018217333
70	0xbd5e4747	-0.054267194
71	0x3d39fa3b	0.045404654
72	0xbd2390eb	-0.039933126
73	0x3d881267	0.06644135
74	0xbcbd579d	-0.023113066
75	0xbd1a1143	-0.03761412
76	0x3c42812b	0.011871616
77	0xbb48364d	-0.0030549944
78	0xbd9db2fd	-0.07700155
79	0x3d3ccad1	0.04609186
80	0xbc44379a	-0.011976147
81	0xbd54fc82	-0.051998623
82	0x3d1f9032	0.038955875
83	0x3c3e1994	0.011602778
84	0xbdbf2708	-0.093336165
85	0x3d94b367	0.07260781
86	0xbd5abee4	-0.053404704
87	0x3c35309e	0.0110589545
88	0xbd1e0679	-0.03858039
89	0xbd8a3fd4	-0.067504555
90	0xbd893317	-0.06699198
91	0x3d7df2b9	0.061999056
92	0x3da44fd3	0.08023038
93	0xbd75d7c1	-0.060020212
94	0x3d03b516	0.03215512
95	0xbd4459d0	-0.047937214
96	0x3d26f920	0.040764928
97	0x3b262d0f	0.0025356447
98	0xbd9a7189	-0.07541186
99	0x3d05131f	0.03248894
100	0x3a998bb8	0.0011714613
101	0xbd80692f	-0.06270062
102	0xbda50d98	-0.080592334
103	0xbdb27ce6	-0.08715229
104	0xbd167de0	-0.036741138
105	0x3d3d4aeb	0.046214025
106	0x3d407506	0.046986602
107	0x3dbdd99f	0.092700236
108	0x3d5e48ad	0.054268528
109	0xbd61dde4	-0.055143252
110	0x3ba857c9	0.005137418
111	0x3d7349d2	0.059396572
112	0xbda3e536	-0.08002703
113	0xbc81d0c3	-0.015846616
114	0x3d960e95	0.07327
115	0x3d5e7569	0.05431119
116	0x3d430027	0.047607567
117	0xbcc631cf	-0.024193672
118	0xbda081d6	-0.07837264
119	0xbc4678c0	-0.01211375
120	0x3d94f751	0.07273734
121	0x3d898b30	0.06716001
122	0x3b9a2cd6	0.004705052
123	0x3d77d124	0.060502186
124	0x3cc04d78	0.02347444
125	0x3d623a61	0.055231456
126	0xbc82e091	-0.015976222
127	0xbcdeb7db	-0.027187278
128	0x3d1c08b7	0.03809425
129	0xbc9c5676	-0.019084197
130	0xbd673455	-0.056446392
131	0xbd9b51ff	-0.07583999
132	0x3c390037	0.011291555
133	0xbd733b38	-0.059382647
134	0x3c89f76e	0.016841616
135	0x3d8ce397	0.06879347
136	0xbd1a21c0	-0.037629843
137	0x3d7be610	0.0614987
138	0xbba9a0fd	-0.005176662
139	0x3cfbd7f0	0.030742615
140	0x3cc9ff53	0.02465788
141	0x3cf7b466	0.030237388
142	0x3c282ae2	0.01026413
143	0xbd878f9c	-0.06619188
144	0x3d8619a0	0.06547856
145	0x3cab6b20	0.020925105
146	0x3d1263fb	0.03573988
147	0xbdc3ee9c	-0.095669955
148	0x3bcdcbd6	0.0062804027
149	0xbc9b0dbc	-0.018927447
150	0x3dc2b5cd	0.09507332
151	0xbcbbcf49	-0.02292599
152	0xbd845e17	-0.06463259
153	0xbb29471b	-0.0025829736
154	0x3cb88cd7	0.022528095
155	0x3d210b0c	0.039317176
156	0x3d2c8a9a	0.04212437
157	0x3d91094e	0.07081853
158	0x3d3025cc	0.043004796
159	0x3afdc37d	0.0019360628
160	0xbd2e850d	-0.042607356
161	0xbdae6f16	-0.08517282
162	0xbd94d84e	-0.07267819
163	0xbd8e3b3a	-0.0694489
164	0xbd21c4a1	-0.03949416
165	0xbd8a37d3	-0.06748929
166	0x3c6e99aa	0.014563004
167	0x3d006417	0.031345453
168	0xbd47a5bb	-0.048742037
169	0x3c6823f9	0.014168733
170	0x3d129fa4	0.035796776
171	0xbda800b9	-0.08203263
172	0x3d5a6078	0.053314656
173	0xbc928e46	-0.017890107
174	0x3d856c46	0.06514792
175	0xbd17223f	-0.036897894
176	0x3bb01521	0.0053736125
177	0x3d90a1fe	0.070621476
178	0x3ca86294	0.020554818
179	0x39d98855	0.0004149104
180	0x3da466ea	0.08027442
181	0xbd8ce0ba	-0.06878801
182	0xbd677bb2	-0.05651445
183	0xbc8cd7a5	-0.017192671
184	0x3cf5e118	0.03001456
185	0x3ca22b7e	0.01979613
186	0xbd75e882	-0.06003619
187	0x3d8b3ea5	0.06799058
188	0xbd29a4b0	-0.041416824
189	0x3d9b95c9	0.075969286
190	0x3b8cda86	0.004298511
191	0xbd9c47a0	-0.07630849
192	0xbd31af8a	-0.043380298
193	0x3d468a14	0.048471525
194	0xbd7d7ee1	-0.06188858
195	0xbd52eeac	-0.051497146
196	0x3d91ff89	0.071288176
197	0x3ccbecf2	0.024893258
198	0x3d1521ad	0.03640907
199	0x3d1e5810	0.0386582
200	0x3d9b0b0d	0.07570467
201	0x3db32f9c	0.08749315
202	0xbdc40a7b	-0.095723115
203	0x3da0c716	0.07850473
204	0x3d8506f8	0.0649547
205	0xbccf26b9	-0.02528702
206	0x3d4591c8	0.04823473
207	0xbd579a16	-0.052637182
208	0xbc16285b	-0.009164895
209	0x3bd81d9f	0.006595328
210	0x3d98f6d3	0.07468953
211	0x3c9e31e8	0.019310907
212	0x3c79576f	0.0152186
213	0x3d78f34a	0.060778894
214	0xbdb65ae8	-0.08904058
215	0x3d41b93f	0.047295805
216	0xbc658f88	-0.014011271
217	0x3d9f75ab	0.07786115
218	0xbda81892	-0.082078114
219	0xbd0901a1	-0.03344882
220	0x3d7430da	0.0596169
221	0xbdb05281	-0.08609486
222	0x3d819a85	0.063283004
223	0xbd71e675	-0.05905767
224	0x3d947c79	0.07250304
225	0x3da6046a	0.08106311
226	0xbc9f7056	-0.019462746
227	0xbd963890	-0.07335007
228	0x3d1c974e	0.038230233
229	0xbd9396ab	-0.07206472
230	0x3d022a0e	0.031778388
231	0xbd5f26c5	-0.054480333
232	0x3dbb07e0	0.091323614
233	0xbd2f2881	-0.042763237
234	0xbc67ac81	-0.014140249
235	0x3d4c0ede	0.049818866
236	0x3d956179	0.07293982
237	0xbc2bd447	-0.010487623
238	0xbc065c13	-0.008200663
239	0x3b9431c3	0.0045225336
240	0xbcb8d5fe	-0.022562977
241	0x3c6d5177	0.014484755
242	0x3da0b301	0.07846642
243	0xbbf33eab	-0.007423242
244	0x3d8161ba	0.06317468
245	0x3ce48b22	0.027898375
246	0x3d9be55b	0.076121055
247	0x3da3e50c	0.080026716
248	0xbcfabbea	-0.030607183
249	0xbd94b050	-0.072601914
250	0x3d42f16e	0.047593527
251	0xbc6f22ab	-0.014595668
252	0x3d7500a4	0.059815064
253	0x3d3caa6b	0.04606096
254	0xbd2e5e0f	-0.04257017
255	0xbd812308	-0.0630551

lstm.bias_ih_l0_reverse f4 [512]
0	0xbd82d33c	-0.06387946
1	0x3c8fa839	0.01753627
2	0xbdae1e5a	-0.08501883
3	0xbd62176d	-0.05519812
4	0x3c8327c5	0.016010175
5	0xbca5619c	-0.020188145
6	0x3d453079	0.04814193
7	0x3c59e678	0.013299577
8	0xbd856cdd	-0.06514905
9	0xbd4944cf	-0.049137887
10	0xbd660cf3	-0.056164693
11	0x3d956280	0.07294178
12	0xbd89cb41	-0.06728221
13	0x3d6758e6	0.056481265
14	0x3d8a0173	0.06738558
15	0x3bc00bd4	0.005860785
16	0xbd14eb78	-0.036357373
17	0x3d3819eb	0.044946592
18	0x3d4cd2de	0.050005786
19	0x3d875126	0.06607275
20	0xbd077435	-0.033069808
21	0xbcaa2be0	-0.020772874
22	0xbb3e3dd2	-0.0029028547
23	0x3d922124	0.07135227
24	0xbcfc42a8	-0.030793503
25	0xbd80ebca	-0.06294973
26	0xbd84cf12	-0.06484808
27	0xbcaec6c0	-0.021335006
28	0xbd961d0f	-0.07329761
29	0x3d58c254	0.0529197
30	0xbcce68d3	-0.025196468
31	0x3d22a920	0.03971207
32	0xbdb31d03	-0.08745768
33	0xbd72e983	-0.059304725
34	0xbd840499	-0.064461894
35	0xbda568e8	-0.0807665
36	0x3d8e8202	0.06958391
37	0x3cb99deb	0.022658309
38	0xbda63647	-0.08115821
39	0xbd9d3e81	-0.07677937
40	0x3ca72691	0.020404132
41	0x3d762c1b	0.060100656
42	0xbd7b6a16	-0.06138047
43	0xbc555ef2	-0.013023125
44	0x3d28d31b	0.04121695
45	0x3d771517	0.060322847
46	0x3d9b9c54	0.075981766
47	0x3caa279a	0.020770837
48	0xbc5273bc	-0.012844976
49	0xbc778ba1	-0.015108974
50	0xbd8c7f71	-0.06860245
51	0xbd3a7277	-0.04551932
52	0xbcadd104	-0.02121783
53	0x3d47027c	0.048586354
54	0xbc031d42	-0.008002581
55	0x3bbceab6	0.0057652844
56	0x3d31ea91	0.04343659
57	0xbd5eee7d	-0.05442666
58	0xbca541eb	-0.020173034
59	0x3d34638f	0.04404026
60	0x3db5464e	0.088513
61	0xbd9b3d54	-0.07580057
62	0xbd9eaa5a	-0.07747336
63	0xbd8d873b	-0.06910559
64	0x3cc07d01	0.023497107
65	0x3abc45b1	0.0014364031
66	0xbd99b9ee	-0.075061664
67	0x3d93c90a	0.072160795
68	0xbcaa967b	-0.020823708
69	0x3cb1b4b6	0.021692615
70	0x3d92a6f0	0.07160747
71	0x3d585262	0.05281294
72	0x3d93834d	0.07202778
73	0x3d6c8ab7	0.057749476
74	0xbca857ca	-0.020549674
75	0x3d98fff1	0.07470692
76	0x3cde2b02	0.027120117
77	0x3bb35d6d	0.0054737837
78	0xbb39c16f	-0.0028344055
79	0x3cb0d4c8	0.021585837
80	0x3d4817aa	0.048850693
81	0x3d50d623	0.050985467
82	0x3d26f96c	0.04076521
83	0x3c1f87c9	0.009736964
84	0xbc7ccec6	-0.015430158
85	0x3c68af96	0.014202019
86	0x3c3993dd	0.011326757
87	0x3d13c36a	0.036075033
88	0x3c3ebb16	0.011641284
89	0x3bc1a608	0.005909685
90	0xbd96e314	-0.073675305
91	0x3d942ff4	0.07235709
92	0xbd118fce	-0.035537533
93	0x3d00aec7	0.03141668
94	0xbcbe8fc8	-0.02326192
95	0xbd0a6a48	-0.033792764
96	0x3d959b8e	0.0730506
97	0x3c61183e	0.01373869
98	0xbcabaca7	-0.02095635
99	0xbd997b00	-0.074941635
100	0xbda8c274	-0.08240214
101	0xbd349cbd	-0.04409479
102	0xbd24c17e	-0.04022359
103	0x3db4aef2	0.08822431
104	0xbd1c0d7c	-0.038098797
105	0xbc352c53	-0.011057931
106	0xbda5bb42	-0.08092357
107	0x3d12e4b5	0.035862643
108	0xbc3ea9c8	-0.011637159
109	0x3c20b51b	0.009808804
110	0xbd871819	-0.06596393
111	0xbdb55c03	-0.088554405
112	0x3d038450	0.032108605
113	0xbd001c49	-0.031276975
114	0xbd557a69	-0.052118693
115	0x3be3925e	0.0069449386
116	0xbc0efe93	-0.008727687
117	0xbce72f2e	-0.02822074
118	0xbd62218e	-0.05520778
119	0xbc680b56	-0.014162859
120	0xbd07303c	-0.033004984
121	0xbda45c8d	-0.08025465
122	0xbd64c27e	-0.055849545
123	0x3c3dc65a	0.011582935
124	0x3bbca753	0.0057572513
125	0x3d3980f8	0.04528901
126	0x3d9faaf8	0.077962816
127	0xbcc8d17b	-0.02451395
128	0xbd8f21bd	-0.06988857
129	0xbcd10495	-0.02551488
130	0xbd7cdc91	-0.061733786
131	0xbc07adf1	-0.008281217
132	0x3ccb2de4	0.024802156
133	0x3dadb4fc	0.08481786
134	0xbd2256c4	-0.039633527
135	0xbdb5efc2	-0.08883621
136	0xbc10875b	-0.008821334
137	0x3c499009	0.012302407
138	0x3d52e049	0.051483426
139	0xbbff199a	-0.0077850344
140	0xbdb69226	-0.08914594
141	0xbc97081a	-0.01843648
142	0xbd86d638	-0.06583828
143	0xbb105003	-0.0022020347
144	0x3c9ea257	0.019364519
145	0x3b631e08	0.0034655351
146	0xbdba9a5a	-0.091114715
147	0xbcbd6950	-0.023121506
148	0x3d7d47a3	0.061835896
149	0xbb5e189a	-0.0033889175
150	0xbc8768f6	-0.016529541
151	0x386edcf5	5.6949404e-05
152	0xbce781de	-0.028260168
153	0xbcb634b5	-0.02224193
154	0x3c9799dd	0.018505985
155	0x3ca9e9bd	0.020741338
156	0xbcdac4ac	-0.026705109
157	0xba7ae811	-0.0009571324
158	0x3da28907	0.07936292
159	0xb46dc61e	-2.214442e-07
160	0x3d72bd6f	0.05926269
161	0xbd697de2	-0.057004817
162	0xbd6b36ad	-0.05742519
163	0xbca4f71b	-0.02013736
164	0x3d4222bc	0.047396407
165	0xbc53c6eb	-0.012925844
166	0x3dac9e97	0.08428686
167	0xbcefca09	-0.029271143
168	0xbd4498ac	-0.04799716
169	0x3d920b8e	0.0713111
170	0x3d9e7e3c	0.07738921
171	0x3d19e280	0.037569523
172	0xbd8cee20	-0.06881356
173	0x3cb82562	0.022478763
174	0x3cf2b176	0.029625636
175	0xbd9c1aeb	-0.07622322
176	0x3c1a593e	0.009420691
177	0xbdb4925a	-0.08816977
178	0x3ca50c23	0.020147389
179	0xbd887e0c	-0.066646665
180	0x3bd56320	0.0065120608
181	0x3d0266a9	0.031836186
182	0xbc98752f	-0.018610565
183	0x3d25d35b	0.040484767
184	0xbda1268f	-0.078686826
185	0xbdaa9b2e	-0.083303794
186	0x3d6bc9b1	0.057565395
187	0xbdaebdf8	-0.085323274
188	0x3d53dee2	0.05172623
189	0xbd5d4160	-0.054017425
190	0x3d8026ec	0.06257424
191	0x3d61dc19	0.055141542
192	0xbd9e8b8a	-0.07741459
193	0xbcdcf5e6	-0.026972722
194	0xbcf59fd9	-0.029983448
195	0x3c6d8004	0.014495853
196	0xbca36eb8	-0.019950256
197	0xbc241a74	-0.010016073
198	0xbd07b538	-0.033131808
199	0x3db1da5d	0.086842276
200	0xbd849ebf	-0.06475591
201	0xbccaf23f	-0.024773715
202	0xbdbe9b4a	-0.09306963
203	0xbd44f930	-0.048089206
204	0x3d53d4e8	0.051716715
205	0xbcd2d73f	-0.025737403
206	0xbd87e3cb	-0.06635245
207	0xbda6f51b	-0.08152219
208	0xbdce307b	-0.10067841
209	0x3d9c2a59	0.07625265
210	0xbd98b298	-0.07455939
211	0xbd068a0d	-0.0328465
212	0xbd8829e4	-0.06648615
213	0x3bec55f0	0.007212393
214	0x3d3415eb	0.043966215
215	0xbd6a14dc	-0.0571488
216	0x3dab3e20	0.08361459
217	0x3d6080b4	0.05481024
218	0x3ca181f1	0.019715281
219	0x3d4a0214	0.049318388
220	0xbb8ea8fe	-0.0043536415
221	0xbdaced83	-0.08443739
222	0xbc80485d	-0.015659506
223	0xbd5d8862	-0.054085143
224	0xbd2263c5	-0.03964593
225	0xbd838734	-0.06422272
226	0x3d8ad976	0.06779759
227	0x3d4b07f0	0.049568117
228	0xbd60a711	-0.054846827
229	0x3c2ebe97	0.010665557
230	0x3d8ee225	0.069767274
231	0xbb807f37	-0.003921415
232	0xbda4d3ad	-0.080481865
233	0x3d3550f0	0.04426664
234	0xbd8dd38b	-0.06925114
235	0x3d875831	0.06608618
236	0xbd04a18a	-0.03238062
237	0x3d964594	0.0733749
238	0x3cc3086b	0.023807725
239	0x3bd52d3b	0.006505636
240	0xbd560b42	-0.05225683
241	0x3d9a2bc8	0.07527882
242	0x3d6a80b8	0.057251662
243	0x3cc68af1	0.024236174
244	0xbd587544	-0.05284621
245	0xbd360c27	-0.044445183
246	0xbd54a17b	-0.051911812
247	0x3d8af9d5	0.06785933
248	0x3d6a03d5	0.05713256
249	0xbd374023	-0.0447389
250	0xbc6d6c38	-0.014491133
251	0x3abf8f0b	0.0014614774
252	0x3d77afc8	0.060470372
253	0xbd6005f6	-0.054693185
254	0xbccddff0	-0.025131196
255	0x3b952ced	0.0045524747
