runs_tsgenad/gen.pt (torch, 828791 bytes, 12 tensors)

lstm.weight_ih_l0 f4 [512, 37]
0.055699117 0.07409807 -0.06735031 0.0589199 0.042846344 0.0007272661 -0.06743904 -0.054565605
0.05575923 0.030335605 0.016958438 0.0045704693 0.03315086 0.018447451 -0.081593916 -0.06865674
-0.061464634 0.0640393 0.08194723 0.01983004 0.0024340823 -0.050939355 0.07344022 -0.05339274
-0.056824856 -0.06848377 0.022999406 0.05051764 0.07611028 0.019550279 0.025574937 0.042712264
-0.051877774 0.023654953 0.033650316 0.08401742 -0.033371832 -0.059615072 -0.05432212 0.034073707
-0.022974093 -0.029077647 -0.04731246 -0.006636927 0.07277602 0.018379318 -0.037938636 -0.031622466
0.08362634 -0.035704955 0.019518528 -0.0727308 0.08813029 -0.042868868 -0.05858367 0.07629971
-0.026713092 0.050010905 -0.0027857183 -0.04483535 -0.06305136 -0.07432863 -0.073899314 -0.037986033
-0.006179743 0.03363044 0.08072601 0.021785747 -0.055379078 0.006161617 0.03688397 0.09675855
-0.028013306 0.034609795 0.08832397 -0.032488707 -0.026183307 -0.0064319074 0.037580468 0.069812424
-0.035580136 0.055411555 -0.034035664 -0.0168427 -0.0072077885 -0.038402457 -0.058710136 -0.08654868
-0.033922777 0.047823675 -0.07650295 -0.013704002 0.010020591 0.008983284 -0.05584646 0.013934493
-0.017187886 -0.033689555 -0.009296447 -0.08698329 0.048624672 0.033619203 -0.08710415 -0.018446475
0.024223268 0.0775039 -0.080104835 0.024025343 0.04662942 0.086043335 0.053675555 0.04203593
-0.016853407 0.06450797 -0.033208575 0.0542664 -0.08696977 0.021282539 0.028881833 0.06415706
-0.04950498 -0.07142614 0.08277 0.06779321 -0.068211146 0.05824501 -0.07348365 -0.012250192
0.08578003 -0.07526742 -0.06726901 0.05227869 -0.012475006 -0.000121191144 -0.012471728 -0.04556638
0.05783958 -0.028625011 0.0324673 0.013406798 0.08503806 -0.007326089 0.0290118 -0.01731094
-0.06884911 0.030914262 -0.06633854 0.036811374 0.0055972594 0.013775216 -0.06863248 0.049294796
-0.06323277 0.04890168 0.040722784 0.030341556 -0.03624117 -0.085957214 -0.05104328 0.061863057
-0.0022965295 -0.08624228 -0.022231331 -0.05531432 -0.04682209 -0.03557609 -0.06782336 -0.087554745
0.07428788 -0.08724882 -0.0641783 -0.0066111013 0.029886926 0.05288046 0.026925795 0.029133206
-0.050191358 -0.0420278 0.06361937 -0.0191021 -0.09549041 0.044043504 -0.013157137 -0.09191523
-0.033285666 -0.061156444 -0.075743765 0.062327974 -0.0457101 0.07851439 0.08370908 -0.012616597
0.05777771 -0.066914 -0.02063439 -0.05866605 0.03663943 0.004384123 -0.07628994 -0.036125727
-0.02715296 0.0863272 0.031117156 -0.058857054 -0.0077766106 0.06505468 -0.016984686 -0.00023274869
0.059784837 0.04017774 0.06850093 -0.018203929 -0.055538956 -0.026534084 0.048740126 -0.021937653
0.06418886 0.0045464337 -0.04946093 0.057657026 0.012785412 -0.038990565 -0.044116274 -0.022599459
0.009756409 -0.0409947 0.077780925 0.08456487 0.049639814 -0.041792117 -0.073291734 -0.02937987
-0.046224397 0.05936178 -0.052927915 0.009653747 0.042402335 0.005376287 -0.06010072 0.039021857
-0.083032526 -0.06582595 -0.08230102 -0.03913183 -0.047811225 -0.075154595 0.029849127 -0.05680056
0.017753266 0.07228591 0.00713785 -0.04693809 -0.05687835 0.016095325 0.07024791 0.0015288889
00000000: c224 643d bbc0 973d f6ee 89bd fe55 713d
00000010: a67f 2f3d 00a6 3e3a 7b1d 8abd 2f80 5fbd
00000020: ca63 643d 6082 f83c 6cec 8a3c e0c3 953b
00000030: 32c9 073d 1c1f 973c b61a a7bd e89b 8cbd
00000040: 57c2 7bbd 0927 833d f3d3 a73d 9c72 a23c
00000050: 2085 1f3b c9a5 50bd d367 963d 59b2 5abd
00000060: 2ec1 68bd 3841 8cbd 4069 bc3c 96eb 4e3d
00000070: b5df 9b3d e827 a03c 8882 d13c 0ef3 2e3d
00000080: ca7d 54bd 08c8 c13c ead4 093d 5311 ac3d
00000090: e7b0 08bd ef2e 74bd df80 5ebd df90 0b3d
000000a0: 2a34 bcbc 3f34 eebc b6ca 41bd 947a d9bb
000000b0: 980b 953d 3990 963c 8b65 1bbd 8f86 01bd
000000c0: 4944 ab3d 5c3f 12bd 52e5 9f3c e3f3 94bd
000000d0: a77d b43d 4497 2fbd 6ef5 6fbd 0643 9c3d
000000e0: 6ad5 dabc 3cd8 4c3d 9990 36bb 46a5 37bd
000000f0: 1221 81bd 9c39 98bd 8658 97bd 3e97 1bbd
00000100: 717f cabb 12c0 093d ae53 a53d 0678 b23c
00000110: 2cd5 62bd 64e7 c93b a513 173d 5929 c63d
00000120: 297c e5bc 00c3 0d3d 33e3 b43d e112 05bd
00000130: 607e d6bc c0c2 d2bb faed 193d d1f9 8e3d
00000140: 7abc 11bd 3af7 623d fb68 0bbd b4f9 89bc
00000150: 502f ecbb e54b 1dbd 0a7a 70bd 6f40 b1bd
00000160: 9cf2 0abd c2e2 433d 94ad 9cbd c086 60bc
00000170: 682d 243c a02e 133c 42bf 64bd 804d 643c
00000180: 9ccd 8cbc 0ffe 09bd 2050 18bc 4c24 b2bd
00000190: aa2a 473d 4ab4 093d a963 b2bd 101d 97bc
000001a0: e06f c63c 5dba 9e3d 010e a4bd ccd0 c43c
000001b0: 7efe 3e3d 7d37 b03d e6da 5b3d de2d 2c3d
000001c0: 2810 8abc c11c 843d b705 08bd 7246 5e3d
000001d0: 351d b2bd b858 ae3c 9899 ec3c c764 833d
000001e0: bcc5 4abd de47 92bd 5183 a93d 2bd7 8a3d
000001f0: 49b2 8bbd 5292 6e3d 997e 96bd 08b5 48bc
00000200: 71ad af3d ce25 9abd 56c4 89bd 2e22 563d
00000210: f863 4cbc 0028 feb8 3856 4cbc d0a3 3abd
00000220: 32e9 6c3d 007f eabc 6efc 043d 30a8 5b3c
00000230: 6f28 ae3d b00f f0bb 28aa ed3c accf 8dbc
00000240: c300 8dbd e83f fd3c 80dc 87bd 86c7 163d
00000250: 3769 b73b 72b1 613c 308f 8cbd 57e9 493d
00000260: 2f80 81bd 214d 483d efcc 263d db8e f83c
00000270: 9f71 14bd 560a b0bd c212 51bd 1e64 7d3d
00000280: 5f81 16bb cb9f b0bd 7b1e b6bc 4591 62bd
00000290: 85c8 3fbd 3cb8 11bd f9e6 8abd e74f b3bd
000002a0: 3e24 983d 82af b2bd ea6f 83bd f0a1 d8bb
000002b0: 6dd5 f43c 2e99 583d 7c93 dc3c c3a8 ee3c
000002c0: 7495 4dbd 5825 2cbd df4a 823d 027c 9cbc
000002d0: 7a90 c3bd f666 343d 0891 57bc 0d3e bcbd
000002e0: 8d56 08bd 2e7f 7abd 8c1f 9bbd 9e4b 7f3d
000002f0: 843a 3bbd 27cc a03d ab6f ab3d d8b5 4ebc
00000300: 52a8 6c3d 350a 89bd 7409 a9bc d04b 70bd
00000310: 3a13 163d b0a8 8f3b e63d 9cbd 92f8 13bd
00000320: e26f debc 51cc b03d 68e9 fe3c 1814 71bd
00000330: f0d2 febb 633b 853d 7823 8bbc 000e 74b9
00000340: f2e0 743d 6a91 243d 374a 8c3d 6820 95bc
00000350: d17c 63bd 025e d9bc baa3 473d 98b6 b3bc
00000360: 7375 833d 40fa 943b 8b97 4abd c629 6c3d
00000370: e879 513c 92b4 1fbd 44b3 34bd 8022 b9bc
00000380: 58d9 1f3c 0fea 27bd 9b4b 9f3d 5930 ad3d
00000390: 1e53 4b3d 362e 2bbd fa19 96bd 0eae f0bc
000003a0: cb55 3dbd 5625 733d f1ca 58bd c02a 1e3c
000003b0: 12ae 2d3d 902b b03b 2c2c 76bd 62d5 1f3d
000003c0: f50c aabd c1cf 86bd 708d a8bd b348 20bd
000003d0: b4d5 43bd a7ea 99bd 2886 f43c b4a7 68bd
000003e0: 4c6f 913c a30a 943d a0e4 e93b 2842 40bd
000003f0: 46f9 68bd 58da 833c 23de 8f3d 0065 c83a

lstm.weight_hh_l0 f4 [512, 128]
-0.0033959225 0.0023356974 -0.06788445 -0.07861974 -0.08471586 0.077305175 -0.04871654 0.007930681
0.07542571 0.0566322 0.0382218 -0.00043019652 0.06741501 0.07035125 -0.012512885 0.08269354
0.05103021 0.019099332 0.066178344 0.08505685 -0.04432153 0.05816061 -0.003947966 -0.03171762
-0.04473655 0.061886527 0.048351713 0.087504305 -0.065178216 0.028528474 -0.047957685 0.001949355
-0.05501468 0.067672916 0.036731012 -0.041630022 -0.06424739 0.033877544 -0.07868535 -0.032916225
-0.07700312 -0.08030987 -0.085857965 0.077470325 0.057652213 0.033125766 -0.068373136 -0.0848272
-0.055341013 0.019362748 -0.07699238 0.04290279 -0.062139194 -0.021236688 -0.08710618 -0.047112916
-0.029757183 0.024462976 0.055570982 -0.08150628 0.053498857 0.026811622 -0.00012336671 -0.059071347
-0.006016664 0.021784127 -0.045486733 0.0057727396 -0.0751124 -0.03359875 0.055955775 -0.08523315
0.024731845 0.017315708 0.03166636 -0.02067209 -0.061920725 0.048458166 0.057785667 -0.084093206
0.002859734 0.030786611 -0.03223803 -0.028602686 0.07351153 -0.0069932267 0.030804291 -0.045194224
-0.029876385 -0.05880534 -0.06956364 0.07776188 -0.071704865 -0.022677615 0.044030808 0.039892294
-0.041275725 -0.071020074 -0.04153948 -0.053155277 -0.03581496 0.018194467 -0.004123844 0.07190291
-0.017109588 -0.031574648 -0.01684273 0.036436595 0.026993372 0.056963973 0.033802785 -0.027458671
0.0007813722 -0.0071185604 -0.06405246 -0.027727433 0.03537661 -0.078828305 0.04233826 -0.08320614
0.036433302 0.085743986 -0.06259485 -0.021708779 0.043273456 0.020671852 -0.053234365 -0.05686534
0.04674936 -0.07674334 0.07036341 0.036385518 0.026012892 0.047221355 -0.046698116 -0.02720229
-0.0876972 0.027542077 -0.033496484 0.0753429 -0.021281714 -0.07962257 0.0077757873 -0.066215836
-0.07734246 0.0879097 0.03437844 -0.00034870207 0.08434405 0.08120682 0.048562847 0.095170245
0.0586866 -0.029049367 0.08568854 0.03422524 -0.07662078 0.03781659 0.079691626 -0.021919638
0.024752313 -0.002535753 0.08616953 0.046522 -0.050623905 -0.044869095 -0.08375764 0.037248798
0.06318213 0.08467053 -0.068701185 0.030894512 -0.040787507 -0.0044568907 0.07955498 -0.04668167
-0.01308848 -0.061913595 -0.023994038 -0.064699486 0.013175294 0.02638244 0.06569356 0.08084572
-0.008576788 -0.07422308 -0.044771098 0.030246811 -0.08303035 0.086228326 -0.0665127 0.01452544
-0.07119578 -0.03426424 -0.084646866 -0.07348579 0.03012474 -0.0675494 0.013227619 0.017735733
-0.06024227 -0.06842026 -0.06476998 -0.02725431 0.07396076 0.053346943 -0.04792057 -0.015461832
0.056720622 -0.008927921 0.06607501 -0.042553853 -0.08172352 -0.020850249 0.042148795 -0.028782878
-0.02783837 -0.01909998 0.047326025 0.052889027 -0.035178933 0.06465257 0.009380695 -0.07481233
0.04934992 -0.07229558 0.022538818 0.05911737 -0.028480016 -0.089601025 0.08733223 -0.015961407
-0.057375956 0.0476224 0.07824331 -0.0012551259 -0.053143837 -0.048881114 -0.0331753 0.0032795817
-0.056153465 0.06654149 0.08265049 -0.02607439 0.000268057 0.06661298 0.06876651 0.06667571
-0.041420583 0.067527935 -0.052425984 -0.039089806 -0.03877551 -0.06625366 0.050743453 0.036112007
00000000: 208e 5ebb 8012 193b 0107 8bbd 6303 a1bd
00000010: 827f adbd 2d52 9e3d ff8a 47bd b0ef 013c
00000020: cb78 9a3d 2af7 673d 768e 1c3d 008c e1b9
00000030: e110 8a3d 5114 903d d802 4dbc 3b5b a93d
00000040: 0e05 513d 3476 9c3c 8388 873d 4932 ae3d
00000050: 7e8a 35bd d239 6e3d f05d 81bb 56ea 01bd
00000060: ac3d 37bd ba7c 7d3d 720c 463d 7535 b33d
00000070: 287c 85bd 8cb4 e93c 476f 44bd 8081 ff3a
00000080: 1357 61bd 1998 8a3d 4273 163d 3e84 2abd
00000090: 2394 83bd 2ec3 0a3d c925 a1bd 2ad3 06bd
000000a0: d0b3 9dbd 8079 a4bd 4dd6 afbd c3a8 9e3d
000000b0: ba24 6c3d e2ae 073d 3707 8cbd e2b9 adbd
000000c0: 42ad 62bd a09e 9e3c 2eae 9dbd d6ba 2f3d
000000d0: ab85 7ebd 90f8 adbc ba64 b2bd 79f9 40bd
000000e0: 56c5 f3bc 9466 c83c 669e 633d c4ec a6bd
000000f0: 9e21 5b3d 0ca4 db3c 005c 01b9 ccf4 71bd
00000100: 7027 c5bb a074 b23c 4c50 3abd 4029 bd3b
00000110: 88d4 99bd d89e 09bd e231 653d b88e aebd
00000120: 709a ca3c acd9 8d3c 96b4 013d 8458 a9bc
00000130: 96a0 7dbd 127c 463d aab0 6c3d 0f39 acbd
00000140: 606a 3b3b 3434 fc3c 060c 04bd 2e50 eabc
00000150: 378d 963d 7027 e5bb 4859 fc3c 941d 39bd
00000160: 52bf f4bc dedd 70bd 6277 8ebd 9f41 9f3d
00000170: 00da 92bd 68c6 b9bc a659 343d 1a66 233d
00000180: bc10 29bd f972 91bd 4d25 2abd 59b9 59bd
00000190: b5b2 12bd 900c 953c 5021 87bb d541 933d
000001a0: 6829 8cbc 6b54 01bd c4f9 89bc 8a3e 153d
000001b0: 3421 dd3c 0e53 693d ca74 0a3d 02f1 e0bc
000001c0: 00d5 4c3a d042 e9bb f02d 83bd a424 e3bc
000001d0: 10e7 103d bc70 a1bd e26a 2d3d fb67 aabd
000001e0: 163b 153d 8b9a af3d bb31 80bd 9cd6 b1bc
000001f0: 823f 313d 0458 a93c 470c 5abd a1eb 68bd
00000200: 427c 3f3d 9d2b 9dbd b11a 903d fb08 153d
00000210: fd18 d53c 2e6b 413d 8646 3fbd 56d7 debc
00000220: 979a b3bd ec9f e13c 9c33 09bd 614d 9a3d
00000230: fd56 aebc 2811 a3bd 08cc fe3b 2b9c 87bd
00000240: b965 9ebd 000a b43d 68d0 0c3d 00d2 b6b9
00000250: 93bc ac3d c34f a63d d6e9 463d 9ee8 c23d
00000260: 5c61 703d f0f8 edbc 797d af3d c42f 0c3d
00000270: 5beb 9cbd 92e5 1a3d 5d35 a33d d090 b3bc
00000280: 5dc5 ca3c e02e 26bb a779 b03d da8d 3e3d
00000290: 035b 4fbd a8c8 37bd 2089 abbd 3292 183d
000002a0: a265 813d be67 ad3d 35b3 8cbd 7d16 fd3c
000002b0: cd10 27bd 1c0b 92bb b9ed a23d 4735 3fbd
000002c0: 1071 56bc 1c99 7dbd 258f c4bc 2a81 84bd
000002d0: 30dd 573c fd1f d83c 588a 863d 7192 a53d
000002e0: a885 0cbc 4502 98bd e661 37bd 29c8 f73c
000002f0: d10b aabd 7a98 b03d cf37 88bd 1cfc 6d3c
00000300: 18cf 91bd a958 0cbd 565b adbd b87f 96bd
00000310: 29c8 f63c 5757 8abd a8b8 583c 874a 913c
00000320: 99c0 76bd ec1f 8cbd 20a6 84bd 6e44 dfbc
00000330: bd78 973d 5382 5a3d 5c48 44bd a053 7dbc
00000340: e253 683d 6a46 12bc 5652 873d f34c 2ebd
00000350: a95e a7bd 24ce aabc 37a4 2c3d 12ca ebbc
00000360: 4b0d e4bc 9077 9cbc efd8 413d 2aa2 583d
00000370: c917 10bd 9168 843d 7db1 193c 3537 99bd
00000380: 2423 4a3d b40f 94bd 54a3 b83c 0e25 723d
00000390: ec4e e9bc be80 b7bd 3ddb b23d 7fc1 82bc
000003a0: 0d03 6bbd b50f 433d 073e a03d 0983 a4ba
000003b0: 5aad 59bd 9037 48bd d3e2 07bd 40ee 563b
000003c0: 2d01 66bd e846 883d a944 a93d f699 d5bc
000003d0: 008a 8c39 636c 883d 75d5 8c3d 468d 883d
000003e0: a1a8 29bd 164c 8a3d a1bc 56bd a21c 20bd
000003f0: 12d3 1ebd 00b0 87bd 5ed8 4f3d 2fea 133d

lstm.bias_ih_l0 f4 [512]
-0.047322027 0.044380795 0.026188925 0.083543666 -0.06982311 0.001145348 -0.02590102 0.059035517
-0.081989355 -0.086591646 -0.007920927 0.06608272 0.041155256 -0.007460803 -0.008062802 0.041940864
0.0035384246 -0.020106727 0.013883494 0.0073316023 0.07642136 -0.009224772 -0.042072374 -0.07761195
0.008834653 -0.038881235 0.012975864 0.047356345 0.06204652 0.04348223 0.04675638 0.06790585
0.0057913535 0.034802973 0.08125324 0.012527265 0.05921381 0.07045082 -0.027296174 0.01743874
-0.07255767 0.028589372 -0.07299207 -0.022843435 -0.068910435 0.034283374 0.002900079 -0.0042123124
-0.037363846 -0.065585434 0.028812446 -0.001499109 0.04170478 -0.04977947 0.095390625 0.05235102
-0.02253145 -0.009210185 -0.09237715 -0.026935035 -0.025818367 0.0824167 -0.045789495 0.057011884
-0.008898271 -0.07136316 0.078158386 0.058981217 -0.0690737 0.04632115 0.08262239 0.07711668
-0.053941075 -0.0054769516 -0.017223656 0.038883816 0.014781356 0.05994745 -0.072760075 -0.06345779
-0.0430802 -0.05981703 0.02218656 0.0842034 0.060698904 -0.05250437 0.052188102 -0.027702881
-0.059804384 -0.07525413 -0.07786727 -0.08402989 -0.038327336 0.019236192 -0.07446668 -0.029638888
0.025167575 -0.083122514 -0.012559034 0.020331152 -0.051538303 -0.04012404 0.062850714 0.026035048
0.06682303 -0.024827443 0.008572973 0.06768837 0.0869505 0.046599887 -0.008238174 -0.0646625
0.054576896 0.059654973 -0.06307997 -0.049117785 0.04393273 0.0504509 -0.0873032 -0.0214637
0.016073236 -0.038023937 -0.053881064 -0.033152256 0.05976007 0.0071036965 -0.047114264 0.048030052
0.037130542 -0.0031925463 -0.01930739 0.08461515 -0.076819636 0.052699663 -0.08530575 -0.022977035
0.035200164 0.066137426 0.053377323 -0.050232995 0.025165714 -0.03910143 0.04896774 0.11257906
0.010790308 0.07782116 -0.0024506822 -0.04887416 -0.030941635 0.028807066 -0.06919739 -0.07063126
0.035128325 0.07928414 -0.044561725 -0.036848314 -0.06075959 0.08685484 -0.074780025 -0.06429142
0.0006590553 0.03807927 -0.03599282 0.025700063 0.05897727 0.032330718 0.027692437 0.00055568665
0.086971484 0.09421257 0.005086027 0.08085156 0.018462332 0.10807547 0.048471175 -0.018856596
-0.016772896 0.010927111 -0.03618522 0.087304436 0.028838128 0.046759322 0.043216545 -0.072409086
0.008691229 -0.0032579189 -0.057964236 -0.058256358 -0.020879095 -0.07041209 0.0475842 0.017700613
0.052715164 -0.00086409366 -0.04641553 0.052510828 -0.088365346 0.04943361 -0.045558352 0.09986465
-0.07510796 -0.018737108 -0.008182466 0.048397776 0.011711657 -0.070103854 0.07432802 -0.006330572
0.081394695 0.05382657 0.045736916 -0.010975802 -0.00319615 -0.025622934 -0.060820937 0.013655298
0.122571506 0.028162912 0.077737935 0.06527128 0.07127112 -0.0071599125 -0.06018631 0.08435439
-0.014692135 0.031195572 0.047934126 0.083595105 -0.0011748299 -0.0021320323 -0.038805645 0.015436217
-0.08671018 0.0023203143 0.009219833 -0.023593329 -0.0029650703 0.07855802 0.018305346 -0.020494372
-0.004046075 -0.07232649 0.069142245 -0.07306554 -0.046195697 -0.014497019 0.0070164353 -0.016424112
-0.037857383 0.028392375 -0.08155709 0.03143857 0.028850041 -0.051734705 0.039861508 -0.044001468
00000000: bed4 41bd a3c8 353d 288a d63c f118 ab3d
00000010: 6bff 8ebd 801f 963a 602e d4bc 3acf 713d
00000020: 09ea a7bd f656 b1bd c7c6 01bc 6156 873d
00000030: 6a92 283d c079 f4bb d819 04bc 2fca 2b3d
00000040: eae4 673b ddb6 a4bc 9877 633c f03d f03b
00000050: cd82 9c3d 8023 17bc 1554 2cbd 04f3 9ebd
00000060: 38bf 103c ee41 1fbd b898 543c baf8 413d
00000070: 7e24 7e3d 6c1a 323d 9e83 3f3d 3912 8b3d
00000080: 65c5 bd3b 908d 0e3d 1968 a63d 283f 4d3c
00000090: 2e8a 723d 8548 903d 3a9c dfbc b0db 8e3c
000000a0: 1e99 94bd 4234 ea3c de7c 95bd 2822 bbbc
000000b0: ea20 8dbd b96c 0c3d 400f 3e3b 7007 8abb
000000c0: d50a 19bd a851 86bd 1408 ec3c c07d c4ba
000000d0: a2d2 2a3d 8fe5 4bbd 295c c33d 066e 563d
000000e0: e093 b8bc 51e6 16bc 3b30 bdbd dda6 dcbc
000000f0: 0a81 d3bc 16ca a83d c48d 3bbd 4b85 693d
00000100: 0eca 11bc d926 92bd 8111 a03d 4a96 713d
00000110: 8376 8dbd 3fbb 3d3d ed35 a93d 5aef 9d3d
00000120: 51f1 5cbd 0078 b3bb a018 8dbc a344 1f3d
00000130: 802d 723c 758b 753d 3c03 95bd 28f6 81bd
00000140: dd74 30bd b402 75bd 97c0 b53c d572 ac3d
00000150: 6a9f 783d d30e 57bd 31c3 553d 27f1 e2bc
00000160: 71f5 74bd d61e 9abd e078 9fbd dd17 acbd
00000170: 20fd 1cbd 3895 9d3c fd81 98bd 41cd f2bc
00000180: 3b2c ce3c 233c aabd 68c4 4dbc 848d a63c
00000190: d419 53bd 1b59 24bd e0b7 803d 7447 d53c
000001a0: 83da 883d ec62 cbbc a875 0c3c 33a0 8a3d
000001b0: 1b13 b23d 86df 3e3d 68f9 06bc c66d 84bd
000001c0: 068c 5f3d c658 743d 1230 81bd bb2f 49bd
000001d0: cef2 333d 9aa5 4e3d 05cc b2bd a4d4 afbc
000001e0: 05ac 833c fdbe 1bbd 64b2 5cbd a9ca 07bd
000001f0: fac6 743d 20c6 e83b e3fa 40bd 29bb 443d
00000200: 3216 183d 0a3a 51bb 882a 9ebc b54a ad3d
00000210: 9d53 9dbd 9adb 573d c8b4 aebd 563a bcbc
00000220: 0c2e 103d 0f73 873d 2ea2 5a3d 1dc1 4dbd
00000230: 5428 ce3c d228 20bd 6692 483d da8f e63d
00000240: d5c9 303c b360 9f3d a09b 20bb 4530 48bd
00000250: 5079 fdbc ccfc eb3c 5cb7 8dbd 1fa7 90bd
00000260: b8e2 0f3d b95f a23d 5b86 36bd 42ee 16bd
00000270: 0cdf 78bd f3e0 b13d 4526 99bd 38ab 83bd
00000280: 74c4 2c3a 02f9 1b3d 356d 13bd f088 d23c
00000290: 2692 713d 376d 043d 40db e23c 80ab 113a
000002a0: 1b1e b23d 85f2 c03d b0a8 a63b 8195 a53d
000002b0: 513e 973c ac56 dd3d b689 463d 2679 9abc
000002c0: 5067 89bc a007 333c f436 14bd abcc b23d
000002d0: f03d ec3c b486 3f3d d503 313d 374b 94bd
000002e0: a865 0e3c cf82 55bb e86b 6dbd 389e 6ebd
000002f0: a30a abbc 3734 90bd a6e7 423d e000 913c
00000300: dbeb 573d 5884 62ba 361e 3ebd 9815 573d
00000310: e4f8 b4bd e67a 4a3d 659b 3abd d685 cc3d
00000320: 34d2 99bd 907e 99bc c00f 06bc bf3c 463d
00000330: 40e2 3f3c 9c92 8fbd 4a39 983d b070 cfbb
00000340: 43b2 a63d 4079 5c3d a256 3b3d dad3 33bc
00000350: 8076 51bb 30e7 d1bc 601f 79bd 79ba 5f3c
00000360: c506 fb3d e8b5 e63c 1135 9f3d f3ac 853d
00000370: 98f6 913d b39d eabb ec85 76bd ffc1 ac3d
00000380: 48b7 70bc db8d ff3c 9356 443d e933 ab3d
00000390: c0fc 99ba 91b9 0bbb abf2 1ebd 30e8 7c3c
000003a0: 1b95 b1bd 6a10 183b c80e 173c cc46 c1bc
000003b0: a051 42bb 07e3 a03d 18f5 953c d0e3 a7bc
000003c0: f094 84bb e91f 94bd 739a 8d3d 63a3 95bd
000003d0: b337 3dbd e884 6dbc 20ea e53b dc8b 86bc
000003e0: 5810 1bbd 2097 e83c 6707 a7bd bbc5 003d
000003f0: ec56 ec3c c5e7 53bd d245 233d e23a 34bd

lstm.bias_hh_l0 f4 [512]
0.07540283 0.008366724 0.077570416 0.069625385 0.01759605 0.020340234 -0.07518981 0.031133741
-0.03752156 -0.06805588 0.037669763 0.008880229 -0.06990956 0.01135768 0.060210414 0.03158653
0.028941348 -0.055726264 -0.047060367 -0.06644741 -0.016266868 -0.010416172 -0.058557533 0.046579055
-0.009249799 0.014522016 -0.024106666 0.06750036 -0.066006154 -0.015696023 -0.031699102 -0.04004213
0.02649453 0.022746503 0.016236618 0.06316938 -0.051343743 -0.029864382 -0.04851371 -0.020429462
-0.02340729 0.0015975783 0.03398282 -0.0014667809 -0.053247675 0.050870337 -0.07370828 -0.023809604
-0.087800704 -0.0811339 0.056507148 -0.06907633 -0.047538705 -0.015371492 0.08851152 -0.057190206
0.04542976 -0.014965433 0.046704564 0.08587631 0.09605359 0.005509996 0.036947913 -0.04877774
0.1147773 -0.07834862 0.040869385 -0.03446997 0.033763826 -0.035292644 -0.04305765 0.11039248
0.033466317 0.04342633 -0.03330488 -0.08588879 0.073257096 -0.061890423 0.05634724 0.03147557
0.02149871 -0.04415875 0.096519485 0.062667765 0.079126306 0.06452481 0.018362492 0.02083296
0.0072134472 -0.026192434 0.07567018 -0.08360933 0.0022040205 0.014475144 0.027022406 -0.06223675
-0.042603023 -0.045592193 0.038418606 0.080483414 -0.060334455 -0.020498175 0.07757752 0.05197852
0.08437499 0.0038265213 -0.08468723 0.049982168 0.025685228 -0.0662459 -0.04297893 -0.059837777
0.02442471 0.006206885 0.04975804 -0.052173935 -0.0045782565 -0.053879518 0.0072374493 -0.075562604
0.07779576 -0.070998706 0.048452143 0.0635237 -0.046625856 -0.012639783 -0.037597876 -0.049426734
-0.08187775 0.081115924 0.03746227 -0.08296137 0.05764877 0.06044229 0.07721304 -0.06984612
-0.04075318 0.07311713 -0.014419578 0.0685999 0.0577567 0.034755677 -0.019452251 -0.062492892
0.013767128 0.037617 0.058095627 -0.032041255 -0.029535279 -0.048832003 -0.04607957 0.029017745
0.0895916 0.041606538 0.035684705 0.00022611767 0.022276662 0.054144837 -0.03826524 0.058678478
-0.06925697 -0.03337616 -0.06856203 0.032437697 -0.034198046 0.065845035 0.008203492 0.070489384
-0.07025244 -0.0077754334 0.055147387 -0.04719372 -0.026929317 0.048973776 0.06516687 -0.077438116
-0.076637015 0.07921911 -0.06380007 -0.014058419 -0.04121082 0.019375015 0.03098383 0.044256575
0.07136569 0.0908178 0.05201102 0.051568538 0.0014573542 0.0015257482 0.07406867 0.010151878
0.032350257 -0.035884097 -0.08529853 -0.065485805 0.06204055 0.019211836 -0.014542893 0.1213541
-0.06997275 -0.039032955 0.05716292 -0.04191924 0.010685086 0.014893793 -0.057766978 -0.060955986
-0.0571618 0.0245122 0.06635075 0.078264974 -0.05314881 0.008904859 -0.0053683296 -0.035693083
-0.003554813 0.021000594 0.021045081 0.015226126 0.08723031 -0.01345374 0.06864985 -0.03940838
0.0413365 0.030856906 -0.018715858 0.031736284 -0.06518561 -0.042760845 -0.049445007 0.03397507
-0.04883963 -0.08094506 -0.060065255 -0.05326545 0.04267312 0.056245007 0.06626607 0.06266155
0.084449686 0.06132119 -0.070416495 0.05355949 -0.08566682 0.07071585 -0.06508392 -0.081908986
-0.0157238 0.07028585 0.015553959 -0.07092406 -0.017100282 -0.040399037 0.045434423 -0.011950746
00000000: cd6c 9a3d 9514 093c 3ddd 9e3d c197 8e3d
00000010: 9725 903c 90a0 a63c 1dfd 99bd 300c ff3c
00000020: 35b0 19bd e260 8bbd 9c4b 1a3d 617e 113c
00000030: be2c 8fbd 9015 3a3c 329f 763d e160 013d
00000040: 6816 ed3c 3941 64bd 5fc2 40bd 9415 88bd
00000050: 1842 85bc 98a8 2abc 06da 6fbd aec9 3e3d
00000060: 788c 17bc c0ed 6d3c 587b c5bc a13d 8a3d
00000070: 3c2e 87bd f294 80bc ebd6 01bd 3703 24bd
00000080: 0e0b d93c e056 ba3c a802 853c f35e 813d
00000090: d14d 52bd 26a6 f4bc 50b6 46bd b05b a7bc
000000a0: a5c0 bfbc d565 d13a 9231 0b3d 0041 c0ba
000000b0: 3c1a 5abd 6a5d 503d 5ef4 96bd 5c0c c3bc
000000c0: dbd0 b3bd 8829 a6bd 0a74 673d e477 8dbd
000000d0: f2b7 42bd b6d8 7bbc 8745 b53d 4740 6abd
000000e0: 8e14 3a3d 9331 75bc 494d 3f3d ebdf af3d
000000f0: bfb7 c43d 328d b43b b256 173d 2bcb 47bd
00000100: 5c10 eb3d 3e75 a0bd a866 273d 6230 0dbd
00000110: f04b 0a3d 058f 10bd 385d 30bd 7415 e23d
00000120: fa13 093d cfdf 313d b36a 08bd 76e6 afbd
00000130: d107 963d d080 7dbd 5dcc 663d 87ec 003d
00000140: 101e b03c cedf 34bd 02ac c53d f557 803d
00000150: f90c a23d 9525 843d f06c 963c e2a9 aa3c
00000160: c85e ec3b 8491 d6bc f8f8 9a3d 5e3b abbd
00000170: 5471 103b 2829 6d3c 185e dd3c f6eb 7ebd
00000180: 8280 2ebd e1be 3abd d45c 1d3d 7dd4 a43d
00000190: 4321 77bd caeb a7bc f6e0 9e3d 6ee7 543d
000001a0: cbcc ac3d 60c6 7a3b 8070 adbd 1aba 4c3d
000001b0: d469 d23c eeab 87bd ad0a 30bd 7518 75bd
000001c0: 5416 c83c 2063 cb3b 16cf 4b3d 56b4 55bd
000001d0: 3305 96bb c5b0 5cbd 2028 ed3b 91c0 9abd
000001e0: 6253 9f3d c567 91bd c175 463d b718 823d
000001f0: c1fa 3ebd 1817 4fbc 3b00 1abd b073 4abd
00000200: 86af a7bd 1b20 a63d 0a72 193d a7e7 a9bd
00000210: 1e21 6c3d 5692 773d df21 9e3d 7c0b 8fbd
00000220: ceec 26bd 6fbe 953d 1840 6cbc 1b7e 8c3d
00000230: 4a92 6c3d f85b 0e3d 545a 9fbc 8cf8 7fbd
00000240: 858f 613c 4914 1a3d aef5 6d3d b13d 03bd
00000250: f8f3 f1bc 1104 48bd eebd 3cbd 9fb6 ed3c
00000260: cd7b b73d 9e6b 2a3d 202a 123d 001a 6d39
00000270: 8c7d b63c fac6 5d3d 03bc 1cbd d858 703d
00000280: 99d6 8dbd 71b5 08bd 406a 8cbd 64dd 043d
00000290: 4013 0cbd c3d9 863d f067 063c bd5c 903d
000002a0: 83e0 8fbd 10c9 febb 3ae2 613d 344e 41bd
000002b0: df9a dcbc ba98 483d 3576 853d e097 9ebd
000002c0: def3 9cbd a13d a23d 9ca9 82bd 4855 66bc
000002d0: adcc 28bd 5ab8 9e3c cdd1 fd3c 6246 353d
000002e0: 2d28 923d affe b93d 8209 553d 8839 533d
000002f0: b104 bf3a 9dfb c73a 51b1 973d 1054 263c
00000300: b481 043d 34fb 12bd ffb0 aebd 6c1d 86bd
00000310: 3b1e 7e3d 2462 9d3c 5045 6ebc 8088 f83d
00000320: e04d 8fbd 05e1 1fbd aa23 6a3d 82b3 2bbd
00000330: 8010 2f3c 1805 743c 119d 6cbd fcac 79bd
00000340: 7e22 6abd cfcd c83c e7e2 873d 6349 a03d
00000350: 91b2 59bd b0e5 113c d0e8 afbb e932 12bd
00000360: def7 68bb 7009 ac3c bc66 ac3c 0077 793c
00000370: cea5 b23d 136d 5cbc 4b98 8c3d ae6a 21bd
00000380: 7650 293d 9fc7 fc3c 0052 99bc e8fd 013d
00000390: 0880 85bd ff25 2fbd d986 4abd 7129 0b3d
000003a0: 100c 48bd 86c6 a5bd fc06 76bd df2c 5abd
000003b0: 02ca 2e3d 2a61 663d 81b6 873d b354 803d
000003c0: f5f3 ac3d ee2b 7b3d 8636 90bd 3261 5b3d
000003d0: 1672 afbd 79d3 903d b84a 85bd e6bf a7bd
000003e0: 33cf 80bc 07f2 8f3d 08d6 7e3c a240 91bd
000003f0: e415 8cbc 7679 25bd 7219 3a3d 10cd 43bc

lstm.weight_ih_l0_reverse f4 [512, 37]
0.082116045 -0.08048254 0.04391207 -0.04385351 -0.020764071 0.038956035 -0.023177532 -0.03630626
-0.03848878 0.06347014 0.049814295 0.03613259 0.06890213 0.04341976 0.0845859 -0.07233821
-0.015339113 -0.0077067697 -0.0008602176 -0.07895676 0.0032199915 0.091908045 -0.008046342 -0.018359035
-0.028959116 -0.054966986 0.04794844 0.008745191 -0.036443982 0.05745727 -0.027848339 0.053069726
-0.044120394 0.08737453 0.063176095 0.044444628 -0.03222304 0.08615071 0.07866845 0.048381098
0.06051857 0.046176188 -0.007863842 -0.01546561 -0.05103561 0.050740577 0.008279599 -0.075352766
-0.04302777 -0.004787922 0.021513313 -0.028826557 -0.071412735 0.08237121 -0.01255881 0.019666903
0.03634078 0.016443402 -0.08292261 -0.04493365 0.08522653 0.019208089 -0.04425142 -0.03670508
0.07563912 -0.06462619 -0.039319564 0.08539263 -0.050161608 -0.08826396 -0.055113558 -0.02838663
-0.07000916 -0.059241313 0.013787613 0.01124634 0.04224808 -0.06296245 -0.046691388 0.0005725993
0.032096952 -0.0129234 -0.034733493 0.049113642 0.022948151 -0.04260795 0.026419898 0.0046582315
0.007235196 -0.007843942 -0.055026215 0.05042818 -0.04131988 0.07417117 0.03985861 0.02921579
0.040396027 -0.033280898 0.072906405 0.08973189 -0.04565594 -0.03172913 -0.04077348 -0.045360107
-0.026335903 0.026442172 0.043772284 -0.06901559 0.07896023 -0.011139497 -0.04783817 0.02902139
-0.08105999 0.05022905 -0.030414537 0.06869779 0.0019446984 -0.0005453676 -0.0036012456 0.026674189
-0.040871926 -0.08402259 0.0504274 -0.08038056 -0.056304026 -0.03662775 -0.06688367 0.0655353
-0.06913482 -0.037669998 0.007674575 -0.081053816 0.025280386 -0.060656775 0.019854598 0.02622854
-0.048399113 0.08492496 -0.030749 0.08498218 -0.022989713 0.036190644 0.021035299 0.04722189
-0.04576547 0.061015926 -0.036057185 0.031074747 0.00373701 -0.07842705 -0.08158699 0.086213626
-0.07818491 -0.016395606 -0.06280458 0.018879019 -0.05842066 -0.08353848 0.075408734 -0.047839075
0.05381655 -0.0833669 0.033111446 -0.041616324 -0.0005395934 -0.071302645 -0.084705405 -0.027382564
-0.0603318 -0.076475464 -0.018631049 -0.0637064 -0.076679364 -0.039447825 0.056037597 -0.051340826
-0.04911954 -0.07785253 0.021899015 0.049084283 0.003185533 0.05494822 -0.039180554 -0.077184744
-0.046172652 0.0713079 0.03193445 0.0797524 0.022693954 -0.043080628 -0.01227616 0.025306953
-0.007446835 -0.045917086 -0.020509588 0.08228602 0.027346507 -0.042195667 0.06372102 0.0148454895
-0.034328647 0.04808998 -0.04170692 -0.05294521 -0.061329428 -0.03690836 -0.042709023 0.06663394
0.09372616 -0.024334986 0.081880026 0.09843846 0.0892766 0.07861897 -0.0496321 0.008010769
0.01210444 -0.008097165 0.08850734 -0.042513497 -0.012026082 -0.049141984 -0.019590698 -0.016350055
-0.009177969 -0.040717106 -0.055536717 0.010175074 -0.042263925 -0.011453166 0.029364856 0.064464144
0.050941683 -0.024610741 0.021821905 0.032204673 0.026112275 -0.044079937 0.08982403 -0.035745017
-0.07381013 0.047014415 -0.0012185754 -0.06720262 -0.037689984 -0.01735674 -0.015575406 0.002745783
-0.051054124 0.020336142 0.028552305 -0.04683175 -0.051301274 0.04013478 -0.019741694 -0.05042833
00000000: 752c a83d 08d4 a4bd 25dd 333d bd9f 33bd
00000010: 6a19 aabc 5d90 1f3d cfde bdbc dfb5 14bd
00000020: 69a6 1dbd a2fc 813d 130a 4c3d c4ff 133d
00000030: 8f1c 8d3d ebd8 313d 5f3b ad3d 0e26 94bd
00000040: e750 7bbc 1289 fcbb 3a80 61ba 15b4 a1bd
00000050: 7e06 533b 493a bc3d ced4 03bc b065 96bc
00000060: ab3b edbc 1025 61bd 9565 443d fd47 0f3c
00000070: 4946 15bd 5058 6b3d 3322 e4bc a45f 593d
00000080: 96b7 34bd 6bf1 b23d 7862 813d 920b 363d
00000090: 4efc 03bd c96f b03d ed1c a13d 422b 463d
000000a0: 52e2 773d 3e23 3d3d 58d7 00bc 7863 7dbc
000000b0: b70a 51bd 5ad5 4f3d 28a7 073c 8d52 9abd
000000c0: e33d 30bd 00e4 9cbb b03c b03c ac25 ecbc
000000d0: d740 92bd 3db2 a83d 78c3 4dbc 7c1c a13c
000000e0: 12da 143d 50b4 863c 54d3 a9bd 590c 38bd
000000f0: 3f8b ae3d 485a 9d3c fa40 35bd 1158 16bd
00000100: afe8 9a3d bc5a 84bd 8d0d 21bd 55e2 ae3d
00000110: 4276 4dbd bcc3 b4bd c1be 61bd 148b e8bc
00000120: f660 8fbd 05a7 72bd 71e5 613c 9242 383c
00000130: 530c 2d3d 75f2 80bd 783f 3fbd 7d1a 163a
00000140: 1878 033d abbc 53bc b544 0ebd 632b 493d
00000150: c3fd bb3c ac85 2ebd 8b6e d83c 14a4 983b
00000160: 3915 ed3b e183 00bc 2b63 61bd c78d 4e3d
00000170: 093f 29bd 0ee7 973d c842 233d f455 ef3c
00000180: 4e76 253d 8d51 08bd f44f 953d 5ac5 b73d
00000190: b901 3bbd 67f6 01bd 1802 27bd 85cb 39bd
000001a0: 64be d7bc 419d d83c 914a 333d 0c58 8dbd
000001b0: e7b5 a13d 7082 36bc f5f1 43bd 44be ed3c
000001c0: c802 a6bd fabc 4d3d e827 f9bc 6db1 8c3d
000001d0: 40e5 fe3a 00f7 0eba e002 6cbb d483 da3c
000001e0: 5269 27bd 0914 acbd f68c 4e3d 909e a4bd
000001f0: 0d9f 66bd fb06 16bd 4efa 88bd 5f37 863d
00000200: 8e96 8dbd db4b 1abd 007b fb3b 8bff a5bd
00000210: d018 cf3c 3d73 78bd 1ca6 a23c 3cdd d63c
00000220: 263e 46bd 23ed ad3d 54e5 fbbc 230b ae3d
00000230: ec54 bcbc a43c 143d 3852 ac3c be6b 413d
00000240: 9374 3bbd d6eb 793d b3b0 13bd 7890 fe3c
00000250: a0e8 743b 5c9e a0bd 1417 a7bd c590 b03d
00000260: 691f a0bd 1450 86bc b09f 80bd 2ca8 9a3c
00000270: 814a 6fbd 3916 abbd e56f 9a3d e8f2 43bd
00000280: be6e 5c3d 44bc aabd de9f 073d e175 2abd
00000290: 8073 0dba 1f07 92bd 077a adbd 6651 e0bc
000002a0: 7a1e 77bd 2b9f 9cbd 24a0 98bc 8078 82bd
000002b0: 120a 9dbd 0b94 21bd ae87 653d c24a 52bd
000002c0: 9231 49bd 2671 9fbd 9065 b33c 9a0c 493d
000002d0: 60c4 503b 6211 613d ca7b 20bd 0913 9ebd
000002e0: 891f 3dbd e009 923d b3cd 023d 3a55 a33d
000002f0: ace8 b93c 5075 30bd f221 49bc 8750 cf3c
00000300: 9404 f4bb 8e13 3cbd b903 a8bc 9385 a83d
00000310: c805 e03c 5dd5 2cbd 2b80 823d 7f3a 733c
00000320: 329c 0cbd 00fa 443d e0d4 2abd 14dd 58bd
00000330: 9134 7bbd 382d 17bd a8ef 2ebd 6077 883d
00000340: 80f3 bf3d 2a5a c7bc b7b0 a73d 1a9a c93d
00000350: a6d6 b63d fc02 a13d 074b 4bbd 9a3f 033c
00000360: b351 463c f9a9 04bc 5643 b53d a222 2ebd
00000370: 0b09 45bc 1b49 49bd ac7c a0bc 8df0 85bc
00000380: 315f 16bc fbc6 26bd 787a 63bd 5bb5 263c
00000390: f01c 2dbd 0fa6 3bbc 918e f03c c705 843d
000003a0: 3aa8 503d 779c c9bc dac3 b23c 0ce9 033d
000003b0: 69e9 d53c 2a8d 34bd a9f5 b73d 5e69 12bd
000003c0: c429 97bd 3092 403d 9bb8 9fba 87a1 89bd
000003d0: d060 1abd b92f 8ebc fd2f 7fbc 98f2 333b
000003e0: 211e 51bd fb97 a63c 86e6 e93c a6d2 3fbd
000003f0: 4921 52bd 5e64 243d 55b9 a1bc f08d 4ebd

lstm.weight_hh_l0_reverse f4 [512, 128]
0.057091143 -0.049830124 -0.024172008 0.021115288 -0.06009054 -0.08087783 0.039044734 -0.070534185
0.038818784 -0.02387286 -0.011059314 -0.08014222 -0.0027076155 0.036583897 0.05066157 -0.06021567
0.05140634 -0.006556466 -0.06310709 0.053021617 0.05869239 -0.03595139 -0.0020330616 0.019549998
0.031201534 0.0032637932 0.04932446 -0.06598163 -0.025389448 0.060545288 -0.01553259 -0.0071503427
-0.018076248 -0.015372269 0.049657114 -0.047091622 -0.08744966 -0.08361065 0.06918969 0.044436745
-0.0842376 0.053200327 0.07953552 0.08078986 -0.05592184 0.08005033 0.06221386 0.06176763
0.036162682 0.04836265 -0.061879892 0.033793617 -0.059511878 0.007915647 0.018504372 0.014423347
-0.068892166 -0.064188994 0.087382086 -0.009587511 -0.07310917 0.08393606 0.0070145726 0.005431749
0.06362004 -0.055038705 -0.030702505 -0.07776618 -0.037626136 0.02114848 -0.07755682 -0.0203797
0.015504047 -0.04929627 -0.077112325 0.00977379 -0.08249621 0.07160673 -0.056039963 -0.0028100759
-0.048561554 -0.07357018 0.0628205 -0.04270027 -0.06950037 0.0015061129 0.04842981 -0.057437874
0.06281976 0.04957003 0.012342681 -0.039557483 0.042016055 -0.053021263 -0.034901287 -0.036890667
0.025071144 0.059492566 0.012032524 -0.082831815 0.08722516 -0.06277359 0.07519427 -0.034640104
-0.039765704 -0.022352086 0.07704953 -0.043450974 0.04433482 0.076073565 -0.08554005 -0.06348028
0.04623013 0.06950653 0.017889768 0.066094376 0.035693746 -0.014047965 0.034544066 0.016063564
-0.03012608 -0.023023425 -0.044569153 -0.019663095 -0.049609937 -0.040442556 -0.016726185 -0.02074986
0.04631806 0.0029678196 0.048206665 -0.07310997 0.008095875 -0.036452472 0.004073821 0.024731584
-0.03629774 -0.04395162 -0.055894338 -0.022224434 0.0075341463 0.08402435 0.028930627 -0.05832856
0.007830262 -0.07196977 -0.057862774 0.08358794 0.0071014166 -0.035209287 0.05121497 0.08117042
-0.06892386 0.044806816 0.009457298 0.031251468 -0.08736592 0.06916005 0.030234896 0.08014152
0.015921965 -0.077046454 -0.00443998 0.014944494 -0.07361426 0.035171196 -0.059146218 -0.014092855
0.015094578 -0.08121074 -0.04790009 -0.08383883 -0.033890206 -0.050666496 -0.027012419 -0.042952936
0.045046978 -0.049709372 -0.006799981 -0.044996522 -0.026724473 -0.05593659 0.019160822 -0.056858078
0.017942674 0.07170989 0.02988685 0.07406918 -0.022249728 0.022496663 0.005223252 -0.015327431
-0.08269156 0.017077208 0.0001886785 -0.03443563 -0.07468235 0.032233477 -0.049173348 0.03359791
0.049907334 -0.020729527 0.07101347 -0.06116142 0.08760325 -0.051839802 0.03517908 0.035095267
-0.024938278 0.0747493 0.05417996 -0.06220272 -0.012636818 0.061453216 -0.01788707 0.028254531
0.048492335 0.064802594 0.0839495 -0.06548404 0.011732817 -0.020885453 -0.084669515 0.015679039
-0.047284022 0.049905308 -0.00090359896 0.05845391 -0.07121146 -0.041915588 -0.019014895 -0.009943597
-0.0830233 -0.012275457 0.057131954 0.039600097 0.003337279 0.0054120347 -0.017492414 0.005011514
0.04079648 0.08503278 0.013960071 -0.026208375 -0.06364556 -0.087997496 0.027572244 0.07567733
0.03456852 -0.018906243 -0.008656502 -0.08617639 0.014705457 -0.017172925 -0.0466566 0.0855312
00000000: 67d8 693d ac1a 4cbd 6004 c6bc f8f9 ac3c
00000010: 8021 76bd 47a3 a5bd 5fed 1f3d 3a74 90bd
00000020: 7200 1f3d 0491 c3bc 2032 35bc 9b21 a4bd
00000030: 4072 31bb ffd8 153d 8282 4f3d b5a4 76bd
00000040: 748f 523d a0d7 d6bb 4a3e 81bd 322d 593d
00000050: 6e67 703d c441 13bd 1d3d 05bb 5127 a03c
00000060: 5c9a ff3c 5de5 553b 7208 4a3d 6021 87bd
00000070: 88fd cfbc 56fe 773d 687c 7ebc 6c4d eabb
00000080: a414 94bc f8db 7bbc 4265 4b3d 25e3 40bd
00000090: cf18 b3bd 0f3c abbd 53b3 8d3d 4e03 363d
000000a0: c384 acbd 96e8 593d 85e3 a23d 2775 a53d
000000b0: 4d0e 65bd 6df1 a33d f6d3 7e3d 0e00 7d3d
000000c0: 521f 143d ea17 463d c575 7dbd 2d6b 0a3d
000000d0: bac2 73bd a1b0 013c 7b96 973c e74f 6c3c
000000e0: 5617 8dbd 8575 83bd 61f5 b23d f014 1dbc
000000f0: 43ba 95bd abe6 ab3d 80da e53b d0fc b13b
00000100: 394b 823d 4470 61bd d283 fbbc e043 9fbd
00000110: dd1d 1abd 943f ad3c 1cd6 9ebd 54f3 a6bc
00000120: b004 7e3c e3ea 49bd 11ed 9dbd 3f22 203c
00000130: c6f3 a8bd 8da6 923d 298a 65bd 4029 38bb
00000140: 7be8 46bd f6ab 96bd 09a8 803d 7ae6 2ebd
00000150: 3656 8ebd c368 c53a 565e 463d fa43 6bbd
00000160: a5a7 803d f209 4b3d f538 4a3c 0707 22bd
00000170: 0719 2c3d d32c 59bd a7f4 0ebd ab1a 17bd
00000180: 0062 cd3c 7aae 733d 1024 453c baa3 a9bd
00000190: 1ba3 b23d 718f 80bd 74ff 993d c8e2 0dbd
000001a0: 5de1 22bd b91b b7bc 25cc 9d3d a6f9 31bd
000001b0: 6e98 353d 75cc 9b3d 9f2f afbd f301 82bd
000001c0: ce5b 3d3d 7159 8e3d 908d 923c 7d5c 873d
000001d0: 9b33 123d 7029 66bc 147e 0d3d bc97 833c
000001e0: f8ca f6bc 9f9b bcbc 258e 36bd 8014 a1bc
000001f0: ca33 4bbd 18a7 25bd 5a05 89bc 9cfb a9bc
00000200: 02b8 3d3d c07f 423b 5a74 453d aeba 95bd
00000210: 90a4 043c 304f 15bd b07d 853b e499 ca3c
00000220: f0ac 14bd 9d06 34bd 76f1 64bd 0410 b6bc
00000230: 00e1 f63b f514 ac3d ecff ec3c eee9 6ebd
00000240: 804a 003c e364 93bd 8401 6dbd 2730 ab3d
00000250: 00b3 e83b 9d37 10bd cac6 513d ad3c a63d
00000260: f427 8dbd 5a87 373d c8f2 1a3c 8a01 003d
00000270: e7ec b2bd c9a3 8d3d 2caf f73c 3d21 a43d
00000280: c86e 823c 88ca 9dbd 407d 91bb c0d9 743c
00000290: 13c3 96bd ac0f 103d 4e43 72bd b8e5 66bc
000002a0: 404f 773c d151 a6bd e332 44bd b1b3 abbd
000002b0: 75d0 0abd ac87 4fbd 2649 ddbc 6bef 2fbd
000002c0: 2e83 383d 0e9c 4bbd 60d2 debb 464e 38bd
000002d0: 48ed dabc c41d 65bd 28f7 9c3c 04e4 68bd
000002e0: 84fc 923c a3dc 923d 44d5 f43c 95b1 973d
000002f0: 1045 b6bc ec4a b83c d027 ab3b e81f 7bbc
00000300: 315a a9bd 80e5 8b3c 00d8 4539 600c 0dbd
00000310: 0ff3 98bd 4007 043d fe69 49bd f69d 093d
00000320: a26b 4c3d f8d0 a9bc 836f 913d 6684 7abd
00000330: 5569 b33d f955 54bd f017 103d 0ec0 0f3d
00000340: 5c4b ccbc 2916 993d ceeb 5d3d 48c8 7ebd
00000350: a80a 4fbc 5eb6 7b3d e887 92bc 0c76 e73c
00000360: e69f 463d 39b7 843d b7ed ab3d 7f1c 86bd
00000370: 003b 403c f817 abbc 3667 adbd 5471 803c
00000380: e4ac 41bd 8269 4c3d 80df 6cba 5e6d 6f3d
00000390: 50d7 91bd aeaf 2bbd 20c5 9bbc 78ea 22bc
000003a0: 1f08 aabd 001f 49bc 3203 6a3d b633 223d
000003b0: 40b6 5a3b 7057 b13b 404c 8fbc a037 a43b
000003c0: 361a 273d ab25 ae3d c8b8 643c f2b2 d6bc
000003d0: 9a58 82bd 0838 b4bd 30df e13c b7fc 9a3d
000003e0: b897 0d3d 44e1 9abc 00d4 0dbc 3f7d b0bd
000003f0: 28ef 703c 3cae 8cbc fe1a 3fbd fb2a af3d

lstm.bias_ih_l0_reverse f4 [512]
-0.07238229 0.0874595 -0.08063481 -0.06092646 0.060328163 0.055361785 0.0059423214 0.043926574
-0.0025490075 0.0677565 0.057554297 0.024965875 -0.058289774 0.04830151 -0.015041507 -0.01724331
-0.01068067 -0.07252493 -0.051140275 -0.07416778 0.075718515 -0.07857 -0.07347061 -0.013679702
-0.009287447 0.001380944 0.062088765 -0.049370967 -0.043761674 -0.030206628 0.071764894 0.080818065
0.037673377 -0.064371526 -0.030097108 0.05388192 0.028874196 0.015373984 0.04551933 -0.03320926
0.051877134 0.08523948 -0.0693193 0.0767396 -0.0584275 0.030331032 0.06800749 0.044766568
0.0083902925 0.012091264 0.09111777 -0.011901604 0.02177427 0.080130294 0.046494372 -0.019265786
0.0758973 0.03736635 0.024669617 0.035608716 0.0041209087 -0.0117866695 0.039962888 -0.02749918
-0.004374946 0.078027755 0.084951185 -0.037239544 -0.026232058 0.0063326806 0.08298912 -0.057352122
-0.021667898 0.03496703 -0.029718079 -0.034043886 -0.028311461 -0.06582139 0.034320105 0.019027524
0.0534228 0.02795469 -0.05497988 -0.021762632 0.03971885 -0.08423689 -0.024792954 -0.0008449927
-0.0678802 -0.044613525 0.056358866 -0.0064733326 0.022328554 0.033663318 -0.038942613 -0.019200668
0.026033783 0.088720165 -0.06525371 -0.0694614 0.0017795488 0.060717545 -0.0025720298 -0.01608488
0.043008044 0.048838783 -0.06347465 0.05403036 -0.06694402 0.014779651 0.028200239 -0.010036945
0.040421546 0.06389799 0.031380013 0.08648761 0.08033303 0.047028817 -0.081767224 -0.020470232
0.029725648 -0.06790856 0.0028567985 -0.017137868 0.047228992 0.05360589 0.021688282 -0.055316366
-0.08065753 -0.029149873 0.08499903 0.07225037 0.08046248 0.042166032 0.03538612 0.08864342
0.050792668 -0.04258257 -0.035690088 -0.057451926 -0.00018315017 -0.015825447 0.09932658 -0.033554878
-0.08203893 -0.0782575 -0.038585376 -0.010484472 -0.019358367 -0.05052531 -0.074251436 -0.034936026
-0.084220715 -0.045223083 -0.018945664 -0.052728053 0.06836823 -0.07964654 -0.025610982 0.00080846465
0.032905065 -0.03477568 0.0614132 0.0299057 0.046541058 0.02826684 0.012298912 0.08691409
-0.0058775246 -0.064326406 0.053620122 -0.068594806 0.016127184 0.014195089 0.0130760595 -0.06295386
0.03871178 -0.020913597 -0.045711014 0.055312656 -0.03535735 -0.009460166 -0.08533776 0.039778765
-0.08649536 -0.0845287 -0.06755437 -0.07460092 0.022840843 0.064526565 0.06157831 -0.0484953
0.03776417 -0.006196815 -0.07164405 0.011062317 -0.009528577 -0.070169866 -0.017439947 0.037097983
0.062214024 0.08827443 0.075701825 -0.019746635 0.0059640333 -0.08736551 0.09209973 0.08736902
-0.02781649 -0.0016392517 0.06929358 0.012544021 -0.06689713 0.05668103 0.04303889 0.08299782
0.049882047 0.07399484 0.082896255 0.019156598 -0.03205823 0.0756626 -0.0709521 0.0068906746
-0.058810625 0.033470605 -0.014376342 -0.05460871 0.048163332 -0.02133311 -0.012592636 0.04118324
-0.023980172 -0.03395747 0.07109951 0.067956895 -0.055626117 0.09069154 0.058445428 0.05600218
0.062214248 -0.039546955 -0.021072753 0.049525894 -0.01522892 0.0026369244 0.07000423 -0.03505283
-0.060555916 0.050913278 -0.04905788 -0.007928811 -0.024898268 0.085169904 0.04487877 -0.034411322
00000000: 2b3d 94bd f71d b33d dd23 a5bd 068e 79bd
00000010: aa1a 773d 0ac3 623d ceb7 c23b 5aec 333d
00000020: 400d 27bb ebc3 8a3d 0ebe 6b3d 3c85 cc3c
00000030: 42c1 6ebd ced7 453d a770 76bc d841 8dbc
00000040: fafd 2ebc f387 94bd 7778 51bd 47e5 97bd
00000050: 4f12 9b3d 4fe9 a0bd c277 96bd d420 60bc
00000060: 602a 18bc cb00 b53a ca50 7e3d 3639 4abd
00000070: 713f 33bd e473 f7bc 79f9 923d f183 a53d
00000080: 664f 1a3d 38d5 83bd 368e f6bc 4ab3 5c3d
00000090: 9489 ec3c 2ae3 7b3c 7a72 3a3d 6f06 08bd
000000a0: 1e7d 543d 0992 ae3d 47f7 8dbd a729 9d3d
000000b0: ad51 6fbd c978 f83c 8347 8b3d 265d 373d
000000c0: 7077 093c 701a 463c f49b ba3d f2fe 42bc
000000d0: f45f b23c 5a1b a43d e270 3e3d 48d3 9dbc
000000e0: 0b70 9b3d 750d 193d f017 ca3c 72da 113d
000000f0: b008 873b e01c 41bc 20b0 233d f645 e1bc
00000100: b55b 8fbb 04cd 9f3d e3fa ad3d 7e88 18bd
00000110: 9de4 d6bc 6082 cf3b 33f6 a93d 0fea 6abd
00000120: e080 b1bc 9739 0f3d 5473 f3bc 9a71 0bbd
00000130: 70ed e7bc 5dcd 86bd 3d93 0c3d 9cdf 9b3c
00000140: ded1 5a3d 3c01 e53c 9532 61bd 8c47 b2bc
00000150: 3cb0 223d 6484 acbd 981a cbbc 8082 5dba
00000160: c604 8bbd acbc 36bd 8ed8 663d 401e d4bb
00000170: 5fea b63c 8ce2 093d 4a82 1fbd b84a 9dbc
00000180: cd44 d53c ebb2 b53d bda3 85bd c741 8ebd
00000190: c03f e93a f6b2 783d 808f 28bb 70c4 83bc
000001a0: 3429 303d 2d0b 483d fffe 81bd f04e 5d3d
000001b0: f219 89bd 5926 723c 3004 e73c 0072 24bc
000001c0: 1091 253d f3dc 823d 5488 003d 6b20 b13d
000001d0: a585 a43d 4aa1 403d 9375 a7bd 30b1 a7bc
000001e0: 3483 f33c a513 8bbd 2039 3b3b b764 8cbc
000001f0: 3073 413d da91 5b3d a0ab b13c 6a93 62bd
00000200: c62f a5bd b7cb eebc f913 ae3d 01f8 933d
00000210: 83c9 a43d 4ab6 2c3d 09f1 103d ae8a b53d
00000220: f90b 503d 106b 2ebd c52f 12bd b652 6bbd
00000230: 000c 40b9 5ea4 81bc bc6b cb3d d770 09bd
00000240: 0704 a8bd 7845 a0bd b30b 1ebd 10c7 2bbc
00000250: 7095 9ebc a1f3 4ebd 2311 98bd 1419 0fbd
00000260: e97b acbd d73b 39bd f033 9bbc 5ff9 57bd
00000270: a404 8c3d ba1d a3bd 1fce d1bc 25ef 533a
00000280: 76c7 063d f270 0ebd 688c 7b3d ccfc f43c
00000290: d6a1 3e3d dc8f e73c 6081 493c 0400 b23d
000002a0: 4098 c0bb 90bd 83bd c6a0 5b3d 6f7b 8cbd
000002b0: 281d 843c 8592 683c f83c 563c f4ed 80bd
000002c0: 3e90 1e3d fe52 abbc 793b 3bbd 868f 623d
000002d0: ded2 10bd d0fe 1abc 90c5 aebd 0fef 223d
000002e0: 7b24 b1bd 621d adbd f259 8abd 5ec8 98bd
000002f0: b81c bb3c 8126 843d 8a39 7c3d 02a3 46bd
00000300: 9aae 1a3d a70e cbbb 1eba 92bd b83e 353c
00000310: c01d 1cbc 38b5 8fbd 38de 8ebc 0ef4 173d
00000320: 22d4 7e3d 39c9 b43d 8f09 9b3d b2c3 a1bc
00000330: f06d c33b b0ec b2bd c99e bc3d 87ee b23d
00000340: 68df e3bc 29dc d6ba cbe9 8d3d 7085 4d3c
00000350: 5d01 89bd 5e2a 683d 8c49 303d c3fa a93d
00000360: 1e51 4c3d 9b8a 973d 83c5 a93d 4cee 9c3c
00000370: 7e4f 03bd fef4 9a3d 564f 91bd 2bcb e13b
00000380: 69e3 70bd 7918 093d c08a 6bbc 62ad 5fbd
00000390: ea46 453d c6c2 aebc 5851 4ebc c2af 283d
000003a0: 1172 c4bc fd16 0bbd 9f9c 913d fc2c 8b3d
000003b0: 36d8 63bd 7cbc b93d 7964 6f3d 8b62 653d
000003c0: 5ed4 7e3d fdfb 21bd c4a0 acbc aadb 4a3d
000003d0: b882 79bc 40d0 2c3b 615e 8f3d 8e93 0fbd
000003e0: 7b09 78bd 718a 503d eaf0 48bd d8e7 01bc
000003f0: 74f7 cbbc 8f6d ae3d cdd2 373d e3f2 0cbd
