runs/run-20251101-141539/best_G.pt (torch, 339093 bytes, 18 tensors)

enc_x.weight_ih_l0 f4 [192, 18]
0	0x3cd02e8b	0.025412818
1	0x3d4d6e50	0.05015403
2	0xbcb99274	-0.022652842
3	0x3d034308	0.032046348
4	0x3d95ee45	0.07320837
5	0x3c5f0ca8	0.013613857
6	0x3d3a6b7b	0.045512658
7	0x3d753035	0.059860427
8	0x3d924681	0.07142354
9	0x3df7afb9	0.12094063
10	0x3dc7ea4d	0.09761486
11	0x3dfe2758	0.12409848
12	0x3c477f04	0.012176279
13	0xbdf453b9	-0.11930031
14	0xbd7893ad	-0.06068771
15	0xbda7bf23	-0.08190753
16	0x3d64dc72	0.055874296
17	0x3dddb981	0.10826398
18	0xbd3e8da2	-0.04652179
19	0xbc121310	-0.008915678
20	0xbd87210f	-0.06598102
21	0x3d8f41a8	0.06994945
22	0xbc7ddbbc	-0.015494283
23	0xbbf2f693	-0.007414648
24	0x3ceb5961	0.028729143
25	0x3da59673	0.080853365
26	0x3d175539	0.03694651
27	0xbdd262a3	-0.1027272
28	0xbd8a9c92	-0.06768145
29	0x3d33736f	0.043811258
30	0xbcae0cfa	-0.021246422
31	0xbb250f6a	-0.002518619
32	0xbd448035	-0.04797383
33	0x3d0a076d	0.033698488
34	0x3be831d4	0.007086018
35	0x3d65ebfb	0.05613325
36	0xbde6ea6b	-0.112751804
37	0xbd04148c	-0.032246158
38	0x3d165d84	0.036710277
39	0x3d7e95c7	0.062154558
40	0xbdafc98f	-0.08583366
41	0xbdf2e95f	-0.11860918
42	0x3c54379b	0.0129527105
43	0xbdab489b	-0.08363458
44	0x3d73de5f	0.05953824
45	0xbddef2ef	-0.1088618
46	0x3d81be0a	0.06335075
47	0xbda2e447	-0.07953697
48	0x3cb411c0	0.02198112
49	0x3d2520a2	0.040314324
50	0xbdd125b3	-0.10212269
51	0xbd0e5d36	-0.03475686
52	0xbd254070	-0.040344656
53	0xbb59907d	-0.0033197694
54	0xbd6286fc	-0.055304512
55	0x3d0459cc	0.0323122
56	0xbd174623	-0.036932122
57	0xbdc54e89	-0.0963412
58	0x3d681c38	0.056667536
59	0xbdb9a5cb	-0.090648256
60	0x3d1357f6	0.035972558
61	0xbd6daa54	-0.058023766
62	0x3dee62be	0.11639927
63	0x3d8410bf	0.064485066
64	0xbd7e72bc	-0.062121138
65	0x3db62038	0.08892864
66	0xbdc7170d	-0.097211935
67	0x3d58dc2b	0.052944344
68	0xbe02a002	-0.1275635
69	0xbdf505f6	-0.119640276
70	0xbd2e92ef	-0.042620596
71	0x3cdcc249	0.026948111
72	0xbda001ed	-0.07812867
73	0xbd5b19e8	-0.053491503
74	0x3c784156	0.015152296
75	0x3d5f3507	0.05449393
76	0x3daf6419	0.08564014
77	0x3d8033c1	0.06259871
78	0xbc4882fd	-0.012238261
79	0x3dd1df89	0.10247714
80	0xbdc5735f	-0.09641146
81	0xbd83ecc4	-0.06441644
82	0x3d9a0a4c	0.07521495
83	0xbda1913b	-0.07889029
84	0x3d317a88	0.043329746
85	0x3cba57a4	0.022746868
86	0x3da3e5bd	0.080028035
87	0xbdea454c	-0.114389986
88	0xbdaf4d8a	-0.08559711
89	0x3cac89dc	0.02106183
90	0x3ddb4c6e	0.10707937
91	0x3dc8e680	0.098095894
92	0x3cdf6359	0.027269052
93	0xbd2c8200	-0.042116165
94	0xbdfebe57	-0.12438648
95	0xbc4caebe	-0.012492834
96	0xbdfe2319	-0.12409038
97	0x3cfdb217	0.030968709
98	0xbd8fe0a7	-0.07025271
99	0xbddea3de	-0.10871099
100	0xbde5453b	-0.11194845
101	0x3cf10ea6	0.02942593
102	0x3dceae1d	0.10091803
103	0xbdb13747	-0.086531214
104	0xbd11112e	-0.035416774
105	0x3de6fb8c	0.112784475
106	0xbd9139af	-0.070910804
107	0xbd8e9dd3	-0.06963696
108	0xbd888590	-0.066661
109	0xbd883f56	-0.06652705
110	0xbdd099a2	-0.10185553
111	0x3c062f30	0.008189961
112	0xbd941725	-0.07230977
113	0xbcf5aa38	-0.029988393
114	0x3d8f5895	0.069993176
115	0xbdaf7272	-0.085667506
116	0xbd82ec8a	-0.063927725
117	0xbd40d5cb	-0.04707889
118	0x3d399470	0.045307577
119	0xbda11b31	-0.078665145
120	0xbde0dbe5	-0.109794416
121	0x3d8357aa	0.06413205
122	0xbca83da4	-0.020537205
123	0xbcbbb77d	-0.022914642
124	0x3dea627d	0.114445664
125	0x3dcc21ef	0.0996741
126	0xbd13f383	-0.036120903
127	0x3d3bfaa4	0.045893326
128	0xbdc57798	-0.09641951
129	0xbdb26d01	-0.08712197
130	0x3d254652	0.040350266
131	0x3de58d57	0.11208599
132	0xbccc6597	-0.024950786
133	0x3db5e26a	0.08881076
134	0x3db9cb6c	0.09072003
135	0x3c22e0aa	0.009941259
136	0x3beacda2	0.0071656266
137	0xbd7bdfb7	-0.061492648
138	0x3ce197b8	0.027538165
139	0x3e0d572b	0.13802783
140	0xbd7aff2c	-0.061278507
141	0xbd7abba3	-0.0612141
142	0xbd987b18	-0.07445353
143	0x3ca8b9c2	0.020596389
144	0xbd54b52f	-0.051930603
145	0x3dcf2a5a	0.101155
146	0x3daa0532	0.08301772
147	0xbc9ea132	-0.019363973
148	0x3da53977	0.08067601
149	0x3dad456d	0.084605075
150	0xbb8b1bf8	-0.0042452775
151	0xbdc04614	-0.09388366
152	0x3d887b78	0.06664175
153	0xbd8052c4	-0.06265786
154	0x3c827982	0.01592708
155	0xbd17beb1	-0.037047092
156	0x3dddec58	0.108360946
157	0x3cf1d1cd	0.029518986
158	0x3cf8de28	0.03037937
159	0x3c055f66	0.008140421
160	0x3d848269	0.06470186
161	0xbcac1d61	-0.021010103
162	0x3dc41fea	0.095763996
163	0xbd9ad054	-0.07559267
164	0x3d7d6530	0.061864078
165	0xbdbcdeac	-0.09222159
166	0x3cc675c6	0.02422608
167	0x3bbe06ff	0.005799174
168	0x3da30dad	0.07961593
169	0xbda37d5f	-0.07982897
170	0x3dc96e36	0.09835474
171	0xbd03cec2	-0.0321796
172	0xbdab719f	-0.08371281
173	0xbdcbc257	-0.09949177
174	0xbdda57cb	-0.106612764
175	0x3d380fff	0.04493713
176	0x3b31f1fb	0.0027152288
177	0xbd3ba41e	-0.04581081
178	0x3dcdb7c5	0.10044817
179	0x3c4e1238	0.012577586
180	0x3d0a641c	0.033786878
181	0xbd820660	-0.06348872
182	0x3d9fddd6	0.07805984
183	0x3d300954	0.042977646
184	0xbaf87e1a	-0.001895848
185	0x3c446ae2	0.0119883735
186	0x3cb5742d	0.022150123
187	0xbd8f6575	-0.07001773
188	0xbd9c2a12	-0.07625212
189	0xbe03ae65	-0.12859495
190	0xbcaf38a4	-0.021389313
191	0x3ddba7a3	0.107253335
192	0x3de516d6	0.11185996
193	0xbdad2ef2	-0.0845622
194	0x3cccc76b	0.024997434
195	0x3d42fd07	0.047604587
196	0xbd89d690	-0.06730378
197	0xbd0af18a	-0.033921756
198	0x3db055f4	0.08610144
199	0xbdb18adc	-0.086690634
200	0x3ddea158	0.10870618
201	0xbdcfb181	-0.10141278
202	0x3bca9747	0.0061825844
203	0x3c60881d	0.013704327
204	0xbcc0b6e7	-0.023524715
205	0x3d647f1b	0.05578528
206	0x3d5e3fb7	0.054259982
207	0x3dd612a4	0.10452774
208	0xbdab127d	-0.08353136
209	0x3d138c9f	0.03602278
210	0xbdb11523	-0.0864661
211	0x3dd8e331	0.10590208
212	0xbdecb77d	-0.11558435
213	0x3d0a47da	0.03375993
214	0xbde2f9c7	-0.110827975
215	0x3d1a2701	0.037634853
216	0xbc942493	-0.018083846
217	0x3cf05c78	0.029340968
218	0x3d0a4d91	0.03376538
219	0xbccbfc1f	-0.024900494
220	0x3d97eee1	0.074186094
221	0x3dda75b8	0.10666984
222	0xbdeebd6b	-0.11657222
223	0x3ddf33c8	0.10898548
224	0x3d95e148	0.073183596
225	0x3def468f	0.1168338
226	0xbb430c70	-0.0029762052
227	0x3da995e2	0.08280541
228	0xbdb88b22	-0.090109125
229	0xbd9b5556	-0.07584636
230	0xbdb14319	-0.08655376
231	0xbdee1c8e	-0.1162654
232	0x3d5335d8	0.05156502
233	0xbb943bc2	-0.0045237252
234	0x3d99f711	0.07517827
235	0x3d94d1c6	0.072665736
236	0x3d814379	0.063116975
237	0x3c87b82e	0.016567316
238	0x3e069ef8	0.1314658
239	0x3d1db3c9	0.038501535
240	0x3d7fbbaf	0.06243485
241	0x3db534e1	0.088479765
242	0xbd851cad	-0.0649961
243	0x3c93cd61	0.018042268
244	0xbd96a2d9	-0.073552795
245	0xbd0843eb	-0.033267897
246	0x3e0dd669	0.13851322
247	0xbda6f34d	-0.08151875
248	0xbdc3df5e	-0.09564088
249	0xbc6f145a	-0.014592255
250	0xbd9be9e6	-0.07612972
251	0x3d7d15ae	0.061788253
252	0xbd30a9ea	-0.043130793
253	0xbceec158	-0.029144928
254	0x3de35687	0.11100488
255	0x3d977ac9	0.07396466

enc_x.weight_hh_l0 f4 [192, 64]
0	0x3d71a8d9	0.058998916
1	0x3e1051b4	0.14093667
2	0x3b7542a6	0.0037423759
3	0x3dd67f52	0.10473503
4	0xbd3df515	-0.046376307
5	0xbdd77b36	-0.105215475
6	0xbdaf0cd3	-0.08547368
7	0xbda4df27	-0.080503754
8	0xbbdc49f7	-0.0067226845
9	0xbca108f9	-0.019657599
10	0xbda52351	-0.08063377
11	0x3d2aca75	0.041696984
12	0xbd163a7a	-0.03667686
13	0x3dfe6efa	0.12423511
14	0xbca37118	-0.019951388
15	0xbcaf0abb	-0.021367421
16	0xbdc58a3a	-0.09645505
17	0xbd93d7e0	-0.07218909
18	0x3d9df25d	0.07712243
19	0xbd9f92df	-0.07791685
20	0x3dd0ccde	0.10195325
21	0xbd586ae8	-0.05283633
22	0x3d565cbe	0.05233454
23	0x3e06ecf6	0.13176331
24	0xbd23d804	-0.04000093
25	0x3d1d8246	0.038454317
26	0xbdffdee1	-0.12493683
27	0x3c42a213	0.011879462
28	0xbda88dd6	-0.08230178
29	0xbd92e0b3	-0.07171764
30	0x3de1069b	0.10987588
31	0xbd65e42e	-0.056125812
32	0xbd740760	-0.059577346
33	0xbd6ce2b7	-0.0578334
34	0xbd615fa1	-0.05502284
35	0x3de54d7c	0.111964196
36	0xbd787ea1	-0.060667638
37	0xbd9f1555	-0.07767741
38	0xbd265422	-0.04060758
39	0xbcc20174	-0.023682334
40	0xbc4bf9ac	-0.012449663
41	0xbd82384f	-0.06358396
42	0xbd5c28ae	-0.053749733
43	0xbdb18924	-0.086687356
44	0xbd2b328d	-0.041796256
45	0xbc7f2e08	-0.01557494
46	0xbd9c5b36	-0.076345846
47	0xbd86ec99	-0.06588096
48	0xbd86f79b	-0.06590196
49	0xbd92b736	-0.07163851
50	0xbc0eef88	-0.008724101
51	0x3c2a2fd0	0.010387376
52	0xbd76827d	-0.060183037
53	0x3dddef31	0.10836638
54	0x3d7a24b0	0.061070144
55	0xbc9925be	-0.018694755
56	0x3d997ea0	0.07494855
57	0xbd76c404	-0.06024553
58	0xbd6b2880	-0.05741167
59	0x3d8ea629	0.06965286
60	0x3d854f81	0.06509305
61	0xbd6ddf6e	-0.058074407
62	0xbd98cd8f	-0.07461082
63	0xbdc2681e	-0.09492515
64	0xbdec416e	-0.11535917
65	0xbdc808fb	-0.09767338
66	0x3dd32e66	0.10311584
67	0xbd83d827	-0.06437712
68	0xbd800974	-0.06251803
69	0xbd82ebb5	-0.06392614
70	0xbd1a942d	-0.037738968
71	0xbdadc1ed	-0.08484254
72	0x3def1243	0.11673405
73	0x3d864251	0.065556176
74	0xbd94765e	-0.07249139
75	0x3d2c786e	0.04210704
76	0xbd8c8768	-0.06861764
77	0x3d23ceba	0.03999207
78	0xbdcd6de6	-0.10030727
79	0x3d0ccfb9	0.034377787
80	0x3c80557c	0.015665762
81	0x3cd52bfc	0.02602195
82	0x3d8333d8	0.06406373
83	0x3dbeb489	0.09311778
84	0xbc3e198c	-0.011602771
85	0x3d91f0b1	0.07125986
86	0xbddb40ea	-0.10705741
87	0x3b56a480	0.0032751858
88	0xbd2bbcb8	-0.041928023
89	0xbbefcfda	-0.007318479
90	0x3d9b7a17	0.07591646
91	0xbd4278d2	-0.047478504
92	0x3dde179d	0.108443476
93	0xbb1a3de0	-0.0023535416
94	0x3d834050	0.06408751
95	0x3da15275	0.078770556
96	0x3da27216	0.079319164
97	0x3db038dd	0.08604596
98	0xbd1d7ce2	-0.038449176
99	0x3d800c1d	0.062523104
100	0x3df3054e	0.11866246
101	0xbd9f3a57	-0.07774799
102	0xbde1a7ab	-0.11018308
103	0x3dad7269	0.08469088
104	0x3c66984d	0.014074397
105	0x3de9c83d	0.114151455
106	0xbcd93403	-0.026514059
107	0xbd47e07c	-0.04879807
108	0x3d4eb543	0.050465833
109	0xbdc7770e	-0.09739505
110	0xbd9624bc	-0.07331225
111	0x3dd83e36	0.10558741
112	0x3d9571f9	0.07297129
113	0x3d97f545	0.07419828
114	0xbd0c2ace	-0.03422051
115	0xbd4215a0	-0.047383904
116	0x3d703ef6	0.058653794
117	0x3dade21a	0.08490391
118	0xbd593b2b	-0.053034943
119	0xbb09fbda	-0.0021054656
120	0xbd5a1c48	-0.053249627
121	0xbcc6de1e	-0.024275836
122	0xbc82364a	-0.015895028
123	0xbd86d613	-0.065838
124	0xbdaf787d	-0.08567903
125	0xbd328a96	-0.043589197
126	0xbddc6078	-0.107605875
127	0xbd24672f	-0.040137466
128	0x3d0171d8	0.03160271
129	0xbe07e7ce	-0.1327202
130	0x3a0b6afc	0.0005318371
131	0xbdb5f253	-0.0888411
132	0xbcfbf42c	-0.030756079
133	0xbdccd809	-0.10002143
134	0x3df2504d	0.118317224
135	0xbb950db7	-0.004548754
136	0xbd5f9efb	-0.054594975
137	0xbdaa6374	-0.083197504
138	0x3d6e64fd	0.05820178
139	0xbca94d73	-0.020666813
140	0x3d2aa193	0.041657995
141	0xbd82926c	-0.06375584
142	0x3d4b13dd	0.04957949
143	0x3e024422	0.12721303
144	0x3d98e10a	0.07464798
145	0x3dc169b5	0.0944399
146	0xbdf591c1	-0.11990691
147	0x3da12ebb	0.07870241
148	0x3e05774d	0.13033791
149	0xbdcce9ec	-0.100055546
150	0x3d32d416	0.043659292
151	0x3bbc3290	0.005743332
152	0xbdba7f71	-0.09106339
153	0x3db74817	0.08949297
154	0xbdafda90	-0.08586609
155	0x3d88318a	0.06650074
156	0x3d8975ef	0.06711947
157	0xbc18bbc2	-0.009322109
158	0x3c746dd5	0.014918764
159	0xbd163973	-0.03667588
160	0x3d888aa9	0.06667072
161	0x3d946d38	0.07247394
162	0x3dd055eb	0.101726376
163	0xbdbd26f6	-0.09235947
164	0xbdc787ac	-0.09742674
165	0x3d254103	0.040345203
166	0x3c7d91b2	0.015476631
167	0xbd394d9d	-0.045240033
168	0xbd8fbd4d	-0.07018528
169	0x3be384a9	0.0069433046
170	0xbc00a1bb	-0.00785106
171	0xbd01c8b9	-0.031685565
172	0xbd2cec85	-0.04221775
173	0xbba70d08	-0.005097989
174	0x3d877265	0.06613616
175	0xbcebb731	-0.028773876
176	0xbd7d528e	-0.06184631
177	0xbca8240d	-0.020525003
178	0x3d2fff28	0.042967945
179	0x3d6c8700	0.057745934
180	0xbdf2b0b2	-0.11850108
181	0x3e0de919	0.13858451
182	0x3d1d2601	0.03836632
183	0x3cf4cd4b	0.029883048
184	0xbd3bdd42	-0.045865305
185	0x3db3e2df	0.087835066
186	0x3df17a44	0.117908984
187	0x3d9b7b7d	0.07591913
188	0xbd1bc622	-0.03803075
189	0x3dc786aa	0.09742482
190	0xbdf7dbbd	-0.121024586
191	0x3d8a0f86	0.06741242
192	0x3d9af039	0.0756535
193	0xbd16bb52	-0.036799736
194	0xbca49b3b	-0.02009355
195	0x3c94fd87	0.018187298
196	0xbd78a2cd	-0.060702134
197	0x3d400fb2	0.04688997
198	0xbd5e891a	-0.05432997
199	0x3d4de41b	0.050266366
200	0xbdddea97	-0.1083576
201	0xbbbc76c2	-0.0057514617
202	0xbdc4d6b4	-0.09611264
203	0x3dea5678	0.11442274
204	0x3d998b2b	0.07497247
205	0x3c69bae7	0.014265752
206	0x3df2b909	0.11851699
207	0xbd9142ac	-0.07092795
208	0xbddd1e4d	-0.10796795
209	0xbda0a48b	-0.07843884
210	0x3d46c477	0.048527207
211	0x3dc6cff6	0.09707634
212	0x3d6a9e3b	0.057279807
213	0xbdf67d0b	-0.12035569
214	0xbdf8a6ec	-0.12141213
215	0xbbc6e72f	-0.0060700397
216	0xbd59a80d	-0.05313878
217	0x3d5bd13f	0.05366635
218	0x3d269453	0.040668797
219	0x3cb547b8	0.022128925
220	0xbbd7fc72	-0.006591373
221	0xbd9b1a03	-0.07573321
222	0xbc122de4	-0.008922074
223	0xbdbdd334	-0.092687994
224	0x3d2ed8e2	0.042687304
225	0xbdb3479a	-0.08753891
226	0xbcae6562	-0.021288577
227	0xbdb47280	-0.08810902
228	0x3cde46a0	0.027133286
229	0xbdd347ee	-0.10316454
230	0xbd2a7f45	-0.04162528
231	0x3cfa354d	0.030542994
232	0xbe0469d2	-0.12930992
233	0xbdc2921c	-0.095005244
234	0xbc89a4e7	-0.016802264
235	0xbdd861fa	-0.105655625
236	0x3de4f25d	0.111790396
237	0xbd029d82	-0.031888492
238	0x3d9f83a8	0.07788783
239	0x3de78b44	0.1130586
240	0xbd884529	-0.06653816
241	0xbe06136e	-0.1309335
242	0x3cd618cb	0.02613487
243	0xbdacacfd	-0.084314324
244	0x3cd9869a	0.02655344
245	0xbcfcb936	-0.030850034
246	0x3d161632	0.03664226
247	0xbd142be2	-0.036174662
248	0x3c82fbf5	0.015989283
249	0xbde9a68b	-0.11408719
250	0x3e0625ed	0.13100405
251	0xbdeed0c3	-0.11660912
252	0x3cb1a49c	0.021684937
253	0x3d38c3d9	0.04510865
254	0x3d5d57dc	0.054038867
255	0xbc0c5742	-0.008565726

enc_x.bias_ih_l0 f4 [192]
0	0xbd7cfe06	-0.061765693
1	0x3c3c5796	0.0114954915
2	0xbc984f77	-0.01859258
3	0xbde3d59a	-0.11124726
4	0xbd1d5e35	-0.03841992
5	0x3d3edbe8	0.046596438
6	0x3d6e8618	0.05823335
7	0xbc845822	-0.016155306
8	0xbdb70a59	-0.089375205
9	0x3db950d7	0.09048622
10	0xbc9a0962	-0.018803302
11	0x3cabacd8	0.020956442
12	0xbdc0aa42	-0.09407474
13	0x3df1f82b	0.118149124
14	0xbd7fa760	-0.06241548
15	0xbc1ccada	-0.009569848
16	0x3dcb822b	0.09936937
17	0xbd406d59	-0.046979282
18	0x3cab9926	0.02094705
19	0xbdc23523	-0.09482791
20	0x3d3752cf	0.044756707
21	0x3d944fcd	0.07241783
22	0xbd4c6672	-0.049902387
23	0xbde2adc8	-0.110683024
24	0x3c59b861	0.013288588
25	0x3ba2037a	0.004944262
26	0xbca0227f	-0.019547699
27	0xbd1a2aa3	-0.037638318
28	0xbd6684f6	-0.056279145
29	0xbd9ca922	-0.07649447
30	0xbcca9cdc	-0.024733
31	0x3d1b75e0	0.03795421
32	0x3cb6d2ef	0.022317378
33	0xbd332042	-0.043731935
34	0xbd80676d	-0.06269727
35	0xbdd2b577	-0.10288518
36	0x3cbb5b4f	0.022870688
37	0xbc52a9bf	-0.012857853
38	0x3d8e0a04	0.06935504
39	0xbc857d10	-0.016294986
40	0x3d7d0d75	0.06178041
41	0x3ceb167e	0.028697249
42	0xbc41e816	-0.011835119
43	0xbb70dd7b	-0.0036753106
44	0xbb186cd4	-0.0023258226
45	0xbd42acf0	-0.047528207
46	0x3dae6208	0.08514792
47	0x3d8115a7	0.06302958
48	0x3c395c5e	0.011313526
49	0xbde6d992	-0.11271967
50	0x3ceb33fc	0.028711312
51	0xbdc3b41c	-0.095558375
52	0x3d9f4afa	0.077779725
53	0x3dab52bb	0.08365389
54	0xbd7f89bd	-0.062387217
55	0xbdcca4be	-0.099923596
56	0xbd4b2f3f	-0.049605604
57	0x3e05725b	0.13031904
58	0xbdb973a9	-0.090552635
59	0x3dbc7ae8	0.0920313
60	0xbd8ad1c8	-0.06778294
61	0x3ceba9f3	0.028767562
62	0x3dba5ce9	0.090997525
63	0x3c00f2a5	0.007870351
64	0x3dabfd86	0.08397965
65	0x3c8a068c	0.016848825
66	0x3cf8c333	0.030366516
67	0x3ddff29b	0.10934945
68	0x3caf58a0	0.021404564
69	0x3de6f814	0.11277786
70	0xbde01db3	-0.10943165
71	0x3d6fa429	0.058506165
72	0xbd31f4e9	-0.043446455
73	0x3dd2ff5f	0.103026144
74	0x3cae7aad	0.02129873
75	0x3dcb56ca	0.09928663
76	0xbdc51991	-0.09624017
77	0x3d83f023	0.06442287
78	0xbd781df4	-0.06057544
79	0xbddd05f2	-0.107921496
80	0xbd26ec9d	-0.040752996
81	0x3ca48e8c	0.020087503
82	0xbd91578c	-0.07096776
83	0x3c891f12	0.016738448
84	0x3de54dd7	0.111964874
85	0x3bfb8573	0.0076758205
86	0xbd5e5391	-0.054278914
87	0x3cb92e11	0.022604974
88	0x3c899bcb	0.01679792
89	0xbd8914f0	-0.06693447
90	0x3da47e93	0.080319546
91	0xbd44aecd	-0.048018266
92	0x3da2e8dd	0.079545714
93	0xbd2df889	-0.04247335
94	0x3d629724	0.05531992
95	0xbd0b0d28	-0.033948094
96	0x3d3559dd	0.044275153
97	0x3dc10d27	0.09426337
98	0x3dda07db	0.106460296
99	0xbd6f8035	-0.058471877
100	0xbd86914d	-0.06570683
101	0xbdb2a788	-0.0872336
102	0x3d406f8f	0.04698139
103	0xbddaef22	-0.10690142
104	0xbd16708b	-0.036728423
105	0x3dc57938	0.09642261
106	0x3d9bccef	0.07607447
107	0xbc3d924e	-0.011570526
108	0xbc7ddc85	-0.0154944705
109	0x3ca5ec45	0.020254264
110	0xbcd1c025	-0.025604317
111	0xbdb261a7	-0.08710032
112	0xbceea34e	-0.029130604
113	0xbd3fc95f	-0.0468229
114	0x3dcd4c76	0.100243494
115	0x3d014fdb	0.031570297
116	0xbdb02965	-0.086016454
117	0x3cdbbd45	0.02682365
118	0x3dc866e7	0.09785252
119	0x3de8a326	0.11359243
120	0x3d45f789	0.04833177
121	0xbd2820d4	-0.041046932
122	0xbdc264da	-0.09491892
123	0xbca0c2a1	-0.019624056
124	0xbdd95725	-0.106123246
125	0x3dee063a	0.116222814
126	0xbd2e4340	-0.042544603
127	0x3c0a85e0	0.00845477
128	0xbd9366a1	-0.07197309
129	0x3b435ab9	0.0029808714
130	0x3d1d9b02	0.038477905
131	0xbde1206e	-0.109925136
132	0xbdaea456	-0.08527438
133	0xbbb3ad47	-0.0054833028
134	0xbd80965f	-0.06278681
135	0xbcde63fe	-0.02714729
136	0x3d80e4a6	0.06293611
137	0xbcbb9c43	-0.02290166
138	0xbd2733f1	-0.04082102
139	0xbd74f84f	-0.059807118
140	0x3cad35e1	0.021143856
141	0x3d5fc8a7	0.054634716
142	0xbd4802d4	-0.048830822
143	0xbd9b9160	-0.075960875
144	0xbd23af81	-0.039962295
145	0x3da1a047	0.078918986
146	0xbe0e6fcb	-0.13909833
147	0x3db237f3	0.08702078
148	0x3df97b27	0.121816926
149	0xbe01db88	-0.12681401
150	0xbdca4442	-0.098763004
151	0x3c7245ea	0.014787177
152	0x3d9014bc	0.07035205
153	0xbd934fce	-0.07192956
154	0x3b02e843	0.0019974865
155	0x3bfe9ba9	0.007770021
156	0xbce69e6d	-0.028151715
157	0xbe05ffcf	-0.13085864
158	0xbd50bf6c	-0.050963804
159	0xbe0309bf	-0.12796687
160	0x3d9143ae	0.07092987
161	0x3d784038	0.06060812
162	0x3d3c084b	0.045906346
163	0x3dca05ff	0.09864425
164	0xbda65e28	-0.08123428
165	0x3c0f5ae9	0.008749702
166	0xbe04506e	-0.12921306
167	0xbdde3254	-0.10849443
168	0xbd634030	-0.055481136
169	0x3cc74ccf	0.024328617
170	0x3d9ca4d9	0.0764863
171	0xbd8d0025	-0.06884793
172	0xbc3ea556	-0.011636099
173	0x3d817037	0.063202314
174	0xbdde75aa	-0.108622864
175	0xbe04f92a	-0.12985674
176	0x3e069ed0	0.1314652
177	0xbcd3f38d	-0.02587297
178	0xbcf35f33	-0.02970848
179	0xbda4ab1c	-0.08040449
180	0x3cdbc41a	0.026826907
181	0x3de2a109	0.11065871
182	0xbde8627d	-0.1134691
183	0x3dacf02c	0.08444247
184	0x3b810e2e	0.003938458
185	0xbccee069	-0.025253491
186	0x3de477e8	0.11155683
187	0xbc67f4cb	-0.014157484
188	0x3ddf34e2	0.108987585
189	0x3c978432	0.018495653
190	0x3dc52633	0.096264265
191	0xbb83ff3a	-0.004028228

enc_x.bias_hh_l0 f4 [192]
0	0xbd53d380	-0.051715374
1	0xbdc0b5b7	-0.09409659
2	0x3da228f5	0.07917968
3	0xbbd5af6c	-0.006521156
4	0xbd69e853	-0.057106327
5	0x3dadc495	0.08484761
6	0xbd871b5d	-0.06597016
7	0x3dfb6a95	0.12276188
8	0x3c5faa83	0.013651493
9	0x3de15869	0.11003191
10	0x3dd1e547	0.10248809
11	0xbd31caf2	-0.043406434
12	0xbc954526	-0.01822145
13	0x3e03aac1	0.12858106
14	0x3d688596	0.056768022
15	0xba4e9fb2	-0.0007882073
16	0xbcb5952e	-0.022165861
17	0x3ba7f6ff	0.00512588
18	0xbdee3a5c	-0.11632225
19	0x3dd7e37a	0.105414346
20	0xbd0354c5	-0.032063264
21	0x3debe57f	0.11518382
22	0x3d5864b2	0.052830406
23	0x3d1a1cd1	0.037625138
24	0x3dcd9f5c	0.10040161
25	0x3cb6eac7	0.022328747
26	0xbdb6b8b5	-0.08921949
27	0xbc2749ec	-0.010210495
28	0xbc8e76d4	-0.017390646
29	0xbd81ba9d	-0.06334422
30	0x3c19bee6	0.009383893
31	0xbd99ec9e	-0.07515834
32	0xbd3a23c9	-0.045444284
33	0x3dfc74b7	0.12326949
34	0xbd3659d1	-0.04451925
35	0x3cf24528	0.029573992
36	0xbde99f96	-0.11407392
37	0x3dcf50d7	0.10122841
38	0x3de1b81a	0.11021443
39	0xbd503801	-0.05083466
40	0x3e04d9d3	0.12973718
41	0x3d41f56e	0.0473532
42	0xbda2f38f	-0.07956611
43	0xbd472a0c	-0.048624083
44	0xbd8e9143	-0.069613
45	0x3dcef6d7	0.10105675
46	0x3d879ee7	0.06622105
47	0x3dbba76d	0.09162793
48	0xbdd84174	-0.10559359
49	0xbdb6e61c	-0.08930609
50	0xbd880a33	-0.0664257
51	0xbc59062a	-0.0132460985
52	0xbdf8272e	-0.12116848
53	0x3c1d04dc	0.009583678
54	0xbcb1b0a5	-0.021690676
55	0xbd9644e7	-0.07337361
56	0xbcc3e07f	-0.023910759
57	0xbd399fe0	-0.045318484
58	0x3d72ee5f	0.05930936
59	0xbde57326	-0.112036034
60	0x3d68e428	0.05685821
61	0xbdd3510e	-0.10318194
62	0x3d027e53	0.031858753
63	0x3d2492c5	0.040179033
64	0xbdeacbdc	-0.11464664
65	0xbc90f91e	-0.017696913
66	0xbdb06424	-0.0861285
67	0x3dda0175	0.10644809
68	0x3de401c0	0.11133146
69	0x3c0549ed	0.008135301
70	0xbde95075	-0.11392299
71	0x3de50dae	0.1118425
72	0xbde67984	-0.11253646
73	0xbd807b95	-0.062735714
74	0xbe002c62	-0.1251693
75	0x3d9bea88	0.07613093
76	0x3dd071e5	0.10177974
77	0xbcf18bd6	-0.029485624
78	0xbc97c844	-0.018528111
79	0xbd06ef5d	-0.03294312
80	0xbb8e9d4b	-0.004352247
81	0xbdcbde94	-0.09954563
82	0x3dd61b3b	0.104544125
83	0xbdf4c15f	-0.11950945
84	0x3c6aa8d7	0.014322481
85	0xbb981776	-0.0046414686
86	0x3deaccc6	0.11464839
87	0x3dec512d	0.115389206
88	0x3dd8d291	0.10587037
89	0x3d63e88e	0.055641703
90	0xbd36704d	-0.044540692
91	0xbdc2b625	-0.095073976
92	0xbdc004bc	-0.09375903
93	0x3c08c9da	0.008348906
94	0x3e06e602	0.13173679
95	0x3cebee30	0.0288001
96	0x3e0afa9d	0.13572164
97	0x3df99b53	0.12187829
98	0x3dc0a54d	0.094065286
99	0xbc65107e	-0.013980983
100	0x3e0cab9d	0.1373734
101	0xbd65a342	-0.056063898
102	0x3d99076e	0.0747212
103	0xbd70a9d2	-0.058755703
104	0xbdb4d6f8	-0.088300645
105	0xbdd2f86b	-0.10301288
106	0x3b0341bb	0.0020028192
107	0xbdcd3a36	-0.100208685
108	0xbd2e58cc	-0.042565152
109	0x3dcc86c7	0.09986644
110	0xbda1b5f7	-0.07896035
111	0x3c945875	0.018108586
112	0xbdb8d50f	-0.09025013
113	0xbd99b388	-0.07504946
114	0x3cb3e52e	0.021959867
115	0xbdc15413	-0.09439864
116	0xbd02b2a4	-0.031908646
117	0xbda10cec	-0.07863793
118	0x3ded24b5	0.11579267
119	0xbde16e50	-0.110073686
120	0xbd426c8e	-0.047466807
121	0xbd28cc35	-0.041210372
122	0x3d050a8a	0.032480754
123	0xbd3a00c0	-0.04541087
124	0xbdef7a0b	-0.116932
125	0x3dfe37c2	0.12412979
126	0x3dab04c2	0.08350517
127	0x3bfad700	0.0076550245
128	0x3d1dbdf4	0.03851123
129	0xbc9c3076	-0.019066077
130	0xbd9bb621	-0.07603098
131	0xbcb35d80	-0.02189517
132	0xbb2a90c4	-0.0026026228
133	0xbd73cba8	-0.059520394
134	0x3d94394e	0.072374925
135	0x3e03e977	0.12882029
136	0x3dca0025	0.09863309
137	0x3c92427b	0.017853966
138	0x3b2229c2	0.0024744128
139	0x3db9604a	0.09051569
140	0x3ddda9fe	0.10823439
141	0x3dcce222	0.10004069
142	0x3d9490d3	0.072541855
143	0xbdaa55ca	-0.08317144
144	0xbd543fd2	-0.051818676
145	0x3ddc7116	0.10763757
146	0x3da4f5a8	0.08054668
147	0x3d402cae	0.04691761
148	0x3d1f74d4	0.038929775
149	0xbe047329	-0.12934555
150	0x3b68a45a	0.0035498352
151	0xbd7cb702	-0.061697967
152	0x3c545849	0.012960502
153	0xbd000b66	-0.03126087
154	0xbde1dd73	-0.11028566
155	0x3d706bc8	0.05869654
156	0xbdeb3b61	-0.11485935
157	0x3d16f5f2	0.036855645
158	0xbdd0d632	-0.101971045
159	0x3d704324	0.05865778
160	0xbda46549	-0.08027131
161	0x3d1de921	0.038552407
162	0xbc5ceb81	-0.013483883
163	0xbdcc46da	-0.09974451
164	0xbe016d43	-0.12639336
165	0x3d414fa9	0.04719511
166	0x3d93c473	0.07215204
167	0x3cba7355	0.022760073
168	0x3d410072	0.047119565
169	0xbcd86179	-0.026413666
170	0x3d268e6e	0.040663175
171	0x3c9b442a	0.018953402
172	0x3d9830a3	0.07431152
173	0xbcaebf06	-0.021331321
174	0x3e024f36	0.12725529
175	0xbe0575d9	-0.13033237
176	0xbd6a7cc0	-0.057247877
177	0xbd943d3d	-0.07238243
178	0x3d5d03a1	0.05395854
179	0x3deccd0c	0.11562547
180	0x3e02cb44	0.12772852
181	0xbc2be8fb	-0.010492559
182	0xbdfce8a0	-0.12349057
183	0xbc859fe8	-0.0163116
184	0xbdca6e86	-0.09884362
185	0x3dc6817d	0.09692667
186	0x3d0ca2bd	0.034334887
187	0x3cea069a	0.028567601
188	0xbdbbc289	-0.09167964
189	0x3ca0a1c0	0.019608378
190	0xbdea7a48	-0.114491045
191	0xbdc7bbbe	-0.09752606

enc_a.weight_ih_l0 f4 [192, 18]
0	0xbdbac870	-0.09120262
1	0x3d7bfdd8	0.06152138
2	0xbcbcfa72	-0.02306864
3	0xbd74d833	-0.059776496
4	0x3d661cd8	0.05617985
5	0xbca61878	-0.02027534
6	0xbd814981	-0.06312848
7	0xbb077d4f	-0.0020674055
8	0x3d72a882	0.059242733
9	0x3d34c5b6	0.044133864
10	0x3d212e62	0.039350875
11	0xbdc32c47	-0.095299296
12	0x3a76eb87	0.00094192516
13	0xbd956faa	-0.07296689
14	0xba30e7a0	-0.0006748382
15	0x3cf3dfa7	0.029769732
16	0x3d90c43c	0.07068679
17	0xbd99fd8d	-0.07519064
18	0x3d773c21	0.060360078
19	0x3d1cc23c	0.038271174
20	0x3cf105d9	0.029421734
21	0xbcd93bc1	-0.02651775
22	0xbb200a04	-0.0024420032
23	0x3cf3987b	0.029735794
24	0xbd877b45	-0.06615309
25	0xbdcf7947	-0.10130554
26	0x3d6c45e1	0.05768383
27	0xbdce8d13	-0.100855015
28	0x3dc4cf90	0.09609902
29	0xbc469960	-0.012121528
30	0xbd2fb28a	-0.042894877
31	0xbe027fd3	-0.12744074
32	0x3beed1cf	0.0072881947
33	0xbd8a61b7	-0.06756919
34	0x3cbcb86c	0.023037158
35	0x3d2f2b5c	0.04276596
36	0x3cbfee19	0.023428963
37	0xbdf9b1b4	-0.12192097
38	0xbe057ef8	-0.13036716
39	0xbddfa80b	-0.109207235
40	0x3df0de44	0.11761144
41	0x3d6168cd	0.055031586
42	0x3c22da96	0.00993981
43	0xbd2b05a9	-0.041753445
44	0x3dbe5e01	0.092952736
45	0x3db86709	0.090040274
46	0x3e11f5f5	0.14253981
47	0x3d3cd9cd	0.04610615
48	0xbe0de34f	-0.13856243
49	0x3dda3a97	0.106557064
50	0x3da37abc	0.07982394
51	0xbdb05d09	-0.08611495
52	0x3d7a6bf6	0.061138116
53	0x3e08cc87	0.13359271
54	0xbd68b4bb	-0.056812983
55	0xbd9a0926	-0.07521276
56	0x3d864ed4	0.06558004
57	0x3af0e97a	0.0018380128
58	0xbde70ce3	-0.11281755
59	0xbd3232d7	-0.043505516
60	0xbc71c3eb	-0.014756183
61	0xbdab099f	-0.083514445
62	0x3d6ff289	0.05858091
63	0x3dd09fcb	0.10186728
64	0x3db2d1da	0.08731432
65	0x3e06b215	0.1315387
66	0xbce29eec	-0.02766367
67	0xbb015093	-0.0019731864
68	0x3e035875	0.12826712
69	0xbd858f3f	-0.06521463
70	0xbd7fe474	-0.06247373
71	0xbd4e3f67	-0.050353434
72	0xbdae1e38	-0.085018575
73	0xbdd5f4e6	-0.10447101
74	0xbc8470aa	-0.016167004
75	0xbcb54c22	-0.02213103
76	0xbe026cc3	-0.12736802
77	0x3bae6307	0.0053218636
78	0x3cc8c366	0.024507236
79	0x3d134729	0.035956535
80	0x3c5460f2	0.012962567
81	0x3d3fbb13	0.046809267
82	0xbda71395	-0.08158032
83	0x3d8d58a8	0.069016755
84	0x3dd259f2	0.10271062
85	0xbb7c41bd	-0.0038491332
86	0x3be9f52c	0.0071398225
87	0x3bccfe7a	0.006255922
88	0x3d86126e	0.06546484
89	0x3d063055	0.032760937
90	0x3d39db45	0.045375127
91	0x3d91b2c4	0.07114175
92	0xbdad92ee	-0.0847529
93	0x3da733cb	0.081641756
94	0x3d1fc3ed	0.03900521
95	0xbde6e42f	-0.11273991
96	0x3d8372e4	0.06418398
97	0xbd9a2b79	-0.07527823
98	0x3d90af8e	0.070647344
99	0xbd3e609d	-0.046478856
100	0xbdf03a63	-0.117298864
101	0x3a9ea9ab	0.0012105008
102	0x3c32b98e	0.0109084975
103	0x3e0623c2	0.13099578
104	0xbb8739fe	-0.0041267863
105	0x3ddf6b71	0.10909165
106	0xbc69b26a	-0.014263729
107	0x3c989476	0.01862548
108	0xbce49e1d	-0.027907426
109	0xbd971356	-0.07376735
110	0x3deb9ab4	0.11504117
111	0x3de941a5	0.11389474
112	0xbd9e5abf	-0.07732152
113	0xbdd80587	-0.10547929
114	0xbddc6381	-0.10761166
115	0x3dea9703	0.114545844
116	0x3d99ed71	0.075159915
117	0x3d0bcf49	0.03413323
118	0xbd1bb103	-0.03801061
119	0x3c67c233	0.014145422
120	0xbc9546ca	-0.018222231
121	0x3de3c016	0.11120622
122	0x3d8500fa	0.06494327
123	0x3d88fc02	0.06688692
124	0xbd5bf0c1	-0.053696398
125	0x3de3bd49	0.11120088
126	0xbd8221ec	-0.06354126
127	0x3d833ec6	0.064084575
128	0x3dd3d6b8	0.10343689
129	0xbd57bd65	-0.052670855
130	0xbdc3fb6b	-0.095694385
131	0xbdd8a773	-0.105788134
132	0x3cde05ef	0.027102439
133	0x3d4b8c95	0.049694616
134	0xbd124887	-0.0357137
135	0xbd6c45a2	-0.057683595
136	0xbd89968e	-0.06718169
137	0xbce0e99a	-0.02745514
138	0x3d07addd	0.033124793
139	0xbe009e31	-0.12560345
140	0x3dbb23d5	0.09137694
141	0x3d937797	0.07200544
142	0x3d992e68	0.074795544
143	0xbd548f5f	-0.05189454
144	0xbdbb02e6	-0.09131412
145	0x3d2b35b0	0.041799247
146	0xbd981897	-0.07426565
147	0xbde0d995	-0.109790005
148	0xbccdd1c2	-0.025124434
149	0x3c0d2a38	0.008616023
150	0x3dad6980	0.08467388
151	0x3c772f9d	0.0150870355
152	0xbdee2dd3	-0.11629834
153	0xbdd43d7c	-0.1036329
154	0x3cec1a5d	0.028821165
155	0x3bdd154f	0.006746925
156	0x3db8adb2	0.09017505
157	0xbc335f15	-0.010947962
158	0xbd9bd272	-0.07608499
159	0x3e067bc3	0.13133149
160	0x3d94afcd	0.07260094
161	0xbdd48d1d	-0.10378478
162	0x3b846d16	0.0040413244
163	0xbde5c768	-0.11219674
164	0x3d957773	0.07298174
165	0xbc366e15	-0.011134644
166	0xbcdc91ef	-0.026925055
167	0x3d4fe2ca	0.050753392
168	0x3d3b5c75	0.04574247
169	0x3dab78bc	0.08372638
170	0x3c135d71	0.008994446
171	0x3d6be9bc	0.057595953
172	0xbdc936e3	-0.09824922
173	0xbda5a8ff	-0.08088874
174	0x3dd1177e	0.10209559
175	0xbdb6d20f	-0.08926784
176	0x3d53364d	0.051565457
177	0xbd08fda9	-0.033445034
178	0xbc34e048	-0.011039801
179	0x3dd6c7b0	0.10487306
180	0x3d337e93	0.043821882
181	0x3ddd1216	0.10794465
182	0x3d0ec86b	0.034859102
183	0xbd694776	-0.056952916
184	0x3d50a814	0.05094154
185	0x3d757cc8	0.059933454
186	0x3dde0bc6	0.10842089
187	0xbc90b93e	-0.017666455
188	0x3d0ab389	0.033862624
189	0x3d95dff1	0.07318104
190	0x3d7fc87f	0.062447067
191	0xbdd07716	-0.10178964
192	0xbc6cab8f	-0.0144452
193	0x3dfe6356	0.124212906
194	0x3dc4a992	0.096026555
195	0xbcb247ce	-0.021762755
196	0xbdf39b58	-0.11894864
197	0xbd953034	-0.07284585
198	0xbd8a46e8	-0.067518055
199	0xbdc606d2	-0.096692696
200	0x3d283ebe	0.04107546
201	0x3c40810e	0.011749519
202	0x3dba33c2	0.09091903
203	0xbdae8297	-0.08521002
204	0x3dceed06	0.101038024
205	0xbcb8a2e1	-0.022538604
206	0x3e003243	0.12519173
207	0xbd731740	-0.059348345
208	0xbdd189ba	-0.102313474
209	0xbd989895	-0.07450978
210	0xbd85d403	-0.06534579
211	0xbdf0df5e	-0.11761354
212	0xbd98f53a	-0.07468648
213	0x3d3e81f2	0.046510644
214	0x3c9e4dc2	0.019324187
215	0xbc0726ca	-0.008248994
216	0x3d399df8	0.045316666
217	0xbcc1e8e0	-0.023670614
218	0x3dcdfe85	0.100583114
219	0x3dea459d	0.11439059
220	0xbd2761e6	-0.040864848
221	0x3d8ca287	0.06866937
222	0x3cb5988f	0.022167472
223	0xbdd5161d	-0.104046084
224	0x3e09724f	0.13422512
225	0x3d03065e	0.031988494
226	0x3deeae30	0.116543174
227	0x3ca48dde	0.020087179
228	0x3d239efc	0.03994654
229	0x3db3adc1	0.08773375
230	0x3cad5551	0.021158846
231	0x3c98aa4a	0.018635888
232	0x3d309f14	0.04312046
233	0x3dae7cb6	0.085198805
234	0x3c917819	0.017757462
235	0x3da31d8e	0.079646215
236	0xbd39d0f7	-0.0453653
237	0x3dd7b767	0.10533028
238	0x3d908b83	0.0705786
239	0xbb32a777	-0.0027260461
240	0xbdccbe0a	-0.099971846
241	0x3def48e7	0.11683827
242	0xbdac18df	-0.08403181
243	0x3c062112	0.0081865955
244	0x3df40f0a	0.11916931
245	0xbcb39ced	-0.021925414
246	0x3d4e32f7	0.050341573
247	0xbd87c71e	-0.066297755
248	0x3deb74fc	0.114969224
249	0xbb53cb6a	-0.003231729
250	0x3d54cbd1	0.051952187
251	0x3db8872c	0.09010157
252	0x3dec3c16	0.11534898
253	0xbdf533a0	-0.11972737
254	0xbde510fe	-0.11184882
255	0x3db6cf27	0.0892623

enc_a.weight_hh_l0 f4 [192, 64]
0	0x3dd8c07d	0.10583589
1	0x3cf2e11d	0.029648358
2	0x3da4fc87	0.08055978
3	0x39c2f012	0.0003718143
4	0xbc89cf40	-0.016822457
5	0xbd46418a	-0.048402347
6	0x3cfeaf62	0.031089488
7	0xbd9b7e6f	-0.07592475
8	0xbcb134c0	-0.021631598
9	0xbc8879dd	-0.016659671
10	0xbd823544	-0.06357816
11	0xbd5ce7d6	-0.053932033
12	0xbda9e8fd	-0.08296392
13	0x3dd10ebb	0.10207888
14	0x3d8622f1	0.06549633
15	0x3d9b78cb	0.07591399
16	0x3c1f0734	0.009706307
17	0xbd093df0	-0.033506334
18	0xbbb34fad	-0.0054721446
19	0x3c39098d	0.011293781
20	0x3c80344d	0.015649939
21	0x3db0f095	0.086396374
22	0xbc4f5e44	-0.012656752
23	0xbdbd4316	-0.09241311
24	0xbe0c1c95	-0.13682778
25	0xbde6f108	-0.11276442
26	0xbd9efe98	-0.07763404
27	0xbd1d07d3	-0.03833754
28	0x3d2d90fa	0.04237459
29	0x3d21cf36	0.039504252
30	0x3b04e5f4	0.0020278664
31	0x3c64b95d	0.01396021
32	0x3def1b39	0.11675114
33	0xbde3ec41	-0.11129046
34	0x3d843fb5	0.06457464
35	0x3de3d15c	0.111239165
36	0xbc97ab72	-0.018514369
37	0xbd45b4cd	-0.04826813
38	0x3d2250fc	0.039628014
39	0x3de2bda4	0.11071327
40	0xbd9bb709	-0.076032706
41	0xbdfbe4a4	-0.12299469
42	0xbdf86353	-0.121283196
43	0xbd875d78	-0.066096246
44	0xbbae30fa	-0.005315897
45	0x3c1ef28c	0.009701382
46	0x3cafbc55	0.021452108
47	0x3da21fc6	0.079162166
48	0xbdbdc17a	-0.09265418
49	0x3c58666d	0.013208014
50	0x3bb6b398	0.0055756085
51	0x3d4c7b5a	0.049922325
52	0x3ca396d6	0.019969385
53	0xbd49a992	-0.04923398
54	0xbc542448	-0.012948103
55	0xbd541f58	-0.051787704
56	0xbdbd15c6	-0.092326686
57	0xbd157068	-0.036484152
58	0xbdc8f53e	-0.09812401
59	0x3d51baf6	0.05120369
60	0xbbed510a	-0.0072423266
61	0x3c32b220	0.010906726
62	0x3d3f3ffe	0.046691887
63	0x3dde292c	0.10847697
64	0xbe052d25	-0.13005503
65	0x3de088df	0.10963606
66	0xbda5e6b1	-0.081006415
67	0xbddbb8e8	-0.107286274
68	0x3c8da082	0.01728845
69	0x3d90e4de	0.07074903
70	0x3e014fff	0.12628172
71	0x3dfe5e54	0.124203354
72	0x3dc97af5	0.09837905
73	0x3b8d4a9d	0.004311873
74	0xbd248231	-0.040163223
75	0xbd8649e3	-0.065570615
76	0xbd5e235a	-0.054232933
77	0x3de86f1b	0.11349317
78	0xbc84eefb	-0.016227236
79	0x3c4ea918	0.012613557
80	0xbdb8f175	-0.09030429
81	0x3b050606	0.002029778
82	0x3de5ed69	0.11226923
83	0xbc842853	-0.01613251
84	0x3d7cc083	0.06170703
85	0xbc46a44f	-0.012124135
86	0xbd25cb7a	-0.040477253
87	0xbd231240	-0.039812326
88	0x3d5701b4	0.05249186
89	0x3dca4b1b	0.098776065
90	0x3db1f6a3	0.0868962
91	0x3dcd7116	0.10031335
92	0xbdd12080	-0.10211277
93	0xbcedde0d	-0.029036546
94	0xbd85012c	-0.06494364
95	0x3d50fdac	0.05102317
96	0xbda45f27	-0.08025961
97	0x3ddb3fc2	0.1070552
98	0xbdacc3fc	-0.084358186
99	0xbdd77f06	-0.10522275
100	0x3ccadc34	0.024763204
101	0x3d1da21d	0.03848468
102	0xbde7dcb1	-0.113213904
103	0xbdc19d21	-0.09453798
104	0x3cbad27e	0.022805449
105	0xbc088994	-0.008333582
106	0x3c220eb1	0.009891198
107	0xbdbfd601	-0.0936699
108	0xbcac1218	-0.021004722
109	0xbbf4d0b8	-0.0074711703
110	0x3d3d495e	0.046212547
111	0xbbb6b578	-0.005575832
112	0x3dd3d8fe	0.10344122
113	0x3d17002f	0.03686541
114	0xbdd356e7	-0.1031931
115	0x3d5fc13c	0.054627642
116	0x3da427a1	0.08015371
117	0xbcc07f57	-0.02349822
118	0xbd9f73ad	-0.07785735
119	0x3c00ee3e	0.007869301
120	0xbdc0f9ed	-0.094226696
121	0x3d94a4f2	0.07258023
122	0xbddbf067	-0.107392125
123	0xbd32ee36	-0.043684207
124	0xbc36cf87	-0.011157877
125	0xbd5799ad	-0.05263679
126	0x3d0e224a	0.03470067
127	0x3e0790f4	0.13238889
128	0x3dbfd202	0.09366228
129	0xbccb2d42	-0.024801854
130	0x3d43ca25	0.047800202
131	0xbe0a5892	-0.1351035
132	0x3dc9560f	0.098308675
133	0xbd9e003a	-0.07714887
134	0x3d4a5d56	0.04940542
135	0xbd25a57a	-0.040441014
136	0x3d7aa9d8	0.061197132
137	0x3db2b1b9	0.08725304
138	0xbbf2c713	-0.0074089854
139	0xbd4472f7	-0.0479612
140	0xbdb1c402	-0.08679964
141	0x3de49369	0.11160929
142	0xbdc9d104	-0.0985432
143	0x3dcd06ee	0.10011087
144	0x3dc3c340	0.09558725
145	0x3d09f275	0.03367849
146	0xbddc4902	-0.10756113
147	0xbc4ef054	-0.012630541
148	0x3aa62b9c	0.0012677792
149	0x3d7f08e2	0.06226433
150	0xbe03ab1d	-0.12858243
151	0x3d884696	0.06654088
152	0x3b92f3e2	0.0044846395
153	0xbd39d647	-0.045370366
154	0x3d2044ba	0.039128043
155	0x3dd3fe16	0.103511974
156	0x3d811b24	0.06304005
157	0xbdfc22ba	-0.12311311
158	0x3dbd4c7e	0.09243105
159	0x3dd2bda8	0.1029008
160	0xbd96bf6b	-0.07360729
161	0xbc5b9c94	-0.01340403
162	0x3e05453f	0.13014697
163	0xbc69b06a	-0.014263252
164	0xbd899541	-0.06717921
165	0x3e0748d8	0.13211381
166	0xba84ada8	-0.0010122554
167	0x3b2b6a0d	0.002615574
168	0x3dc6036a	0.0966862
169	0xbdd40471	-0.1035241
170	0x3e0fa522	0.14027837
171	0x3d1595cb	0.036519807
172	0x3e16de46	0.14733228
173	0x3d4b2ebc	0.049605116
174	0xbd912c20	-0.07088494
175	0xbdb09b5a	-0.08623381
176	0xbdc52df1	-0.09627903
177	0xbdcb6042	-0.09930469
178	0x3db7eece	0.08981095
179	0x3d563c4b	0.052303594
180	0xbd95e867	-0.07319718
181	0x3df10de3	0.11770227
182	0xbc11aefc	-0.008891817
183	0xbd381840	-0.044945
184	0xbd80424a	-0.06262644
185	0xbd0eb81b	-0.034843545
186	0xbd1b3581	-0.037892822
187	0xbd996632	-0.07490195
188	0x3dd5b718	0.10435313
189	0x3d9f258c	0.077708334
190	0xbd606f51	-0.05479366
191	0x3a3a854c	0.00071151997
192	0x3d557058	0.052109092
193	0xbcc04993	-0.023472583
194	0xbd4fe8bc	-0.050759062
195	0x3d0158a2	0.031578667
196	0xbbceb562	-0.0063082436
197	0xbd893c28	-0.06700927
198	0x3daac36b	0.08338054
199	0xbd2fe744	-0.04294516
200	0xbc15b6f4	-0.009137858
201	0xbd94e227	-0.07269698
202	0x3dc8ca5a	0.098042205
203	0x3d989166	0.074496076
204	0xbd2c4a16	-0.04206284
205	0x3d878140	0.06616449
206	0x3deb0e05	0.114772834
207	0xbd95bc65	-0.07311324
208	0xbd1f050e	-0.03882318
209	0xb9b8e7be	-0.00035267876
210	0xbdc674c0	-0.09690237
211	0xbdda3746	-0.10655074
212	0xbda4ffd5	-0.080566086
213	0xbcb7b788	-0.022426382
214	0x3be5798d	0.0070030154
215	0xbdc5090b	-0.096208654
216	0xbdea93a1	-0.11453939
217	0x3db5fcc3	0.08886101
218	0x3b355343	0.0027668036
219	0x3d9ad07c	0.075592965
220	0x3d02e35d	0.03195511
221	0x3c518417	0.01278784
222	0xbd89ce2c	-0.06728777
223	0x3ce58bff	0.028020857
224	0x3d73bfd0	0.0595091
225	0xbdd555d9	-0.10416765
226	0x3dd9e93d	0.1064019
227	0x3d24abf1	0.04020304
228	0x3c8c2eb3	0.017112112
229	0xbc2efa35	-0.010679771
230	0xbdf35dbf	-0.11883115
231	0x3dffcda4	0.12490395
232	0x3c8fd046	0.017555367
233	0x3c87dd8e	0.016585138
234	0x3d94505a	0.07241888
235	0x3de8e806	0.1137238
236	0xbdd408c5	-0.10353235
237	0x3dca0508	0.09864241
238	0xbd5d8282	-0.05407954
239	0xbdf1f532	-0.118143454
240	0x3dbd9572	0.0925702
241	0x3dcc797d	0.099841096
242	0xbdb67833	-0.08909645
243	0xbcc7be49	-0.024382727
244	0x3dd5e2ad	0.104436256
245	0x3d04377a	0.03227947
246	0xbccab462	-0.024744216
247	0xbd4ed314	-0.05049427
248	0x3dce1395	0.10062329
249	0xbd2bef10	-0.041976035
250	0xbd806f40	-0.06271219
251	0x3d6b4c28	0.057445675
252	0x3bc67afc	0.0060571413
253	0x3d247bef	0.040157255
254	0xbdb9364c	-0.090435594
255	0xbdd41cf6	-0.10357086

enc_a.bias_ih_l0 f4 [192]
0	0x3d53680c	0.0516129
1	0xbdc191e0	-0.094516516
2	0x3dddc48a	0.108285025
3	0x3cf29969	0.029614167
4	0xbdf8800a	-0.121337965
5	0xbd88ecfd	-0.06685827
6	0xbde7014c	-0.11279544
7	0x3d0c00af	0.03418034
8	0xbd8650b6	-0.06558363
9	0xbdaaf2e8	-0.08347112
10	0xbc8e8b77	-0.017400486
11	0xbdfd7371	-0.12375534
12	0x3d20db26	0.039271496
13	0x3dea30fb	0.114351235
14	0x3c35e581	0.011102081
15	0x3dc4c6e7	0.0960825
16	0xbe1091e6	-0.14118156
17	0xba109deb	-0.00055166957
18	0xbd56d34d	-0.052447606
19	0xbc06eef2	-0.00823568
20	0x3d843842	0.06456043
21	0x3d85b1f6	0.06528084
22	0x3e085f5b	0.13317625
23	0xbd466ba5	-0.0484425
24	0xbdc2f8a2	-0.09520079
25	0x3d5ab11f	0.053391572
26	0xbdabe6af	-0.08393609
27	0x3d4c5fe8	0.04989615
28	0xbd850f63	-0.064970754
29	0x3dda110c	0.10647783
30	0xbdc1fdfa	-0.0947227
31	0xbe004ae0	-0.12528563
32	0x3d96a56b	0.0735577
33	0x3b41b0bc	0.0029554805
34	0x3dcc5e06	0.09978871
35	0xbd1314d7	-0.035908546
36	0xbe0b2531	-0.13588406
37	0x3d3668ea	0.044533648
38	0xbb83f06e	-0.004026464
39	0x3dba0eb8	0.09084839
40	0x3dc04dbb	0.09389826
41	0xbd57eedb	-0.052718025
42	0xbe0a6ff0	-0.13519263
43	0x3bd3fb87	0.0064691934
44	0xbbf263f4	-0.0073971692
45	0xbd330fae	-0.043716125
46	0xbd70527e	-0.05867242
47	0x3dfc1045	0.12307791
48	0x3ccbbcea	0.024870355
49	0x3d6ef96c	0.058343336
50	0xbdc7e3d2	-0.0976025
51	0xbac48ba2	-0.0014995227
52	0x3d738892	0.059456415
53	0xbdcd86ef	-0.10035502
54	0x3ded93fd	0.11600492
55	0xbde863b8	-0.11347145
56	0xbd1b83b4	-0.0379674
57	0x3df8f8ac	0.121568054
58	0x3bdce8c6	0.006741616
59	0xbd837fa1	-0.06420828
60	0x3ddc610e	0.10760699
61	0xbd11076b	-0.035407465
62	0xbc497335	-0.012295534
63	0x3d5a707c	0.05332993
64	0xbdf5f9c5	-0.120105304
65	0x3dc93783	0.09825041
66	0x3dd84a93	0.10561099
67	0xbd9a0c7d	-0.07521913
68	0x3cb0d0a4	0.021583863
69	0xbd7a1260	-0.06105268
70	0x3d8da0c4	0.06915429
71	0x3df821dc	0.12115833
72	0x3ced2369	0.028947549
73	0xbda1f02d	-0.07907138
74	0x3da86f7f	0.08224391
75	0xbdb17c5d	-0.086662985
76	0x3ded1019	0.11575336
77	0xbd72c32b	-0.059268158
78	0x3dfe5b4d	0.12419758
79	0xbd779239	-0.060442183
80	0x3d87553c	0.06608054
81	0x3d885e81	0.0665865
82	0xbde564bd	-0.11200855
83	0xbd2a7f50	-0.04162532
84	0xbdf1fbff	-0.118156426
85	0xbbf5784c	-0.007491147
86	0x3dd0077a	0.10157676
87	0xbd50f255	-0.051012356
88	0x3c5c5eb1	0.013450311
89	0xbc37c92b	-0.011217396
90	0xbdd4576c	-0.10368237
91	0xbb3796c8	-0.0028013457
92	0x3d082de3	0.033246886
93	0xbc33c6cc	-0.01097269
94	0x3da58cc8	0.080834925
95	0x3cfc4280	0.030793428
96	0x3d05e14e	0.03268557
97	0xbcea3d34	-0.028593637
98	0xbdb9be77	-0.090695314
99	0xbdabaac1	-0.08382178
100	0xbd77be0f	-0.06048399
101	0x3dbc042e	0.09180485
102	0xbd8f1bbf	-0.06987714
103	0x3def1234	0.11673394
104	0x3dadff6a	0.08495982
105	0x3cc8c677	0.024508698
106	0x3d6ae54b	0.057347577
107	0xbcd413f3	-0.025888419
108	0x3dc6977a	0.096968606
109	0x3da5da98	0.08098334
110	0x3d952e4a	0.072842196
111	0x3bae0685	0.005310836
112	0x3dd41a4d	0.10356579
113	0x3d008bbc	0.03138326
114	0xbdbaf9d2	-0.09129681
115	0x3d6c196b	0.057641428
116	0x3dd47e50	0.10375655
117	0xbdbaaf14	-0.09115425
118	0xbc293f75	-0.010330071
119	0xbdcea5d4	-0.10090223
120	0xbdefa666	-0.1170166
121	0xbd964abb	-0.073384725
122	0x3db51243	0.08841374
123	0x3dd3ddb1	0.10345019
124	0xbd891d03	-0.06694987
125	0xbccfc6ef	-0.025363414
126	0x3dd31c40	0.10308123
127	0x3d8e714a	0.06955202
128	0xbc7a99b4	-0.015295435
129	0xbce24a47	-0.027623309
130	0x3ced5be5	0.028974483
131	0xbdc59eff	-0.09649467
132	0x3bd984d8	0.0066381507
133	0x3b4047ac	0.0029339595
134	0xbe01ca25	-0.12674768
135	0x3e11995d	0.1421866
136	0x3cd8895f	0.026432691
137	0xbae03804	-0.0017106538
138	0xbd946de1	-0.0724752
139	0xbd31a285	-0.04336788
140	0x3d8b102c	0.06790194
141	0x3de1150a	0.10990341
142	0x3da0b8d6	0.07847755
143	0x3b4a0c09	0.0030829927
144	0x3db3b7b3	0.08775272
145	0xbc826509	-0.015917318
146	0x3d5abed4	0.053404644
147	0xbd31eb2e	-0.043437175
148	0xbd8cbdea	-0.06872161
149	0x3ddd1cf9	0.10796542
150	0x3daa4866	0.0831459
151	0x3dab3c55	0.08361117
152	0x3d1a05bf	0.037603136
153	0x3d14dd93	0.036344122
154	0x3df3e2aa	0.11908467
155	0x3da4923e	0.08035706
156	0x3ddf4254	0.10901323
157	0xbd3f87de	-0.046760432
158	0x3dece81e	0.1156771
159	0x3dbbe9d7	0.09175461
160	0xbcf55336	-0.029946905
161	0xbcb148bf	-0.021641133
162	0x3dec1d75	0.11529056
163	0x3d05f25f	0.032701846
164	0x3db5f8a7	0.08885317
165	0xbd874cfc	-0.066064805
166	0x3c2cb09a	0.010540152
167	0xbc0e550d	-0.00868727
168	0xbca3a0f4	-0.01997421
169	0x3ddfae6f	0.109219424
170	0x3d38584e	0.04500609
171	0xbce7a3ea	-0.028276403
172	0x3ded5419	0.11588306
173	0x3da99f9e	0.08282398
174	0xbdc603f7	-0.09668725
175	0xb99a83dd	-0.00029471415
176	0xbd9b0333	-0.075689696
177	0x3d7a92f1	0.06117529
178	0xbd78d82d	-0.060753036
179	0xbde9872a	-0.114027336
180	0xbd6d7ca5	-0.0579802
181	0xbbb77f35	-0.005599881
182	0x3ca53ecd	0.020171547
183	0xbd3395f5	-0.043844182
184	0xbd52166d	-0.05129092
185	0xbcba2b9d	-0.022725875
186	0x3cea90f1	0.028633567
187	0x3b89c47f	0.0042043324
188	0xbca9e52e	-0.020739164
189	0x3de0481f	0.10951256
190	0x3db67134	0.089083105
191	0xbdd18314	-0.10230079

enc_a.bias_hh_l0 f4 [192]
0	0xbb523884	-0.0032077143
1	0xbdd58dc3	-0.104274295
2	0xbd09614d	-0.03354006
3	0x3d1348a9	0.035957966
4	0xbdd2fddf	-0.10302328
5	0xbc2b5bf4	-0.010458935
6	0xbdb928d2	-0.09040989
7	0x3d2dc24b	0.04242162
8	0x3b1e6113	0.0024166747
9	0x3dcc0868	0.09962541
10	0xbcf0327f	-0.029320953
11	0xbdea46a9	-0.114392586
12	0x3c7dba76	0.01548635
13	0x3ddf5fe3	0.10906961
14	0xbdb80d48	-0.08986908
15	0x3df0df11	0.117612965
16	0xbe112e68	-0.14177859
17	0x3c95c48a	0.018282194
18	0x3da03821	0.07823206
19	0xbd62a3f7	-0.05533215
20	0x3d89323c	0.066990346
21	0xbdbc8624	-0.09205273
22	0x3e078944	0.13235956
23	0xbc93cfb0	-0.018043369
24	0xbd45f043	-0.048324835
25	0x3d92f962	0.07176472
26	0xbd99aaf8	-0.07503313
27	0x3d04c9a7	0.032418873
28	0xbd47a97a	-0.04874561
29	0xbd5d8901	-0.054085735
30	0x3d37f903	0.04491521
31	0xbd80ec2b	-0.062950455
32	0xbc1dc457	-0.009629331
33	0xbd80b46e	-0.06284414
34	0x3d06b488	0.03288701
35	0xbd8bfa53	-0.06834855
36	0x3bcbec20	0.0062232167
37	0x3dcca99f	0.0999329
38	0xbdbfac24	-0.09359005
39	0x3de2ebde	0.11080144
40	0xbd7c7892	-0.061638422
41	0xbd910e5d	-0.07082818
42	0x3cb76a07	0.022389425
43	0xbd1e113f	-0.038590666
44	0x3d9c4b82	0.076315895
45	0x3dae30b7	0.08505385
46	0xbd3cba8a	-0.046076335
47	0x3d307483	0.043079864
48	0x3dc1bbd5	0.09459654
49	0xbdf42799	-0.11921615
50	0x3caf51fd	0.0214014
51	0xbde81511	-0.11332143
52	0xbdbb5a9f	-0.09148144
53	0x3db18d4b	0.086695276
54	0xbd9c7c38	-0.0764088
55	0x3d238ed4	0.039931133
56	0xbd8e4404	-0.06946567
57	0x3c9cd59b	0.019144824
58	0x3df14bd3	0.117820404
59	0x3d39c9db	0.04535852
60	0x3dc7b61b	0.09751531
61	0x3dda951c	0.106729716
62	0xbcf6ea15	-0.030140916
63	0x3dffb556	0.12485759
64	0xbc73473d	-0.0148485275
65	0xbdb8c98b	-0.09022816
66	0xbd0e68a1	-0.03476775
67	0x3d5e1b54	0.05422528
68	0x3d5abf74	0.05340524
69	0x3dc28c86	0.09499459
70	0x3c0b514e	0.008503271
71	0xbdb6e491	-0.08930314
72	0x3da04c0a	0.07827003
73	0x3d35793b	0.044305068
74	0xbd667275	-0.0562615
75	0xbdccb803	-0.09996035
76	0x3d9d1d61	0.07671619
77	0x3c203627	0.009778536
78	0x3dab9475	0.08377925
79	0x3c0a99ed	0.00845955
80	0x3db29752	0.08720268
81	0xbdd71de8	-0.10503751
82	0xbdc70cb6	-0.09719221
83	0x3d59b0d0	0.053147137
84	0xbd0600b6	-0.03271552
85	0x3dbcc737	0.09217685
86	0x3e02faf0	0.12791038
87	0x3d6fe38b	0.05856661
88	0xbdae9d70	-0.085261226
89	0xbd4262ca	-0.047457494
90	0x3d8712d1	0.06595386
91	0xbd4f2097	-0.05056819
92	0x3cc119de	0.023571905
93	0x3de5bc93	0.11217608
94	0x3df6d5a6	0.12052469
95	0xbdc069df	-0.09395193
96	0xbc89e43c	-0.016832463
97	0x3dbaf7bf	0.09129285
98	0xbdb6ee5b	-0.089321814
99	0xbd95771d	-0.0729811
100	0xbcb514c6	-0.022104632
101	0x3d69c0f0	0.057068765
102	0x3dbde3bd	0.09271953
103	0xbd823390	-0.06357491
104	0x3dbce3c9	0.09223134
105	0xbd878288	-0.06616694
106	0x3d00a7f8	0.031410187
107	0x3e0d48cf	0.13797306
108	0x3dc8d616	0.09806459
109	0x3d554dea	0.052076258
110	0x3dbe8627	0.09302931
111	0xbdeae3f9	-0.114692636
112	0x3d67b4a4	0.056568757
113	0x3c20b873	0.009809601
114	0x3e03602a	0.12829652
115	0x3de6e77b	0.1127462
116	0x3d7b28ef	0.061318334
117	0x3dd3ec6a	0.10347827
118	0xbbc89a8d	-0.0061219395
119	0x3e009f40	0.12560749
120	0x3d486011	0.04891974
121	0xbdfab63f	-0.12241792
122	0xbcce64e9	-0.025194602
123	0x3d88a010	0.066711545
124	0x3d197a77	0.037470307
125	0xbdd9dc8a	-0.106377676
126	0xbc9e9f36	-0.019363027
127	0x3d77ea1a	0.06052599
128	0xbd3c5a40	-0.045984507
129	0xbdadea6c	-0.08491978
130	0xbdf13eb1	-0.117795356
131	0x3d58a41f	0.052890893
132	0x3d5abdd0	0.053403676
133	0x3d8f1525	0.06986455
134	0x3da813aa	0.082068756
135	0xbda87417	-0.082252674
136	0xbd41f185	-0.04734947
137	0xbb763ce7	-0.0037572922
138	0xbdb88e03	-0.090114616
139	0x3dda59aa	0.10661633
140	0xbba66a39	-0.0050785807
141	0x3be8b0f1	0.007101171
142	0xbd613de4	-0.054990664
143	0xbd8b5d9c	-0.06804964
144	0xbcc56fa4	-0.024101086
145	0xbd43ed3f	-0.047833677
146	0x3d8c3a87	0.06847101
147	0xbd8bb470	-0.06821525
148	0xbcf8ca01	-0.03036976
149	0x3c43cbd0	0.011950448
150	0xbd22c300	-0.039736748
151	0xbd70cdc3	-0.05878998
152	0x3ded12f2	0.11575879
153	0xbc5e0724	-0.013551507
154	0xbdb6e895	-0.0893108
155	0xbd4edb7d	-0.05050229
156	0x3d980a68	0.0742386
157	0xbdcd1a06	-0.10014729
158	0xbba409a3	-0.0050060316
159	0x3d7889e4	0.060678378
160	0xbd44160c	-0.047872588
161	0x3d94dff6	0.0726928
162	0x3e064f5a	0.13116208
163	0x3dae887b	0.08522125
164	0x3c07830e	0.008270992
165	0xbdc8fd62	-0.09813954
166	0xba94ac97	-0.001134294
167	0xbdddcb66	-0.10829811
168	0xbdb9ba3f	-0.09068727
169	0x3d8e7cad	0.06957374
170	0x3c9754de	0.018473085
171	0x3da9e58e	0.08295737
172	0xbdc431b1	-0.095797904
173	0x3d7be5cf	0.06149846
174	0x3d269a55	0.040674526
175	0xbd9df8ea	-0.07713492
176	0x3b0b74d9	0.0021279363
177	0x3bd77465	0.0065751546
178	0x3dae15bb	0.085002385
179	0x3d9b0421	0.07569147
180	0xbdc25161	-0.09488178
181	0xbd5c93d5	-0.05385192
182	0xbdc430a0	-0.09579587
183	0x3d36e898	0.044655412
184	0x3dbe3ea5	0.09289292
185	0x3de21459	0.11039037
186	0x3d53d29f	0.051714536
187	0x3dba7454	0.09104219
188	0xbb416b7c	-0.0029513529
189	0x3e12d45e	0.14338824
190	0xbbef1efe	-0.0072973957
191	0x3d4dd77f	0.05025434
