runs/run-20251101-141539/best_D.pt (torch, 84543 bytes, 7 tensors)

rnn.weight_ih_l0 f4 [192, 18]
000000 2f e1 f7 bd f0 62 86 3b 44 81 3b 3d e2 5e 9c bc
       -0.12103497 0.0041011497 0.045777574 -0.019088212
000010 94 0f 8b bd 91 40 db bd 59 ed 97 3c 3d 53 3d 3d
       -0.06790081 -0.107056744 0.018545793 0.04622196
000020 a4 32 b0 bd 43 7b 47 bd 36 7d 59 3d 86 41 bf 3c
       -0.08603409 -0.048701536 0.053097926 0.023346674
000030 e5 8b ff bd 20 b9 81 3d 65 08 b8 3d 60 2f 7e bd
       -0.12477855 0.06334138 0.08985976 -0.0620569
000040 1e 85 cc 3c 6b fb 70 3d b7 dd db 3b 28 89 d3 bc
       0.024965819 0.05883352 0.00670978 -0.025822237
000050 88 3b bc 3d 90 84 f3 bc e6 bf d4 3d 7d 57 e9 3d
       0.09191042 -0.029726297 0.10388164 0.1139364
000060 95 3a e7 bd 07 e9 8d 3d 11 65 90 3d 29 a2 e8 3d
       -0.112904705 0.06929212 0.07050527 0.113590546
000070 a0 35 8a bb 11 aa bc 3d f3 ff b6 bd 3e 6b 8c bd
       -0.0042178184 0.09212125 -0.08935537 -0.06856392
000080 71 bd 30 bd f5 88 f5 bc 74 38 b7 3b de d8 3d 3d
       -0.043149415 -0.029972533 0.0055914465 0.0463494
000090 fc b8 83 bb c8 cb b3 3c b0 7d fa 3c d2 ba 83 bd
       -0.0040198546 0.021947756 0.03057751 -0.064321175
0000a0 d6 4d dc 3c 17 4c 71 3d b4 f7 de bd a4 d1 78 3d
       0.026892584 0.058910456 -0.10887089 0.060746804
0000b0 a6 cd 70 3d 0f ea cc bd e7 7c 6d 3c 58 a3 3d 3d
       0.05878987 -0.10005581 0.014495111 0.046298355
0000c0 f5 c8 a7 3d 48 23 81 3d 11 f6 47 3d ab 97 ee bd
       0.081926264 0.063055575 0.04881865 -0.11650022
0000d0 09 a2 8e 3d c0 16 03 3e 6e 27 fb 3d 45 3f 9e 3d
       0.069644995 0.12801647 0.1226338 0.077269115
0000e0 16 17 cc bd dd 3f 31 3d 39 b8 ca bd 85 86 f3 3c
       -0.09965341 0.043273795 -0.09898419 0.02972723
0000f0 16 df d1 bc 52 92 d7 bd eb 25 e7 bd 2e b5 88 3c
       -0.025619071 -0.10525955 -0.11286529 0.016687956
000100 5c 61 bd 3d 82 55 7c bd bf aa 02 be 80 28 95 bd
       0.092470855 -0.061604984 -0.12760447 -0.072831154
000110 64 96 5b 3d fb c7 17 bd 6d 1a df bd c9 85 53 3b
       0.05361022 -0.03705595 -0.10893712 0.0032275787
000120 bd f8 03 bd 26 4f a8 3d d8 9e 89 bd 62 87 8e bd
       -0.032219637 0.08218221 -0.0671975 -0.06959416
000130 e4 64 25 3d 4b 1d bc bd 4d ef a3 bc bc 04 65 bb
       0.04037942 -0.09185275 -0.020011568 -0.003494545
000140 36 61 e8 3d 04 1f ba 3a cd d6 5c bb 2a 73 0c bd
       0.113466665 0.0014199917 -0.0033697367 -0.034289517
000150 23 c3 8d 3d dd 14 20 3d d2 c7 91 3a d2 15 be bd
       0.06921985 0.039082397 0.0011122173 -0.09281506
000160 ee b7 04 be 7a 56 b2 3b 7c b3 f1 bd 75 46 cb 3d
       -0.12960789 0.0054424377 -0.11801812 0.09925548
000170 43 a9 95 3c 2c 87 6f 3c ec 03 ba 3d 3a 19 58 3d
       0.018269187 0.01461963 0.09082779 0.052758433
000180 2e 8c 5c 3d db de 97 3c da 26 f4 bd c4 79 93 3d
       0.053844623 0.018538883 -0.11921473 0.07200959
000190 d5 67 08 be b2 20 e5 3d e9 06 a8 bd b9 cd a5 3d
       -0.13320859 0.11187877 -0.08204443 0.08095879
0001a0 e7 4d fe 3b 70 c2 22 bc a7 bf 15 bd 18 71 95 bd
       0.0077607515 -0.009934053 -0.036559727 -0.072969615
0001b0 0a 8a a0 bd 32 f3 1f bd 97 a2 2c 3d 72 bc 90 3d
       -0.07838829 -0.03905029 0.042147245 0.07067193
0001c0 0a ff a3 3d ae 8c e1 bd 29 65 0e bd 02 2a a9 3d
       0.08007629 -0.11013161 -0.034764443 0.082599655
0001d0 a7 36 9b bd 21 a4 a4 bd 0d a9 8b 3d 3a 06 41 3d
       -0.075787835 -0.080391176 0.06819353 0.04712508
0001e0 e1 39 87 bd 0d e2 92 bd bf ea d0 bd cd 05 26 3a
       -0.066028364 -0.07172022 -0.10201024 0.0006333262
0001f0 57 75 a8 3d 8a a4 b2 bd 95 d6 a4 3c ca c8 8e 3d
       0.08225506 -0.087227896 0.020121852 0.06971891
000200 93 55 b6 3d 5e e7 99 3d a2 24 6b 3d 0a 22 86 bd
       0.08903041 0.07514833 0.057407983 -0.06549461
000210 a6 01 16 3d 46 18 b4 3d 7c ab 81 bd 83 91 9d 3d
       0.036622666 0.08793692 -0.06331536 0.0769377
000220 23 b5 23 3c 65 3a ed bd da bf a9 bd 32 73 07 bd
       0.009991917 -0.115834035 -0.08288546 -0.033068843
000230 6c c6 f8 bd cb c6 f4 3d 89 1b 7e bd ed fa f2 bc
       -0.12147221 0.11951979 -0.06203798 -0.029660666
000240 85 23 07 3e 43 0a 3b bd cc 1b 90 3d 0c 16 eb bd
       0.13197143 -0.045664083 0.07036552 -0.114788145
000250 77 30 cb bc ec ee a2 bd a1 0a 94 3d fb 1a e1 3c
       -0.024803383 -0.07955727 0.0722859 0.027478686
000260 4c 2b f3 3d 6c 01 07 be ae 98 7b bc 43 c0 e5 3c
       0.118734926 -0.13184136 -0.015356226 0.02804578
000270 37 b2 a0 3d 88 21 6b 3d eb a4 47 bd 8f ba f2 3d
       0.07846492 0.057405025 -0.048741262 0.118519895
000280 1e 1b 50 bd c4 95 a3 3d 54 70 12 be 49 15 f9 3d
       -0.05080711 0.0798755 -0.14300662 0.12162263
000290 e5 cf 11 3e cf c2 c0 bd bc c5 c8 3d d8 ce 32 3d
       0.14239462 -0.09412157 0.0980334 0.043654293
0002a0 a9 05 04 bc ba f1 8c bd c3 90 0e 3d 71 b3 09 3e
       -0.00805799 -0.06882043 0.034806024 0.13447358
0002b0 22 c2 26 3c 3e b9 f5 3d 07 ff c5 3c a9 2b 3d 3d
       0.010178121 0.11998223 0.024169458 0.046184216
0002c0 13 6d db bc 6d 5e 2d 3d ae d0 97 bd 72 7f 11 3d
       -0.02678541 0.04232638 -0.07412849 0.035521932
0002d0 a7 41 14 bc ce c8 c6 3d 90 01 73 3d 46 e3 88 3d
       -0.009048856 0.09706269 0.059327662 0.06683974
0002e0 52 d0 71 bd 5d a1 30 bd 50 21 91 bd bf de 8f 3d
       -0.05903656 -0.043122638 -0.07086432 0.07024907
0002f0 2e bc cf 3d 2d 86 bc bd 45 84 99 bb 2c 7f c7 bd
       0.10143314 -0.092052795 -0.004684957 -0.09741053
000300 21 5c d3 bd 1c ca 93 3d 08 17 c2 3d 5c 7d 50 3d
       -0.103203066 0.07216284 0.09477049 0.050900802
000310 a6 0b 50 3d ce c0 6e bc fd 6f dd bd 1e cf 92 bd
       0.05079236 -0.014572335 -0.10812376 -0.07168411
000320 ad 7e f4 bd a6 3f 7b 3d 87 f5 c6 bd 4f 4b d7 bd
       -0.11938224 0.061339997 -0.097147994 -0.10512411
000330 8e a2 aa 3d e3 7e 05 3d 9c 05 e8 3b 45 7e d8 bd
       0.08331786 0.03259171 0.007080747 -0.10570959
000340 4a 0e b9 bd f0 48 fb bb 1f c1 e5 bd f8 42 63 bd
       -0.090359285 -0.007668607 -0.112184756 -0.05548379
000350 ee 52 36 bd 0f 01 9b bd 78 1a fc 3c 1b 83 3e bd
       -0.04451268 -0.07568561 0.03077434 -0.04651175
000360 30 93 9c bd 6f 1b 38 bd ea a2 d8 3c c6 6a 05 3d
       -0.07645261 -0.044948038 0.026444871 0.03257253
000370 d5 85 b6 3d 1b 1a e0 bd 66 c4 e3 3d 7b a7 e2 3d
       0.08912245 -0.10942479 0.111214444 0.110671006
000380 3c 80 cf bc 97 3f 1f 3d 07 d0 97 bd d7 d6 af 3d
       -0.025329702 0.038879003 -0.07412725 0.08585899
000390 7c 80 a6 bc ce f2 3b bd 13 c2 da bd 33 08 9c bd
       -0.020324938 -0.045885853 -0.10681548 -0.076187514
0003a0 c5 d2 3d bd 9f 7e 40 3d cb ec 46 bd e7 0d 34 3d
       -0.046343584 0.046995755 -0.048565667 0.04395857
0003b0 bb fb 45 3d b7 2f 03 be 2b cf 59 3d 38 95 90 3c
       0.048335772 -0.1281117 0.053176086 0.017649278
0003c0 87 f7 61 3d 72 13 e7 bd 08 c6 08 3c 4f 17 60 3d
       0.0551677 -0.11283006 0.008347996 0.05470973
0003d0 06 f8 00 3c 4a 0b b4 3d 76 a8 9a bd 2e f6 21 3d
       0.007871633 0.08791216 -0.075516626 0.039541416
0003e0 04 d4 f5 3d b9 1f 4a bd 57 2d f1 3c 77 8a db 3c
       0.120033294 -0.04934666 0.029440565 0.026799424
0003f0 ed f6 8d bd a7 25 6f 3d 5b 13 61 3d c3 3c 19 bd
       -0.06931863 0.058385517 0.0549501 -0.037411463

rnn.weight_hh_l0 f4 [192, 64]
000000 b8 dc fe bd bc d8 ca 3c e1 12 06 bd 83 83 4c 3d
       -0.124444425 0.02476155 -0.032732848 0.049930107
000010 56 b9 c4 3d b4 97 c2 bd 79 ca ae bd 0a ab b8 3d
       0.096056625 -0.09501591 -0.08534712 0.09016998
000020 2c 77 9f 3d 25 02 cf 3d 59 b1 1d 3d d7 c3 94 3d
       0.07786402 0.10107831 0.03849921 0.07263916
000030 18 6a ed 3d a1 85 da 3c 51 62 3e 3d 3f 66 83 3c
       0.115925014 0.026675047 0.04648048 0.016039966
000040 f7 2e e8 3d fd e8 0c 3c 57 6a 7c bd a1 35 9d 3c
       0.11337083 0.008600471 -0.06162485 0.019190611
000050 a2 c5 f2 bd 3a af ae 3d bb 69 41 3d 68 81 b9 bd
       -0.11854102 0.085295156 0.047219973 -0.090578854
000060 c8 8f 13 3d 2a 61 6e bd fe 20 9b 3d c5 da ff bd
       0.036025792 -0.05819813 0.07574652 -0.12492899
000070 56 03 05 be d2 73 e2 3d 62 0f b4 bd f8 1d 53 3d
       -0.12989554 0.11057247 -0.087919965 0.051542252
000080 8d 4d d0 3d 75 e8 82 bd a4 ce cd bc 79 8a 93 bc
       0.10171042 -0.06391994 -0.025122948 -0.018010365
000090 15 d4 f6 3d a3 b7 41 3d b9 8a ee 3d 62 ef ae 3d
       0.1205217 0.04729427 0.11647553 0.085417524
0000a0 8c fe d9 3c 52 50 34 bd 2b 6b fa bd 85 2a c9 3d
       0.026610635 -0.044021912 -0.12227472 0.09822563
0000b0 db b4 d3 3d 6a ba 76 3c 4d 68 d2 3b 28 0d a5 bd
       0.1033723 0.015059093 0.006421125 -0.0805915
0000c0 d7 fc f7 3d d5 21 ec 3d 39 41 e2 bd d0 f8 41 bd
       0.12108772 0.115298904 -0.110475965 -0.047356427
0000d0 4a fb ba 3d cf 4b a9 bc a2 cc 83 bc 6d ca 43 bd
       0.09129961 -0.020666031 -0.016088787 -0.04780047
0000e0 4e 10 1b 3d 07 ab c6 bc d0 94 24 3d f4 38 73 3c
       0.037857346 -0.024251474 0.04018098 0.014845122
0000f0 88 dc d2 bc 82 cd d5 3c b2 87 b2 bc 80 66 f7 bd
       -0.025739923 0.02609897 -0.02179322 -0.12080097
000100 1e 1d 00 3d 4c 71 17 bc bb 09 3a bd bf 6e 8a bd
       0.03127777 -0.009243321 -0.045419436 -0.067594044
000110 a7 b5 63 3d 6c 11 74 bd 5c d4 53 bd 8d 0e b9 bc
       0.05559316 -0.059586927 -0.051716194 -0.022589946
000120 99 e4 19 3c 70 3b 5a bc 4a e8 05 bd 69 d9 e9 bd
       0.009392881 -0.013319835 -0.03269223 -0.11418421
000130 d9 93 6b bd 7e dd b4 3d dd 36 ed 3d 5f 0f b2 bd
       -0.057514045 0.08831309 0.1158273 -0.08694338
000140 91 90 d3 bd d2 ec ae bd 43 b9 b4 bc 76 51 cc 3c
       -0.10330308 -0.08541264 -0.022060996 0.024941187
000150 88 54 d4 bd 9f 33 bc bd f4 7a 63 bd 64 56 44 bd
       -0.103676856 -0.091895334 -0.05553718 -0.04793395
000160 cb 72 ea 3d 6c e5 51 bd 7d c0 91 bb 39 06 7c bd
       0.11447676 -0.051244184 -0.004447995 -0.061529372
000170 d0 e0 c3 bd e5 29 d6 bd c0 b4 af bd 6c 62 f2 bd
       -0.09564364 -0.104572095 -0.08579397 -0.11835179
000180 15 16 e4 bc 88 47 47 3d 69 b0 cf bc c1 9d e4 3b
       -0.02784256 0.048652202 -0.025352674 0.0069768135
000190 c2 5b ae 3d e1 38 86 3d 1d b8 76 bd 66 9e 96 3c
       0.08513595 0.065538175 -0.060234178 0.018386077
0001a0 36 01 95 3d a0 25 83 bd c0 0f 3f 3d c3 4d f7 3d
       0.072756216 -0.06403661 0.04664588 0.12075379
0001b0 06 22 f5 bd cd 56 64 3d fd ea 3b bd c0 2f 79 3d
       -0.1196938 0.055746842 -0.0458784 0.060836554
0001c0 9c 3d cb 3b 0c 58 81 3d c0 76 33 bd 9f 35 d3 3d
       0.006202413 0.06315622 -0.04381442 0.10312962
0001d0 73 2f f6 3d 72 83 bc 3d 36 b5 fc 3d 6f e6 5c 3d
       0.12020769 0.09204759 0.12339251 0.053930696
0001e0 fb f4 f6 bd b1 4f 8d 3d 3b 84 fb bc 03 1c ad 3d
       -0.12058445 0.068999656 -0.0307027 0.084526084
0001f0 49 4d ca 3d ae cb 4a bd 8c 06 6f bd d9 37 f9 bc
       0.09878022 -0.04951065 -0.058355853 -0.030422138
000200 43 5f b0 3d 00 35 28 3d b3 12 d8 bd cb 43 85 3d
       0.0861192 0.04106617 -0.105504416 0.06507071
000210 b4 08 97 bd ea c1 97 3d 0a a6 c2 3a a3 e9 d4 3d
       -0.07374707 0.07410033 0.0014850509 0.10396125
000220 e9 f9 65 3c 56 af 16 3d fe 46 39 3c fc 86 89 bd
       0.014036634 0.036788307 0.01130843 -0.06715199
000230 c5 59 e5 3d 15 94 03 3d 95 27 e4 bc 6b 7f ce 3c
       0.11198763 0.032123644 -0.027850905 0.025207242
000240 f7 4d b4 bd 69 a0 48 3d fa ba e6 3d cd 68 d7 bd
       -0.08803933 0.048981104 0.11266132 -0.10518036
000250 f3 dc ec bd 57 8a 84 bd 37 dc 9a bd 2a 7b 92 bd
       -0.1156558 -0.06471699 -0.07561534 -0.07152398
000260 a8 fb d2 bd d7 ad f0 bc 59 53 e7 3c 08 a7 ba 3c
       -0.10301906 -0.029379768 0.028237985 0.022784725
000270 c8 bd bb bd ce db ee bd b3 59 c5 3d d0 13 15 bd
       -0.09167057 -0.11663018 0.096362494 -0.036395848
000280 f7 63 9f bb 89 19 d6 bd ff 1b ab bc be b6 c6 3d
       -0.0048642117 -0.10454089 -0.020887373 0.09702824
000290 79 d7 2a bd 4b ea 03 bd 6e 08 f1 bd c8 66 03 3e
       -0.041709397 -0.03220586 -0.11769186 0.12832177
0002a0 b9 07 01 3d b6 e2 91 3d f3 c5 a5 bd 16 1d b2 3d
       0.031501506 0.0712332 -0.080943964 0.08696954
0002b0 12 ce 0b bc 7c 6c b4 bd c1 2d 13 3d 0a a2 d7 3c
       -0.008533018 -0.08809754 0.035932306 0.026322383
0002c0 a8 c7 8f 3c 81 91 a7 bd 7a 2d 09 bd 8f e7 73 3d
       0.017551258 -0.081820495 -0.033490635 0.059547003
0002d0 ee 15 d3 3d a3 ab 74 3c 1c be 79 3d 87 ae c6 bd
       0.10306917 0.0149334995 0.060972318 -0.09701257
0002e0 eb 60 8b 3c 47 9b c9 bd c0 8c 27 3c 03 47 af bc
       0.017013988 -0.0984407 0.0102264285 -0.021396166
0002f0 b7 ac fa bc fc 6a 72 bd c5 ba 3a bc d0 04 04 3d
       -0.030599935 -0.05918406 -0.011397068 0.032231152
000300 0f e7 55 3d 85 07 84 bd c0 22 eb bc b4 20 89 b7
       0.052222308 -0.06446747 -0.028703094 -1.6346901e-05
000310 67 62 8e 3d 63 05 9c 3c 7f ba 20 3c 90 3d 0b bd
       0.069523625 0.019045537 0.009810089 -0.033994257
000320 01 17 ad bd d5 5e 52 3d 5e 8e 94 bd d0 0c 86 3d
       -0.08451653 0.05135997 -0.07253717 0.065454125
000330 7c 90 46 3d 8a 42 89 bd eb 83 4a bd 8d 5c 6f 3d
       0.048477635 -0.067021444 -0.049442213 0.058437873
000340 79 e5 42 3b fa 16 bf bd 2c 59 b9 3c d7 a4 ba bd
       0.0029738827 -0.09330554 0.022625528 -0.09113472
000350 a5 52 9d bb d6 4f 36 bd de 31 d1 bd 31 e5 02 be
       -0.0048011118 -0.04450973 -0.102145895 -0.12782742
000360 76 58 a1 3d f4 73 fb bc 0a bc a9 bc aa 80 45 bd
       0.07878201 -0.03069494 -0.020719547 -0.048218407
000370 f2 fa 68 3d f3 7e c1 3d 62 4d 96 3b 78 7e d5 3b
       0.056879945 0.09448042 0.0045868615 0.0065153204
000380 5a 6c de bd de 09 cb bd c6 67 c0 3d 95 dd 82 bd
       -0.1086051 -0.099139914 0.09394793 -0.0638992
000390 7d 3b aa bc 05 97 de 3d 72 c5 e3 3c b1 ea 98 bd
       -0.02078032 0.108686484 0.02780411 -0.07466639
0003a0 08 16 ce 3d 19 d6 18 3d 5c 98 e4 bd bf 0d ec 3d
       0.10062796 0.037313554 -0.11161873 0.11526059
0003b0 91 d5 d2 bc 36 e1 bc 3d 78 4e 9d 3d f5 91 cf bd
       -0.025736602 0.09222643 0.07680982 -0.10135261
0003c0 ba ae 2b 3b 5e 9a 92 bd 59 c1 93 bb 29 03 f8 3b
       0.0026196674 -0.071583495 -0.004509133 0.007568736
0003d0 d5 69 b5 3d fd 1b 18 bd 68 16 3b bd b8 a3 80 bc
       0.088580765 -0.037136067 -0.045675665 -0.015703067
0003e0 fb c2 8a bc f3 e1 f6 3c c6 d9 36 bc 95 f4 a0 bd
       -0.016938677 0.030137038 -0.01116032 -0.0785915
0003f0 80 71 83 bd 9a 5f 1f bd 30 42 92 3d 50 83 b0 bd
       -0.06418133 -0.038909532 0.071415305 -0.08618796

rnn.bias_ih_l0 f4 [192]
000000 c2 5b 8a 3b a0 f6 cb 3d b5 35 9b 3d f7 90 8c bd
       0.004222364 0.09959149 0.07578603 -0.06863587
000010 a3 ab 96 3d c8 10 c4 bd b9 ad e1 3b 78 ca ff bc
       0.07356956 -0.09573513 0.0068871644 -0.031224474
000020 5e fc c1 3a 9b 26 4f 3d a0 3d c4 3c 1a b7 ad bd
       0.0014799943 0.050573926 0.023955166 -0.084821895
000030 60 fc 8c 3d ec 1d c9 3d 03 1c ca bd 83 2a 7d 3b
       0.06884074 0.0982016 -0.09868624 0.0038630075
000040 26 fd 63 bd e8 1e 9f bc a7 ca b6 3c b9 c3 ca bc
       -0.055661343 -0.019423917 0.022313429 -0.024751531
000050 88 23 09 3e d2 f5 d3 3c bc b7 1c bd a2 df 96 bc
       0.1339246 0.025874052 -0.03826116 -0.018417183
000060 85 81 d5 3d bc 34 c1 bd 2b 1e 3e bd ef ea b7 3c
       0.104250945 -0.094338864 -0.04641549 0.022450892
000070 63 8e b2 bd ae 31 b8 bd 2c c1 e3 3b 6a 76 a0 bc
       -0.08718564 -0.08993851 0.006950518 -0.019587714
000080 cb ef ff 3d 81 2d 8f 3d 55 e8 f1 3d 15 48 2d bd
       0.12496909 0.06991101 0.11811892 -0.04230507
000090 3f e9 d8 3d 27 e9 8a 3c 21 92 5b 3a 56 c8 be bd
       0.10591363 0.016956879 0.0008375962 -0.09315555
0000a0 4c 58 e9 3d 35 d5 aa bd b2 e8 76 bd f6 8a f9 3d
       0.113937944 -0.08341447 -0.06028051 0.12184708
0000b0 38 12 90 3d cb b1 8e 3c d5 e6 02 3e 72 24 a3 bd
       0.07034725 0.017418763 0.12783368 -0.07965936
0000c0 3c 5b df bb 2a e9 83 bc a7 ca f9 bd 48 80 58 bb
       -0.006816296 -0.016102392 -0.12196856 -0.0033035446
0000d0 28 b1 e7 bd e0 d9 b5 bc 1b 1e 84 3d 89 da 9e 3d
       -0.11313087 -0.022198617 0.06451055 0.07756526
0000e0 3d 36 89 bc c2 8e 1d bd 18 58 9d bd 58 76 bc 3d
       -0.016749496 -0.038466223 -0.07682818 0.0920226
0000f0 16 55 8f 3d 27 38 f2 3c 7b 37 0e bd 32 29 04 3e
       0.06998651 0.029567791 -0.03472088 0.1290634
000100 25 89 8a bc aa 30 12 bd 2c 17 37 3d 02 3f e4 bd
       -0.016911099 -0.03569094 0.044699833 -0.1114483
000110 0b 5e 8e 3d 1d f1 80 3d 34 30 b6 3d 12 e6 87 3b
       0.06951531 0.06295989 0.08895913 0.0041472996
000120 85 79 03 3d 56 3f 8f 3d 99 6b 97 3d c7 7d 53 3d
       0.032098312 0.06994502 0.073935695 0.051633622
000130 d7 fb d2 3d c3 74 a5 bd 19 03 18 3d 09 b1 3c bc
       0.10301941 -0.08078911 0.03711233 -0.011516818
000140 a8 7c 91 bd ec 3c 86 3c ae c4 e0 3d 18 d2 e9 bc
       -0.071038544 0.016386472 0.10975014 -0.028542563
000150 a6 f0 5b 3a 7c 2b a4 3d af 78 86 bd 03 47 97 bd
       0.00083900464 0.080161065 -0.06565987 -0.07386591
000160 12 fe 9c 3d 5d ea f3 bd d4 81 dd 3b 0b ee 2f bd
       0.076656476 -0.119099356 0.0067598615 -0.042951625
000170 a9 4a 6b bd 97 39 d3 bd 00 98 df 3d 80 19 ab bd
       -0.05744425 -0.10313719 0.109176636 -0.08354473
000180 a7 53 cc bd cd 03 da 3d 76 11 cb 3d dc 41 8a 3c
       -0.09976893 0.10645256 0.0991544 0.016877107
000190 2c 91 8f bd 3b 39 ca bd 1b fb 0b 3d 59 4d c1 3d
       -0.07010111 -0.09874197 0.03417502 0.09438581
0001a0 98 e3 1a bb e2 88 a4 3d 57 70 1d 3d ec 07 d5 3b
       -0.0023634192 0.08033921 0.038437214 0.0065011885
0001b0 71 ba 2e bd 06 a7 d9 3c 23 f9 88 bc 8f 5f 66 3d
       -0.042658273 0.0265689 -0.01672036 0.056243476
0001c0 33 e1 9b bc 59 2b d3 bd b8 de 05 3d 73 7e f4 bc
       -0.019028282 -0.10311002 0.032683104 -0.029845452
0001d0 b6 e3 b1 3b 98 56 90 3d a8 2a 0e bd bd a0 33 3d
       0.0054287566 0.070477664 -0.03470865 0.043854464
0001e0 97 0d 86 3d 8b 56 05 3c e5 66 e8 3d fb 75 ea 3d
       0.06545561 0.008138309 0.113477506 0.11448284
0001f0 23 0e f8 bd 2e 42 52 bd c7 64 b7 3d e3 16 a5 3d
       -0.12112071 -0.051332645 0.08954769 0.08061006
000200 90 72 ca bc 2d 96 9a bd bd 73 a6 3c 0f 7f f4 bd
       -0.02471283 -0.07548175 0.02031886 -0.11938297
000210 79 40 5a bd e1 66 07 bd cd d6 3f bc 10 d4 bc 3d
       -0.053284142 -0.033057097 -0.011708927 0.09220135
000220 e3 ae ca bd d6 05 5e 3d a4 f7 ef 3d 7f 53 23 bd
       -0.09896638 0.054204784 0.117171556 -0.03987455
000230 39 54 93 bc 21 7c 09 bd 69 67 c9 3d 5c 3b 91 bd
       -0.017984496 -0.033565644 0.09834177 -0.070914
000240 0a 7f 84 bd 38 10 d3 bd 3e 61 54 3d b1 51 b5 bd
       -0.06469543 -0.10305828 0.05185055 -0.08853472
000250 69 72 ab bd 5c 83 b6 3d d9 f4 3f bd 75 c2 f0 3d
       -0.083714314 0.089117736 -0.046864364 0.1175584
000260 ad 3c bb 3c 24 5f ab bd ce 12 f1 3d 77 39 60 bd
       0.02285608 -0.08367756 0.11771165 -0.054742303
000270 cf f4 31 bd 85 05 9b bd 50 83 cc bd 61 32 01 bb
       -0.04344636 -0.07569412 -0.09985983 -0.0019713866
000280 92 6f 69 3c d3 d7 80 bd e9 62 e9 bd d7 ef 99 3d
       0.014247792 -0.06291165 -0.11395819 0.07516449
000290 52 79 fc bd 92 ce e9 bc 38 42 57 3d 5b 6b e5 bd
       -0.123278275 -0.028540883 0.052553385 -0.11202117
0002a0 20 51 a4 bd e5 3a 97 3d 7b d2 ee bc 5f 61 8b 3d
       -0.08023286 0.0738428 -0.0291531 0.068056814
0002b0 d9 14 b8 bc 4f e6 e4 3d 9c 8f b4 bb 25 bb c0 bc
       -0.022470878 0.111767404 -0.0055102836 -0.023526737
0002c0 ba c5 e2 3d 75 43 a0 3d fd f8 bc 3c 9b 3c 9f bd
       0.110728696 0.078253664 0.023067946 -0.077752315
0002d0 4e a3 88 3d e1 80 a1 bd 6d 30 76 3d fb 59 46 3c
       0.06671773 -0.0788591 0.060104776 0.012106414
0002e0 46 cf cd 3d 05 8e 62 bc ac 06 18 3d c5 0b 97 3c
       0.100493 -0.013827805 0.037115738 0.01843823
0002f0 81 01 c5 bd 14 89 c6 3c 89 29 ae 3d f0 88 8e bd
       -0.096194275 0.024235286 0.08504016 -0.069597125

rnn.bias_hh_l0 f4 [192]
000000 fd 29 d3 bd 62 d0 6c 3d ff fc 12 bd 8d 45 df 3d
       -0.10310743 0.057815917 -0.035885807 0.10901938
000010 ba f3 4b bd 76 7b 04 be 7d 8e cb 3d d0 85 1c bc
       -0.049792983 -0.12937722 0.09939287 -0.009553388
000020 f1 74 0a 3a 26 5f d5 3c f8 38 cb 3c 2e 4a df bd
       0.0005281708 0.026046347 0.024807438 -0.109028205
000030 df 9a 96 bc 22 72 88 3d 61 8d a7 3d de 51 aa bd
       -0.018384395 0.06662394 0.08181263 -0.08316396
000040 02 cd f0 3d 7f c4 e9 3d 7c 5a c7 3b e0 49 a4 3b
       0.11757852 0.11414432 0.0060837846 0.0050136894
000050 53 2a 21 bd 3a 82 eb 3c 37 90 db bd c4 03 29 3d
       -0.039347004 0.02874862 -0.10720866 0.041263357
000060 cc 4f 38 3c b0 18 b1 bd 43 70 cb bc 1e 0a 71 bd
       0.011249494 -0.08647287 -0.024833804 -0.05884754
000070 6a 35 0a 3d 7d 30 b5 3b f3 f0 cd bd 5c 21 1d 3c
       0.033742346 0.005529462 -0.10055723 0.009590473
000080 e6 5a bf bd 7f 29 49 bc 61 b8 ea 3c 8b 7e 25 3d
       -0.093435094 -0.01227796 0.028652372 0.040403884
000090 c7 10 a8 3d 83 a3 da 3a f2 b4 e1 ba f6 29 68 3c
       0.08206325 0.001668081 -0.0017220064 0.0141701605
0000a0 64 cd 97 3d 3e 6d 21 bd b3 d7 46 3c 97 1c c6 3d
       0.07412222 -0.039410822 0.012136388 0.09673422
0000b0 b6 21 2a bc 1c 41 9d bd 78 52 41 3d a3 5a ca bb
       -0.010384014 -0.07678434 0.04719779 -0.0061753555
0000c0 13 77 2b 3d 21 12 c4 bd 62 62 1b bd 98 6f 01 be
       0.041861605 -0.0957377 -0.037935622 -0.12640226
0000d0 16 55 bb 3d da 44 8a 3d 4a 8f 92 bd b3 f2 8a 3d
       0.09147088 0.06751414 -0.071562365 0.067845725
0000e0 7e 08 99 bc 16 93 b1 bd 04 4d 05 3e a4 82 6f 3d
       -0.018680807 -0.086706325 0.1301766 0.058474198
0000f0 ca df 16 bd aa 94 67 bd 33 5a 47 bc d8 07 33 3d
       -0.036834516 -0.05653826 -0.012167501 0.043708652
000100 fa 6b c0 bd 22 45 68 bd 08 c7 39 bd 8c da 3c 3d
       -0.09395595 -0.056706555 -0.045355827 0.04610686
000110 79 48 bf 3d aa 28 24 3d c7 3c 8c 3c c3 fb d6 bc
       0.09339995 0.040077843 0.017118825 -0.026243096
000120 e7 15 2e bd 9c 6a d8 bd 11 df e7 bd b9 01 9d 3d
       -0.042501356 -0.10567209 -0.113218434 0.07666344
000130 0b 09 ac bc af de e3 bd 0b 4e fa 3d 33 44 d1 ba
       -0.021000406 -0.11126458 0.12221917 -0.001596576
000140 cc bd 16 bd 33 ae 63 3d d2 36 c3 bd 40 b1 a8 bd
       -0.0368021 0.05558605 -0.095319405 -0.08236933
000150 0c 82 cd 3d 7b 5e 36 bd a6 4a b8 bb 20 64 6e bd
       0.1003457 -0.044523697 -0.005624133 -0.058200955
000160 a6 27 f7 bd 2d 47 a8 3d 2f 40 fb bd 63 50 18 bc
       -0.12068109 0.08216701 -0.122681014 -0.009296509
000170 57 b1 ce bd ec 98 d9 3c 68 98 d0 bd d6 3f c4 bd
       -0.10092419 0.026562177 -0.10185319 -0.09582488
000180 b1 e5 9e bd b6 73 ef bc d0 a5 a7 3d 54 50 ec bc
       -0.07758654 -0.02922998 0.08185923 -0.028846897
000190 66 4f d6 3d f3 98 ad bd d7 10 90 3d 8a c4 12 bb
       0.10464363 -0.084764384 0.07034462 -0.0022394978
0001a0 a1 98 e4 bc 6e 8a c6 bd 80 71 6d b9 e5 03 cd 3c
       -0.02790481 -0.09694372 -0.00022644363 0.025026271
0001b0 63 2f 45 3d e3 5b 2a bc dd 26 92 bd 1f 4a 8d 3d
       0.048140895 -0.010397884 -0.07136319 0.06898903
0001c0 4b 1e 95 3d e4 7d c2 bc 7d 58 86 3d 6c 83 42 bd
       0.072811686 -0.02374167 0.065598466 -0.047488615
0001d0 22 0e d2 ba 07 60 06 3d f0 a8 55 bb 5c 41 ea 3d
       -0.001602594 0.032806423 -0.0032601915 0.114382476
0001e0 db cd ec bd a5 0a 47 bd 68 db 3a bd d2 fb b5 3d
       -0.11562701 -0.048594136 -0.0456194 0.088859215
0001f0 fd b6 27 3c ca 10 01 3c 52 0b c2 bc 13 f2 45 3d
       0.010236499 0.007877538 -0.023687039 0.048326563
000200 f0 8b 5c 3d 38 40 b2 bc cb 78 05 3d 4a 17 a7 bc
       0.053844392 -0.021759138 0.0325859 -0.020396847
000210 a4 f9 ae 3c 75 48 fa 3c c2 4b 44 bd a8 0d 45 3d
       0.021359272 0.030552128 -0.04792381 0.048108727
000220 d4 9d fd bd 72 7e 60 3d 51 9b e4 bc b6 66 a8 bb
       -0.12383619 0.054808088 -0.027906092 -0.005139197
000230 c2 9b d8 3d 21 f5 eb 3d 7d c3 fd 3c 65 5f db bd
       0.105765834 0.11521364 0.030977005 -0.107115544
000240 e2 c4 ea bc fa 03 a2 b9 7c c3 02 bd d8 b9 7b 3d
       -0.028658334 -0.0003090201 -0.03192471 0.06145653
000250 90 70 96 3c 9d 60 b1 3b 87 85 59 3c ee bb d6 3d
       0.01836422 0.0054131285 0.013276464 0.104850635
000260 d5 ba f1 3d 19 53 c8 bd 9a 9d b9 bd d4 72 38 3d
       0.118032135 -0.097814746 -0.09063263 0.045031384
000270 50 57 df bd 71 94 39 bd 1a b5 fb 3d 25 d4 ee bd
       -0.109053254 -0.04530758 0.12290402 -0.11661557
000280 af e5 5c bd e3 1a 53 bd d6 ed 24 bd 55 61 b3 bd
       -0.05392998 -0.051539313 -0.04026588 -0.08758799
000290 41 df 1c 3d a6 2e 24 3d cc 57 74 3d af 1e c4 3d
       0.03829885 0.04008355 0.059654042 0.09576165
0002a0 7d 5a d9 3d 76 f6 fa bd 89 83 f6 3c c0 d2 87 bd
       0.106129624 -0.1225404 0.030092018 -0.06631994
0002b0 37 04 e5 bd 7a 93 70 bd ad dc f5 bc 23 d9 66 bd
       -0.111824445 -0.058734395 -0.030012453 -0.05635942
0002c0 0b 5e f9 3d 94 8c ca bd ec 2d b1 3d 44 f0 a9 3d
       0.121761404 -0.098900944 0.08651337 0.0829778
0002d0 ee 8b f0 3d e8 e0 90 bd b8 eb c4 3c 4a d6 1a 3d
       0.117454395 -0.070741475 0.02403818 0.03780202
0002e0 6b 0d f2 3d f8 16 36 bd d2 e7 2f 3d 86 81 fd 3d
       0.118189655 -0.0444555 0.04294569 0.1237822
0002f0 17 8a b5 bc fa f4 8f bd 8f 74 f5 3d a5 3d a9 bc
       -0.022160573 -0.070291474 0.119851224 -0.020659277

head.0.weight f4 [64, 64]
000000 21 aa a2 3d 32 4b 26 3d c3 65 04 bd 3e 4c 27 3d
       0.07942606 0.040599056 -0.03232361 0.040844195
000010 bb 22 8f 3d 0a a3 d7 bd cc 3e 9d bd 45 d2 f8 3d
       0.06989046 -0.10529144 -0.07677993 0.12149481
000020 6e c2 8e 3d 72 0c 85 3d d1 0a 1a 3d 5c 9a 21 3d
       0.06970678 0.064965144 0.03760797 0.03945385
000030 0f c8 c8 3c 8d e0 a8 3c ba 78 b1 3c 55 94 03 be
       0.024509458 0.020614887 0.021664012 -0.12849553
000040 80 7b 67 3c fc 1d d7 3d 5d 0a 00 3e 77 3b 85 3d
       0.014128566 0.10503766 0.12503953 0.06505483
000050 a4 31 d8 3c d5 02 bc 3d 78 a7 27 3d c5 a8 c4 bd
       0.026390858 0.09180228 0.040931195 -0.09602503
000060 37 06 c4 3d b1 29 e2 bc 4c 52 2a bd b9 b0 ce bc
       0.09571498 -0.02760777 -0.04158239 -0.025230752
000070 65 07 c9 3d 64 48 c3 3b f9 f1 c1 bd 40 c6 12 3d
       0.098158635 0.0059595574 -0.09469981 0.035833597
000080 d9 5d d9 3c 01 ee cf 3d 65 2a 94 bd 36 8f c3 3c
       0.026534008 0.101528175 -0.072346486 0.023872
000090 f5 19 b8 3c 68 8f bc bc 84 db 45 bd cc 98 85 bd
       0.022473315 -0.0230176 -0.04830505 -0.06523284
0000a0 95 27 ae 3d 69 4a d1 3c 2e 2d 7a bd ef 5f 67 3d
       0.085036434 0.025548177 -0.061078243 0.056487974
0000b0 53 c7 03 be f3 59 20 3c 15 88 cc 3d 68 49 e7 bb
       -0.12869005 0.009787071 0.09986893 -0.0070583113
0000c0 f6 2d 18 3d c8 fc fc bc 1c 43 86 bc a9 82 01 3e
       0.037153207 -0.030882254 -0.016389422 0.12647499
0000d0 66 66 96 3d e8 35 13 3a c2 82 93 3c bf a3 06 be
       0.0734375 0.00056156376 0.018006686 -0.13148402
0000e0 48 a5 15 bc 74 1f 97 bd a5 ce 7a ba 93 ed e5 ba
       -0.009133644 -0.07379046 -0.00095675356 -0.0017542116
0000f0 94 bc eb bd f1 fb 0e ba 80 79 12 3d 3d a1 20 bd
       -0.11510578 -0.00054544123 0.035760403 -0.03921627
000100 a0 fa 06 3d 7c 7e d9 3d b0 16 e1 3c 60 64 29 3d
       0.03295386 0.10619828 0.027476639 0.04135549
000110 aa 3f d2 3d ac fc f0 3d 78 ce 2b 3d e6 07 f9 bd
       0.10266049 0.11766943 0.04194495 -0.1215971
000120 e0 a9 9d bc a2 d4 85 3d 50 4b b5 3d 5c c3 3e bd
       -0.019246042 0.06534697 0.08852255 -0.046573028
000130 fc fc c1 bd c8 ad b2 bd 88 19 21 bd 74 af 19 bd
       -0.09472081 -0.087245524 -0.03933099 -0.03752084
000140 f2 9d 98 3d e8 50 1b 3d 32 f0 d5 bd 88 3a e6 bd
       0.07452001 0.037918955 -0.10446204 -0.11241633
000150 0e ff f5 bd 08 59 8d 3c 38 94 b1 3c 26 7d c3 bd
       -0.120115384 0.017254367 0.021677122 -0.095453545
000160 92 86 83 3d 88 26 b2 bd 80 fa ca bb 98 f2 0e bd
       0.064221516 -0.086987555 -0.0061944127 -0.034899324
000170 52 e8 84 3d 60 4d ea bb 78 f9 9d 3c 28 6e ab bc
       0.06489624 -0.007150337 0.019283995 -0.02092655
000180 dc 14 a2 bd f8 79 63 bd f0 67 ce 3d 60 1f ef 3d
       -0.07914135 -0.05553624 0.10078418 0.11675906
000190 78 d7 02 3d 78 f6 c5 bc 44 cd 4c 3d 86 57 b7 bd
       0.03194377 -0.024165377 0.050000444 -0.08952241
0001a0 0e 40 fd 3d 62 8d b4 bd c4 e3 d5 bd e0 3c ad bd
       0.12365733 -0.08816029 -0.104438335 -0.084588766
0001b0 80 08 6d bc 06 ed b3 3d 80 92 97 3b ba 50 eb 3d
       -0.014467359 0.08785443 0.0046256185 0.11490007
0001c0 6c 07 7f bd 04 4c 8e 3d b8 59 74 3d f8 04 ed 3c
       -0.062262937 0.069480926 0.059655875 0.028933033
0001d0 1c 59 ca bd 80 07 59 bc b4 85 09 3d f0 02 cf 3d
       -0.098802775 -0.013246417 0.033574775 0.10107982
0001e0 30 7e 84 3d c0 55 6a bb c8 86 49 bd 00 7c 3d 3c
       0.06469381 -0.0035756677 -0.049200803 0.011565208
0001f0 18 8f bf bc 50 b0 c2 3d ac 06 21 3d a8 48 e0 bd
       -0.023383662 0.09506285 0.039313003 -0.10951358
000200 73 d3 31 bc a9 6d 62 3d 66 8b f4 3d f0 3c f9 3d
       -0.010853636 0.05528036 0.11940651 0.12169826
000210 5f f4 61 bd 86 7b 33 3d 07 6e 94 bd 8e fc 1d 3d
       -0.05516469 0.043818973 -0.072475486 0.038570933
000220 e3 56 8b bd 30 b2 83 3d 73 f1 61 bd a3 0d 6e bd
       -0.06803682 0.06430471 -0.055161905 -0.058118474
000230 88 a4 00 3e a9 90 0c bd 3b f7 e2 bd 99 12 f4 3c
       0.12562764 -0.034317646 -0.11082312 0.029794024
000240 22 e7 b7 3d 3f e2 f8 3c 39 d6 84 bd 2d 4b 58 3d
       0.08979632 0.03038132 -0.06486172 0.05280607
000250 16 42 00 bd 27 29 59 bd 36 21 54 bc 2d 3f 5e bd
       -0.031313024 -0.05301776 -0.012947371 -0.054259468
000260 d9 be d1 3d 46 e6 01 3a ff b0 0e 3d 06 2b 46 3d
       0.102414794 0.0004955273 0.034836765 0.048380874
000270 56 94 a4 bd 1c 03 a3 bd 2d e5 43 bc 3d f4 bf 3d
       -0.08036105 -0.079595774 -0.011956495 0.09372757
000280 d0 42 5b bd 2f ea e5 3d ce 3d fd 3c 80 26 40 3d
       -0.053530514 0.112263076 0.03091326 0.046911716
000290 95 93 b9 bd 5f 78 5f bd 78 c3 01 3d 5a e8 74 bb
       -0.09061352 -0.054558154 0.031680554 -0.0037369938
0002a0 47 ce 84 3d eb 78 b1 bd 1a 2a 13 bd 6f 06 2f bd
       0.06484657 -0.086656414 -0.035928823 -0.042730745
0002b0 3e f6 19 bd b8 8b 93 3d 01 ae c2 3c f4 50 ec bc
       -0.03758835 0.072043836 0.023764612 -0.028847195
0002c0 a7 1f 93 3d 6c b4 d7 bd 36 a9 42 3d c3 ec d1 bc
       0.071837716 -0.105324596 0.047524653 -0.025625592
0002d0 f5 31 ed bd 75 ee e2 bb 97 b7 e6 bd 50 8b 68 3d
       -0.11581794 -0.006925399 -0.11265486 0.056773484
0002e0 ff 38 8a bc 0f 29 80 3d d2 50 7b 3d 05 41 ad 3d
       -0.016872881 0.06257831 0.061356373 0.08459667
0002f0 bc 68 21 3c b1 3b f1 3d 24 a6 c8 bd 02 36 d0 3d
       0.009851631 0.11778963 -0.09797314 0.10166551
000300 e7 af f8 bd 9a a5 2f 3c 6c 90 1b 3d 08 a6 cf 3c
       -0.12142926 0.010720635 0.03797953 0.025347725
000310 b6 a5 00 3e aa f3 80 bd 8d 46 d2 bd 67 51 b4 3d
       0.12563214 -0.06296475 -0.10267363 0.08804589
000320 ab 24 82 bd f0 df 93 bd b8 81 bd bc 8f 0f c5 3d
       -0.0635465 -0.07220447 -0.023133144 0.09622108
000330 85 c6 4c bd 4b 6f 8a bd c0 f7 ab 3d 64 5a fa bb
       -0.04999401 -0.06759509 0.08396864 -0.00764017
000340 01 07 db bb 39 fa 99 3d 37 bd 99 bd b7 fb 9c bd
       -0.0066841845 0.07518429 -0.07506793 -0.07665198
000350 6c 08 9b bd c0 cc 98 bd 09 42 c9 bb f4 a0 0c 3d
       -0.07569966 -0.07460928 -0.006141905 0.034333184
000360 ba c0 dc 3d 1f 7a 35 3d 0f fe 37 3c b6 72 2f 3d
       0.10778947 0.044305917 0.011230006 0.042834006
000370 ea 74 81 bd d4 8b b9 3c ee 9c 1e bd ce 8d 18 3c
       -0.06321128 0.022649683 -0.03872388 0.009311153
000380 cf 92 39 3d f3 d6 2f 3c 24 42 de bd 55 f0 83 bc
       0.045306023 0.0107324 -0.10852459 -0.01610581
000390 d4 67 af 3d d0 8d 9e 3b 14 68 bd bd d9 7f 41 bd
       0.085647255 0.0048386827 -0.09248367 -0.047241066
0003a0 09 71 e8 3d 55 20 51 3c b0 74 e2 3d 7e ca bd bd
       0.11349685 0.012764056 0.110574126 -0.09267138
0003b0 67 9c 02 bb ed 90 a8 3d d8 ad bc 3d 52 d3 89 bd
       -0.001992965 0.082307674 0.092128456 -0.06729759
0003c0 93 ae ea bd dc f3 dd 3d f5 dd 5e 3d ae 27 90 3d
       -0.11459079 0.10837528 0.054410893 0.07038818
0003d0 4f 7e 8f bd 71 7c a4 bd 56 7e df bd 74 6a e2 bd
       -0.07006513 -0.08031548 -0.109127685 -0.110554606
0003e0 09 f3 69 3d df 4a 59 bd 04 99 1c bd cd 9c 9a bd
       0.057116542 -0.05304992 -0.038231865 -0.075494386
0003f0 16 d2 44 3d d9 ef 7c bd 0c 78 29 bd ba 7f 54 bd
       0.048051916 -0.061752174 -0.04137425 -0.051879622

head.0.bias f4 [64]
000000 60 47 83 3d 9a 4a aa bd 58 59 35 3b e9 4d 03 3d
       0.06410098 -0.0831501 0.0027671661 0.032056723
000010 82 8a b1 3d 47 1f b1 bb cc 19 40 bb 70 aa 8f bc
       0.086689964 -0.00540534 -0.002931225 -0.017537326
000020 63 2b 8d 3c dd e5 e8 3d f6 33 f9 3d 5a 80 fe 3c
       0.017232602 0.11371968 0.12168114 0.031067062
000030 bc 5a 87 bd d7 6e d8 3d 14 5b ba bd 45 20 ab 3d
       -0.06609103 0.10568016 -0.09099403 0.08355764
000040 ef 24 d3 39 52 99 3e 3d 27 46 86 3c 84 26 b0 bd
       0.00040272574 0.046532936 0.016390873 -0.08601096
000050 2c 59 1b bd 9a 5b 18 3d 23 8d 02 be 11 3a 4c bd
       -0.037926838 0.037196733 -0.12749152 -0.049860064
000060 58 3e e4 bd e3 59 91 bd 33 84 30 3d 88 a4 06 3d
       -0.111447036 -0.07097223 0.043094825 0.032871753
000070 87 ce 48 bd c4 13 45 bd 26 01 9e 3c 08 64 ac b9
       -0.049025085 -0.048114553 0.019287657 -0.00032880926
000080 b6 b5 b3 bd dc 8f f6 bd db e1 a9 bd ad b5 bd bb
       -0.08774893 -0.12039158 -0.08295032 -0.0057894797
000090 03 f6 32 bc 22 cd b7 bd 99 36 28 3d dc 35 d7 bd
       -0.010922912 -0.08974673 0.041067693 -0.1050832
0000a0 df 50 57 bc ac fd f3 bd cb 79 18 bc 72 2f a9 bd
       -0.01314184 -0.119136184 -0.009306381 -0.082610026
0000b0 68 39 d8 bd 74 f1 ba 3d 63 86 c6 3d fc 47 2f 3d
       -0.105578244 0.09128085 0.09693601 0.04279326
0000c0 dd e4 52 bc 3e c8 3f 3d da 3f 1b bd 8a 61 91 bd
       -0.012871948 0.046821825 -0.03790269 -0.07098682
0000d0 ea 74 d9 bd 47 5f 47 bd d1 ec 16 3c 36 b0 df 3c
       -0.10618003 -0.048674848 0.009211735 0.027305704
0000e0 ff f5 b6 bd d7 c3 d3 bc 51 06 53 3d 9b f3 9a bc
       -0.08933639 -0.02585022 0.051519696 -0.018914988
0000f0 69 06 01 3e 36 13 cb bd f8 5f f4 bd dc 22 99 3d
       0.12600102 -0.099157736 -0.11932367 0.07477352

head.3.weight f4 [1, 64]
000000 45 f6 55 bc 30 e3 12 3d 42 5f a6 bd b4 5a 1a bd
       -0.0130592035 0.035861194 -0.08123638 -0.037684157
000010 f4 02 8e bd 99 fc b8 3d 71 88 cf 3d a8 e0 d0 3d
       -0.06934157 0.09032554 0.10133446 0.101991
000020 b1 f8 96 bd dc f0 f4 bd ae 9f 9c 3d dd 4c 75 3d
       -0.07371653 -0.11960003 0.07647644 0.059887756
000030 c1 b9 be bd e3 5f d7 3d 4e 5b 49 ba 1d 6d 4b 3d
       -0.093127735 0.10516336 -0.0007681147 0.049664605
000040 de 30 88 bb 01 34 d0 bd bf c7 c5 3c 4e 47 f4 3d
       -0.004156216 -0.10166169 0.024143098 0.11927663
000050 7c ee bf bc c8 fb 63 bd f4 2a cc bc 01 ac 08 3e
       -0.023429148 -0.05566004 -0.024922825 0.13346864
000060 d8 77 d5 3c b6 8c 55 bd 2d f4 74 bd 3f 9e 9d bd
       0.026058123 -0.052136146 -0.059803177 -0.07696199
000070 80 0d a2 bd 40 ca d5 bd eb 0c d0 bc bb bf 98 bd
       -0.07912731 -0.10438967 -0.025396785 -0.07458445
000080 54 b7 50 bd aa 67 d6 3d 5a 33 f4 bc c9 ee a9 bd
       -0.050956085 0.10468991 -0.029809643 -0.08297498
000090 ac 9a d0 bb 61 cb 40 bd 4d 6e d3 3d 00 ed 44 3d
       -0.0063660946 -0.047068957 0.103237726 0.048077583
0000a0 bf d7 92 bd 00 a1 d2 3a 22 53 80 bc 1f ba 86 3d
       -0.071700566 0.001606971 -0.01566464 0.065784685
0000b0 cc 55 e8 bd 9e 00 7b 3d a7 be ee bd 74 1c 9a bd
       -0.113444895 0.061279885 -0.11657458 -0.07524958
0000c0 ec 84 cb bd 27 1f 8d 3d a8 9f d5 3c 3a d0 ce 3d
       -0.09937462 0.068907075 0.026077107 0.1009831
0000d0 ac 32 96 bd c0 98 95 3d 10 3c fb bd 34 fd 96 3d
       -0.07333884 0.073045254 -0.122673154 0.073725134
0000e0 01 e0 a1 3d c6 c7 98 bd be 1d 8e 3c 05 9a 2a 3d
       0.079040535 -0.07459979 0.017348167 0.04165079
0000f0 15 c3 01 3e 47 f5 61 3d 42 2a 27 3c d3 e8 68 3d
       0.12672074 0.055165555 0.010202946 0.056862663
